T3-2024/Federated_Learning/Improved_FL/SRC/FL_parameters/client1.pth (torch, 34104 bytes, 9 tensors)

fc1.weight f4 [48, 12]
000000 7c a3 83 3d cf a1 8d 3c 5e 63 18 3f b2 f7 fe bd
       0.064276665 0.01728907 0.5952662 -0.12449588
000010 3e eb 2c 3e 22 a2 58 3e 57 0c 4c 3e 38 1e 1e 3e
       0.16886613 0.21155599 0.19926582 0.15441215
000020 f2 1f aa be 2b 1b fe 3d 62 d8 a3 3e 64 83 3c 3c
       -0.33227497 0.12407526 0.32001024 0.011505935
000030 0f 22 9c bc 26 0a d5 be 5f 3e 02 bf 98 be 54 3d
       -0.01905921 -0.41609305 -0.5087642 0.051939577
000040 14 f0 c0 3e 8c ea ef be 99 ab 83 be d8 bd 01 3c
       0.37683165 -0.46858633 -0.25716856 0.007918797
000050 8c ad 3c be c1 cd 20 3e c3 41 de bd f5 bf ce 3c
       -0.18425578 0.15703489 -0.10852387 0.025238017
000060 dd d2 97 bd 72 af 69 bd 3b b5 67 bf c2 d5 4b 3d
       -0.07413266 -0.057052083 -0.9051091 0.049764402
000070 b6 02 a2 3e 3f 75 ef be ab 4d 59 3e 2a 38 1c 3d
       0.31642693 -0.4676914 0.21221034 0.0381395
000080 8c 1a c4 bb a6 21 20 3e 03 5a 8b 3d ce 32 21 bd
       -0.00598461 0.15637836 0.06804278 -0.03935509
000090 1e 22 a5 bd 3d 7c e1 bb 7b 28 56 bf 1b 95 fd 3c
       -0.08063148 -0.0068812654 -0.8365552 0.030954888
0000a0 7e a9 22 bc 61 b5 2e be 29 63 d1 bd c7 02 d1 3b
       -0.009928105 -0.17061378 -0.102239914 0.006378505
0000b0 4b 9f 64 bd 24 9d 47 3d 8c ec 03 bd 8a 10 90 bc
       -0.055815976 0.048733845 -0.03220801 -0.017586011
0000c0 d5 60 f7 bc 09 47 99 3d bb 67 66 bf ca 6d 44 3c
       -0.03019754 0.07484252 -0.9000203 0.011989066
0000d0 aa ec f9 bc 2a 05 81 be 34 4f 6d 3d dc c3 35 bd
       -0.030508358 -0.25199252 0.057936862 -0.04437624
0000e0 c8 b7 9f 3c 78 98 3b 3c bf d4 b2 bd ee 1a 8e bc
       0.019496813 0.011449926 -0.08731984 -0.017346825
0000f0 eb a9 e1 3d ce d0 2c 3e 97 6e c4 be 14 31 2b bb
       0.110187374 0.16876528 -0.38365623 -0.0026121782
000100 13 45 28 be d4 a8 a7 3e 53 ae 7c bf 3e f8 2c be
       -0.164326 0.32745993 -0.987035 -0.16891572
000110 b8 4c a4 3d 41 16 3c 3d f7 52 a2 be d6 c8 4c 3e
       0.080224454 0.04591966 -0.31703922 0.19998488
000120 39 8e 91 bb 72 6a 38 3e fa 1b 4d bf 7f ac 39 3d
       -0.004442003 0.18009356 -0.80120814 0.04533052
000130 db a8 16 3c b9 33 91 be 82 f0 21 3e a2 e2 ac bb
       0.009195532 -0.28359774 0.15814403 -0.00527604
000140 e7 63 80 3d 24 46 0e bd 20 0a c4 bc f4 2d 24 be
       0.06269055 -0.03473486 -0.02393061 -0.16033155
000150 31 08 ae 3e a3 5b 39 3e 9d 84 23 bd 13 27 c0 bd
       0.33990625 0.18101363 -0.03992139 -0.09382453
000160 d2 43 35 bc a9 0b 06 bf d0 9c 04 bf 2c e6 25 3e
       -0.011063533 -0.5236154 -0.51801777 0.16201085
000170 b8 fe 19 3e e3 e8 2c bd 0f 59 75 3c 80 c5 a6 3d
       0.15038574 -0.042214286 0.0149748465 0.08143139
000180 75 40 e4 3c 70 69 2d 3d 71 26 7f bf 52 ef b9 3d
       0.027862767 0.04233688 -0.9966803 0.0907885
000190 b9 6f 2f 3d 26 93 b0 3b 16 09 6b bd f0 c5 0c bc
       0.042831156 0.005388635 -0.057381712 -0.008592114
0001a0 43 a7 ac 3b ef f8 bd 3c fb 35 ff bc b3 54 a1 3d
       0.0052689626 0.02318999 -0.03115367 0.07877483
0001b0 ba fb 6c 3d f8 47 32 bc 5f d4 36 3f c7 8a 00 3e
       0.057857253 -0.0108814165 0.714178 0.1255294
0001c0 50 4b fd 3d f3 a4 7c 3d 8d 22 2c 3e 59 d3 2d 3d
       0.1236788 0.061680745 0.16810055 0.042437885
0001d0 2c bb 6e bd 4e 08 3e 3d cd c2 1f 3e 58 d2 e6 3c
       -0.05828397 0.04639464 0.15601654 0.028176472
0001e0 23 91 0a 3e 45 8a 85 be 02 0c 27 bf 63 fc 06 bd
       0.13531928 -0.26082054 -0.652527 -0.03295554
0001f0 b5 46 13 3c 86 7f b4 be 1d 1c 53 3e ea 95 34 3d
       0.008989026 -0.35253543 0.20616193 0.04408828
000200 52 1f 1c bc 94 dd 35 3c 40 35 eb bc 12 5f 02 3d
       -0.009528952 0.011100192 -0.028711915 0.031828947
000210 89 dd ce 3c af 0a bf 3d f8 ad f9 3d 89 40 6c bd
       0.02525212 0.093282096 0.12191385 -0.057678733
000220 2c f8 33 bf 2c 80 8c 3c 12 e7 9a bf f3 d6 40 3d
       -0.70300555 0.01715096 -1.2101767 0.04707999
000230 7f 73 37 3d 04 76 24 3e cb d6 2d be d3 c3 ef 3b
       0.04478788 0.16060644 -0.16976468 0.0073170452
000240 4d b4 1e 3d 69 a3 04 ba 7a 1c 61 be 0b bc be bc
       0.038746167 -0.00050597504 -0.21983519 -0.023283025
000250 8e 7a cc bd 08 e6 13 bf a0 cc d6 be 59 09 81 bc
       -0.09984313 -0.57772875 -0.4195299 -0.015751528
000260 2d b4 47 bd 6f 8c 41 bd 0c 80 1f be a9 61 b2 3d
       -0.048755813 -0.04725307 -0.1557619 0.087100334
000270 3e 13 03 3c 30 d7 5c 3e 15 de 69 bf 6b b6 5d 3d
       0.008000193 0.21566463 -0.91354495 0.054129045
000280 26 24 b6 bd f9 67 cc be a0 0b bf 3e 9f f7 18 be
       -0.088936135 -0.39923075 0.37313557 -0.1493821
000290 dd 0f a2 3d a2 aa 92 bc 9c 12 71 bd ad 80 e1 bd
       0.07913182 -0.01790363 -0.058855638 -0.11010871
0002a0 87 ba f2 bd 69 78 5c 3d ac 78 50 bf c4 06 19 3e
       -0.118519835 0.05382577 -0.8143413 0.14943987
0002b0 74 fb b7 bd e2 87 41 3d a4 ab a9 3e 60 c5 ab bc
       -0.08983508 0.04724873 0.33138764 -0.02096814
0002c0 d4 d8 98 3d 3e e8 ba 3d 59 80 c9 bc 03 ef 1c 3e
       0.07463232 0.09126328 -0.024597334 0.1532555
0002d0 e1 9e 11 bd b0 ac 16 3d 85 58 16 3f f5 60 69 3d
       -0.03555191 0.03678578 0.5872882 0.05697723
0002e0 05 6b 0f 3e 3c b6 05 3e 6b bb 37 3e a2 2d 52 3c
       0.14005668 0.13057798 0.17942588 0.0128282625
0002f0 40 91 c1 bc 2f bc d0 3d 11 19 e7 3c b3 46 f5 3b
       -0.02362883 0.10192143 0.028210195 0.0074852346
000300 25 e1 b4 3d ec 1e 91 ba 2e 21 37 3f 2c 41 b4 3d
       0.088320054 -0.0011071838 0.71535003 0.08801493
000310 ad de 50 3e 9b 6b 19 3e 87 02 7b 3e c0 ef f4 3c
       0.20397444 0.14982454 0.24512683 0.029899478
000320 3d da 9d bc bd 25 0b 3e a6 49 48 3d 28 34 8c bd
       -0.019269103 0.13588615 0.04889836 -0.068458855
000330 32 e7 f5 bd 24 73 95 3d de 65 50 bf 09 70 8a bd
       -0.12006988 0.07297352 -0.81405437 -0.0675965
000340 43 b5 fb bc 01 77 c5 be 48 f0 12 be 56 95 13 3d
       -0.03072608 -0.38567355 -0.14349473 0.03603109
000350 ed 6a 6c bd 10 5f 03 bc 1e 36 e3 bd d6 d2 52 3d
       -0.05771916 -0.00801827 -0.110943064 0.0514706
000360 01 00 ac 3d 03 45 86 be ac c5 21 3f 01 77 5b 3c
       0.08398438 -0.26224527 0.6319225 0.013395072
000370 d0 ab 1f 3e 81 4d 64 3c 52 18 e8 3d aa 50 bc bf
       0.15592885 0.013934494 0.11332764 -1.4712117
000380 d3 d2 fe 3c 9e 9d 8c 3d 9a 73 5a 3e 27 2b c3 bd
       0.031106388 0.068660006 0.21333161 -0.09529715
000390 04 86 10 3e a9 84 a8 ba a6 6a 70 bf 55 02 81 3c
       0.14113623 -0.0012856919 -0.9391273 0.015748182
0003a0 aa fd 7e bd 17 d2 78 be bf 8b 1a 3e 08 6a 0e bb
       -0.06225363 -0.24298893 0.15092371 -0.002173068
0003b0 74 3a df 3d c5 32 c8 bd f4 90 06 be 61 b3 92 bd
       0.10899821 -0.097753085 -0.13141233 -0.0716312
0003c0 30 b0 8a 3a 82 45 df 3d 16 88 22 3e db 8f bc bd
       0.0010581072 0.109019294 0.15872225 -0.09207126
0003d0 ac 15 3e bf 71 12 8d 3c fb 55 a4 bf 64 43 73 3d
       -0.7425182 0.017220708 -1.2838739 0.05939044
0003e0 17 83 a4 3d 18 d4 d6 3d 7e e4 27 be a2 bc 7f ba
       0.08032816 0.104896724 -0.16395757 -0.00097555865
0003f0 30 9d cc 3d 65 80 06 bd 20 44 7a bf 44 5c 26 3d
       0.09990919 -0.03283729 -0.977602 0.040615335

fc1.bias f4 [48]
000000 bd 0e 15 bf 95 cf 26 3e 83 03 87 bc 2e 4c 18 3f
       -0.58225614 0.16290124 -0.016481167 0.5949124
000010 f7 d7 da 3e 71 b2 98 3d 01 c1 9b 3e d0 92 ca bd
       0.42742893 0.0745591 0.30420688 -0.098912835
000020 46 1a ea 3e ab a0 27 bf 56 df d3 3e bf f6 8e 3e
       0.4572317 -0.65479535 0.4138133 0.27922627
000030 08 d1 d4 3e 7c 1b c8 3d 11 f4 57 bc c4 c7 21 bf
       0.41565728 0.09770867 -0.013180749 -0.63195443
000040 8b d3 31 bf fa 63 12 3f cf 18 d8 be 72 2a e5 3e
       -0.69463414 0.571838 -0.42206427 0.44758946
000050 bc 78 90 3e 84 f2 94 3e a7 b5 0a bf ec 7f 9f 3e
       0.28217113 0.29091275 -0.5418343 0.31152284
000060 9d e5 8b 3e 49 b2 20 3f 4b fb dd be 01 c1 f7 3e
       0.2732362 0.6277204 -0.43355784 0.48389438
000070 59 17 80 be ca e3 16 3f 46 20 0c 3f 64 7c 24 bf
       -0.25017813 0.5894133 0.54736745 -0.64252305
000080 50 a4 37 bf 57 c8 a1 3e 58 78 4b 3e e6 65 8a 3e
       -0.71735096 0.3159816 0.19870126 0.27030867
000090 d3 01 b7 be 09 e3 0c 3f ee 81 fd 3d b4 71 9e 3e
       -0.3574358 0.5503393 0.12378298 0.30946124
0000a0 51 29 a4 3e dc b6 b5 bc f8 fc 0a 3f c5 3e 42 be
       0.32062772 -0.02218192 0.5429225 -0.18969257
0000b0 99 b2 4d be 22 8e 03 bf c9 7b 15 bf 09 b9 c0 3e
       -0.20087661 -0.5138875 -0.58392006 0.3764117

fc2.weight f4 [96, 48]
000000 66 fb c4 3e 67 c6 bf be 28 45 29 bf fb 8f 00 bf
       0.38473052 -0.37456056 -0.6612115 -0.50219697
000010 de 0a cb be 51 2b 2f bf 26 7a 48 bf db c1 03 bf
       -0.39656729 -0.6842547 -0.78311384 -0.51467675
000020 e9 74 37 bf 9f 66 05 3f a5 fc 91 be 21 2b fd bf
       -0.71662766 0.5210971 -0.28513065 -1.9778787
000030 1b 99 d3 be 21 55 17 bf 09 e9 30 bf 57 f5 18 3f
       -0.41327748 -0.5911427 -0.69105583 0.5974936
000040 fe 40 30 3f 8d bf 06 bf 06 30 19 3f eb e9 b7 be
       0.6884917 -0.52636033 0.598389 -0.35920653
000050 3d 1c 10 c0 c7 c3 cd be 38 a7 da 3e 5f 7e 04 c0
       -2.2517235 -0.4018843 0.42705703 -2.070213
000060 8d 6d 17 c0 dc 84 d6 be bf c9 4c 3e 0e 8d df be
       -2.3660614 -0.4189824 0.19998835 -0.43662304
000070 29 d3 ea 3d 3a 0e cb be 20 74 8d be 6e 18 dd 3e
       0.11466057 -0.39659292 -0.2762766 0.431827
000080 84 e5 3b 3f 3d 56 92 be 64 13 f3 be 97 57 e2 bf
       0.7339709 -0.2858142 -0.4747573 -1.768298
000090 61 1e f9 3e 7a 53 f7 be f3 83 27 bf cf eb 14 bf
       0.4865599 -0.48305875 -0.65435714 -0.58172315
0000a0 bd 37 d2 be 42 0d 3e bf ea 11 0d bf ab cc bd bd
       -0.4105815 -0.7423898 -0.5510546 -0.09267553
0000b0 37 e8 06 3e 76 eb 14 3f 10 1c 4c 3f 37 7e 7e bf
       0.1317452 0.58171785 0.7973032 -0.9941134
0000c0 95 59 7e 3e 46 70 50 bf 02 f2 29 bf 88 11 53 bf
       0.2483886 -0.81421316 -0.663849 -0.82448626
0000d0 b5 1b 15 bf 3e 8c 96 bf bf 39 52 bf 40 c1 3a bf
       -0.582454 -1.1761549 -0.82119364 -0.72951126
0000e0 82 a8 3d bf 84 60 9f 3e c6 2b ad be be 47 9c bf
       -0.7408525 0.31128323 -0.3382246 -1.2209394
0000f0 19 54 59 bf 17 45 32 bf 0d af f5 be 90 07 e9 3e
       -0.8489395 -0.6963667 -0.47985116 0.45513582
000100 e2 59 14 3f 5c ac 03 bf 49 69 bc 3e e8 a3 18 bf
       0.5794965 -0.51434875 0.36799076 -0.596251
000110 5a d4 a2 bf b7 ff 2f bf 3d e2 02 3e 25 d1 a9 bf
       -1.2721055 -0.68749565 0.12781616 -1.3266951
000120 55 12 b1 bf 5a b9 0e bf d8 72 5f 3e 0a 85 02 bf
       -1.383372 -0.55751574 0.21821153 -0.5098425
000130 41 f1 0a 3e a7 2c 1b bf 03 c9 37 bf c7 88 09 3f
       0.13568594 -0.6061501 -0.71791095 0.5372433
000140 d6 cc c4 3e 88 a4 7c bf 02 f5 7e bf bd c1 9b bf
       0.38437527 -0.98688555 -0.995926 -1.2168499
000150 48 ed 9e 3c d0 22 1e bf 80 61 93 bf 18 ed 64 bf
       0.019400254 -0.6177187 -1.151413 -0.89424276
000160 fb 67 91 bf 8a 0e c7 be 53 e9 2e bf a5 35 00 be
       -1.1359857 -0.3887828 -0.68324775 -0.12520464
000170 3c 4f f6 bd 88 3c dc 3e f0 69 3c 3d 7b 14 42 bf
       -0.120268315 0.43014932 0.045999467 -0.758125
000180 37 8f 83 3e 36 c3 71 bf 0f af 57 bf 63 1b 25 bf
       0.25695202 -0.94438493 -0.84251493 -0.64494914
000190 91 46 d3 be bc 9c 96 bf 2f db 38 bf 9d 77 82 bf
       -0.41264775 -1.1766582 -0.7220945 -1.0192753
0001a0 31 0f 4d bf c0 ad d2 3e 2c cc ae be 7b 57 e0 bf
       -0.80101305 0.41148186 -0.34140146 -1.7526697
0001b0 a2 f5 4a bf 48 f1 00 bf d8 99 3f bf be 67 85 3e
       -0.79281056 -0.50368166 -0.7484412 0.26055712
0001c0 eb e1 ee 3e 18 61 e9 be 46 67 ee 3e 91 01 c7 be
       0.46656737 -0.4558189 0.46563166 -0.38868383
0001d0 1e 33 f6 bf 28 d4 a3 be e7 39 13 3f a3 67 da bf
       -1.923435 -0.319978 0.57510227 -1.7062877
0001e0 d0 b6 f3 bf 96 9f f4 be 49 38 11 3e ab 90 c5 be
       -1.9040165 -0.47778004 0.14181627 -0.38586935
0001f0 73 e9 53 bd 83 67 15 bf 0b 20 01 bf 59 40 12 3f
       -0.051736306 -0.5836107 -0.5043952 0.57129437
000200 b4 c5 1e 3f 3e 9e 60 bf 52 c0 49 bf 78 f6 cd bf
       0.6202042 -0.8774146 -0.7880908 -1.6090841
000210 2d 50 20 3e d9 94 39 bf eb 12 80 bf 35 e1 19 bf
       0.15655585 -0.7249275 -1.0005773 -0.60109264
000220 40 05 65 bf 1a 4a 19 bf b9 25 3f bf d5 96 92 bd
       -0.89461136 -0.59878695 -0.74666935 -0.07157675
000230 7f 1a da 3d 9b 95 19 3f 4a 8a 02 3f a2 f1 88 bf
       0.10649585 0.59993905 0.5099226 -1.069874
000240 a0 69 61 3e fd c9 48 bf 15 d6 39 bf b0 34 61 bf
       0.22012949 -0.7843321 -0.7259229 -0.8797102
000250 03 c2 26 bf e7 3b 80 bf e7 a2 33 bf aa 1c 27 bf
       -0.6513979 -1.0018281 -0.70170444 -0.6527811
000260 d7 00 60 bf 73 3a 73 3e 48 f1 04 bf f0 f9 9c bf
       -0.8750128 0.23752765 -0.51930666 -1.2263775
000270 99 6c 4f bf 09 3e 4a bf e3 95 a9 be 13 d8 a3 3e
       -0.8102508 -0.7900091 -0.33122167 0.3200079
000280 bb 3d f3 3e 97 85 33 bf 77 57 5c 3e 7b 2a ba be
       0.47508034 -0.70125717 0.2151774 -0.36360535
000290 fb d4 9f bf 21 30 28 bf 4b f3 f9 bd de c2 98 bf
       -1.2486871 -0.6569844 -0.122046076 -1.1934469
0002a0 28 13 a2 bf e0 8c 67 bf 5f 39 be 3d 49 40 06 bf
       -1.2662096 -0.90449333 0.092882864 -0.5244184
0002b0 6e 22 11 3e 5c 27 50 bf 68 6b 29 bf 2a 0c fa 3e
       0.1417329 -0.8131006 -0.66179514 0.48837405
0002c0 2d 32 15 3f d8 94 86 bf b6 bd 81 bf 98 08 9c bf
       0.5827969 -1.0514174 -1.013602 -1.2190123
0002d0 c7 53 2b bb cf 19 1a bf 54 5d 8a bf 15 b3 5c bf
       -0.0026142464 -0.6019563 -1.0809731 -0.8621076
0002e0 62 4c 62 bf ec 95 cb be 58 6c 5f bf d5 91 26 3d
       -0.883978 -0.3976282 -0.87274694 0.04066642
0002f0 d8 f9 eb 3c b5 60 c5 3e 45 8c ea 3d 1e a1 61 bf
       0.028805658 0.38550344 0.114525355 -0.8813647
000300 b5 b5 85 bd d6 b3 0f 3f 04 31 fa 3e 82 68 17 3f
       -0.065287985 0.5613378 0.4886552 0.5914384
000310 99 e9 26 3f 7f 03 64 3f 97 9a 9b 3e af 61 df 3e
       0.6520019 0.89067835 0.3039138 0.43629214
000320 b1 31 92 3e 4e 38 32 bd db a9 f9 3e 54 a5 4c 3f
       0.28553537 -0.043510728 0.48762402 0.7993977
000330 ca 8e 18 3f 02 16 c4 3e 45 f8 86 3e 13 5d eb bc
       0.5959288 0.3829804 0.2636129 -0.028730905
000340 04 02 b7 bd 37 a6 75 3f 2c b0 34 bd d7 e3 22 3f
       -0.08935931 0.9595675 -0.044113323 0.63628906
000350 67 34 0a 3f b3 c2 31 3f 03 80 d7 bc a2 e9 4d 3f
       0.5398621 0.6943771 -0.026306158 0.8043462
000360 9b 81 c6 3e 20 de 6b 3f 3b dd 1a bd 22 a4 5d 3f
       0.38770756 0.9213581 -0.037808638 0.8657857
000370 45 51 0d be 4e b9 29 3f e6 8c 25 3f e8 78 03 bd
       -0.13800533 0.6629838 0.6466812 -0.032097727
000380 51 53 6a 3c b6 8c 5e 3f 48 49 41 3f 56 ec 2c 3f
       0.014302091 0.8693346 0.75502443 0.6754812
000390 7e 32 a1 bc d7 34 2b 3f 18 35 45 3f 2d 57 4b 3f
       -0.019677397 0.668775 0.7703414 0.79429895
0003a0 cf 35 65 3f bd e6 db 3e d3 ad b3 3e 11 ff c0 3d
       0.8953523 0.42949477 0.35093555 0.0942365
0003b0 fa f4 0d 3e e1 d4 d2 bd 87 f1 e5 3c fc 9e d5 3e
       0.13862982 -0.1029451 0.02806927 0.41722858
0003c0 36 3f 8c bd 1c 9b 08 3f 6e 5a 06 3f 9e 58 04 3f
       -0.06847994 0.5336168 0.52481735 0.5169772
0003d0 66 4c 24 3f 36 54 43 3f 12 0e c0 3e 8e 70 14 3f
       0.64179075 0.7630037 0.37510735 0.57984245
0003e0 d0 6b 7d 3f cd 8e 66 bc d0 a6 ac 3e 28 45 c3 3f
       0.98992634 -0.014072132 0.33721018 1.525548
0003f0 19 ab 31 3f 5b 1d b0 3e 38 22 ff 3e 18 48 85 3d
       0.694017 0.34397396 0.49830794 0.065078914

fc2.bias f4 [96]
000000 12 0d 4c 3f 1b 20 2b 3e b0 4a c4 3e 84 df 31 3e
       0.79707444 0.16711466 0.38338232 0.1737042
000010 36 32 22 3e 0b 69 03 3d d5 46 08 3f 60 90 48 3d
       0.15839466 0.0320826 0.5323308 0.04896581
000020 3a 2b 30 3d 42 64 07 3f 03 31 3b bf 7c bf 0f 3d
       0.043009974 0.52887356 -0.7312166 0.035094723
000030 aa b8 89 3c 0c 41 7f 3e 57 79 09 3e 14 08 b2 3d
       0.016811687 0.24927157 0.13425194 0.08692947
000040 ab bb 74 3d af 67 97 3e c4 2a a6 3d ef 8d 0e 3e
       0.059749287 0.29571292 0.08113626 0.13921331
000050 4b 16 c1 be b8 b4 89 bf 5f 73 11 bf 41 9e f8 3d
       -0.3771232 -1.0758276 -0.5681667 0.121395595
000060 37 bf ec 3c 3f 30 a9 3d 17 38 3f 3f 14 34 f1 3e
       0.028899772 0.08261155 0.7469496 0.47110045
000070 a7 a9 cf 3d 6a 03 84 3e 26 43 67 3e 4f 3e 36 3e
       0.101397805 0.25783855 0.22584209 0.17797206
000080 a9 e7 4f 3f f1 12 23 be 83 c5 5b bf ec 58 ab 3d
       0.8121286 -0.15925194 -0.85848254 0.0836657
000090 40 d5 1c 3f c9 95 86 be 1e c0 0f 3f 1d 79 15 bf
       0.61262894 -0.26286152 0.5615252 -0.5838793
0000a0 a4 24 ea 3e 58 f8 81 3d 8f 5c 6d 3e c8 4a 7d 3d
       0.4573108 0.06346196 0.2317984 0.061838895
0000b0 a7 0c a4 3e ce 80 58 3e d2 df 5f 3d d9 58 28 bd
       0.32040903 0.21142885 0.05465681 -0.041100357
0000c0 8b fe 96 3d b2 6e a6 3d 18 bf 7a 3d a1 27 f2 3d
       0.07372769 0.08126582 0.061217397 0.11823965
0000d0 70 2f 40 3e 94 40 bf bf 8c af 51 be 15 04 aa 3c
       0.18768096 -1.4941583 -0.20477122 0.0207539
0000e0 50 30 4c 3d be d5 1f bb aa 64 0e 3e b5 8e cb 3d
       0.049850762 -0.0024388875 0.13905588 0.099393286
0000f0 3f 3f 03 3e 2c 66 03 bf b1 15 a6 3e f4 cc 34 3d
       0.12817095 -0.51327777 0.32438424 0.04414077
000100 8c 2b 00 3e 96 45 82 3d 9c e1 57 3d 15 85 51 3e
       0.12516612 0.06360929 0.052705392 0.20460923
000110 b5 07 c5 bf f9 5c 36 3f 3a 9e ab 3e d0 44 42 3e
       -1.5392977 0.71235615 0.33519155 0.18971562
000120 8e d5 eb 3e 33 ab 2e 3f 70 9a 82 3e fc 3e 85 3d
       0.46061367 0.6822998 0.2550845 0.06506154
000130 cc 99 75 3e 25 60 dc 3e 8c 35 a1 3e 26 45 0a 3e
       0.2398445 0.43042102 0.31486166 0.1350294
000140 1d db d2 bd 1b fd 99 3e 6e 43 dd 3d 0a 5f 95 3d
       -0.10295699 0.30075917 0.10803877 0.07293518
000150 30 93 fc 3d 03 97 9d 3e a7 f1 55 3f 08 d4 b8 3d
       0.12332761 0.30779275 0.8357186 0.09024817
000160 3b e7 19 3d 2a e1 3a 3f a2 3d e9 3c 9d 5d 4c bf
       0.037574034 0.72999823 0.028471772 -0.7983034
000170 ce a8 ff 3d c3 f5 54 3d 42 24 ea 3c 8b f8 38 3f
       0.12483369 0.05199219 0.028581742 0.72254246

fc3.weight f4 [24, 96]
000000 37 f8 06 bf e0 bc 17 bf a2 18 23 bf b9 ff 47 bf
       -0.52722496 -0.59272575 -0.6370946 -0.78124577
000010 06 72 38 bc 6f 7e 89 bc a0 5f 40 bf 43 df a8 3c
       -0.011257654 -0.016783921 -0.7514591 0.020614272
000020 8b 69 97 bd 7c fc 36 bf 27 6e 4d 3e 11 4e 3b bd
       -0.073931776 -0.7147901 0.20061551 -0.045728747
000030 b9 c7 af bc 0d 7c 43 bd 28 ce 3e bd f4 d2 16 3c
       -0.02145754 -0.047725726 -0.046583325 0.009205569
000040 9f fc e4 3c 11 6a da bd 37 88 6b 3d a1 2d a6 3d
       0.02795249 -0.10664762 0.05750295 0.08114172
000050 17 60 d1 3d 9c 08 b3 3e 4f e0 0b 3e c7 ed 40 bf
       0.10223406 0.34967506 0.13659786 -0.7536282
000060 77 69 87 bf 77 36 12 bc 33 fb 1f bf 2f 96 27 bf
       -1.057906 -0.008924118 -0.62492675 -0.65463537
000070 40 d2 2d bd 5a 2a 1f bf 6b b0 00 bf 83 9b 4c bf
       -0.04243684 -0.62174 -0.5026919 -0.7992479
000080 f6 30 94 bd f5 0a 1d 3e f6 ec 64 3e d6 52 1f bd
       -0.07235901 0.15336211 0.22356018 -0.038897358
000090 e9 56 1a bf 66 ee 94 3d 6a 80 29 bf 82 68 1c 3e
       -0.60288864 0.072720334 -0.6621157 0.15274242
0000a0 3d db ae be dc 82 80 bc d2 65 cd bd e1 c5 4d bd
       -0.3415164 -0.015687399 -0.10029186 -0.05023754
0000b0 5e 27 1d bf da 4d 0b 3b 05 c7 19 bd ec 01 42 bd
       -0.61388195 0.002125612 -0.037543315 -0.047365114
0000c0 02 fe 69 bf 5e 7e 6c bd ef 9e 67 3c f8 a0 27 bd
       -0.9140321 -0.0577377 0.014137014 -0.040924996
0000d0 05 90 50 bf 34 2c 6f 3f 0a b6 2b 3e a8 cf d1 3c
       -0.81469756 0.93426824 0.16768661 0.025611714
0000e0 4b 0a c0 3c 65 65 9b bc bf d3 44 bd e4 78 4d bf
       0.023442408 -0.018969247 -0.0480535 -0.8026259
0000f0 5f 4b 7a bc ed ef 1e 3e 81 0d 4d bf 2f ff 09 bd
       -0.015276759 0.15521212 -0.8009873 -0.033690628
000100 3a 7a 5e bd c4 b5 b4 3c e1 b5 96 3d c0 95 1d bf
       -0.054315783 0.022059329 0.073589094 -0.61556625
000110 83 50 1e 3f 5f 81 15 bf f4 f7 6b bc 19 7d 3c bf
       0.618416 -0.5840053 -0.014402378 -0.73628384
000120 07 8f 05 bf 47 79 09 bf 95 53 2d bf 53 9c de bc
       -0.5217137 -0.5370068 -0.6770566 -0.02717415
000130 b7 99 03 bf b8 58 0b bf cd 22 2c bf e7 fc 65 bd
       -0.51406425 -0.5443225 -0.672406 -0.05614939
000140 13 d0 af bc 6f e1 3e bf 6a 64 ba 3c 48 53 b6 bc
       -0.021461522 -0.74562734 0.02275296 -0.022256508
000150 56 15 5a bd 0c db 43 bf db 06 04 be b5 d9 97 bb
       -0.053243004 -0.76506114 -0.1289324 -0.004634107
000160 5b dc 88 3b f6 9e 43 bf d5 d9 8f bd 3c bf d1 3d
       0.004176659 -0.7641443 -0.0702397 0.10241553
000170 ba 72 9e 3d 98 97 cf bc 3f 42 f2 bc 51 4f 1d bf
       0.07736726 -0.02534084 -0.029572604 -0.6144915
000180 79 75 82 bd 20 45 87 be 82 bd a1 bd 80 08 9d be
       -0.063700624 -0.26419926 -0.07897474 -0.30670547
000190 90 cd 91 3e 34 95 c3 3e 8a 46 ff bb 2e dd 99 3d
       0.28477144 0.3819977 -0.0077903913 0.0751289
0001a0 e9 55 93 3e ba 05 a6 bb 56 8e 0a 3f 0a 82 97 3e
       0.28776482 -0.0050666006 0.5412344 0.295914
0001b0 13 3b 86 3e fc 33 1f 3e 58 91 3f 3e 21 1f d9 3d
       0.26216945 0.15547174 0.18707788 0.106016405
0001c0 12 54 ca 3e 0c c0 2b 3e fe 2e 77 3d d8 9c 9b 3e
       0.39517266 0.16772479 0.06034755 0.303931
0001d0 86 80 60 3e 61 22 33 3f 69 54 1b 3f b0 43 63 be
       0.21924028 0.69974333 0.60675675 -0.2219379
0001e0 19 93 e8 be 12 2c 87 3e 13 c5 d8 bd 8f d5 1b be
       -0.45424727 0.2640081 -0.10584464 -0.15218185
0001f0 87 96 86 3e e8 4a 80 be d9 e7 88 bd ad 80 a5 be
       0.26286718 -0.2505715 -0.066848464 -0.32324734
000200 f1 78 73 bd ef 89 a4 3e b0 1d c3 3e 24 5a a1 3e
       -0.05944151 0.32136485 0.38108587 0.31514084
000210 c3 84 12 3d 9c 58 ba 3e cf b0 d9 bd 47 8f bf 3e
       0.035771143 0.3639573 -0.10629427 0.37414
000220 e1 15 c3 bd b6 5f 16 3e 76 da 72 bd e0 cf 53 3e
       -0.095256574 0.14684948 -0.05929037 0.20684767
000230 32 0f 7e be 60 73 7a 3e 69 5e 75 3e 18 47 a3 3e
       -0.24810484 0.24458075 0.23961796 0.31890178
000240 55 75 e2 be f5 da af 3e ed 50 39 3e 3c f1 c2 3e
       -0.44230142 0.34346738 0.18097277 0.38074672
000250 56 a9 77 be fd 49 d8 3e ef f0 7a 3e cb 8f ac 3e
       -0.2418569 0.4224395 0.24505971 0.33703455
000260 8d f7 98 3e a2 ca 96 3e ea a2 8d bd 95 98 10 bf
       0.29876366 0.29451472 -0.06915839 -0.5648282
000270 01 1c 17 3e 65 f0 34 3e 94 e6 2d be 1b 1f d1 3e
       0.14756776 0.17669828 -0.1698249 0.40844044
000280 9e a5 7d 3e 72 ee 07 3e ce d3 9c 3e 64 d7 8f be
       0.24770209 0.13274553 0.30630344 -0.28094018
000290 e5 6a 2c 3f 68 e9 82 bd dd aa 16 3e 6e 0e 05 be
       0.6735061 -0.06392175 0.14713617 -0.12993786
0002a0 c2 5f 42 3b 6e 03 d3 bc 2c eb e3 bd e7 ed a3 3e
       0.0029659127 -0.025758471 -0.1112884 0.32017443
0002b0 c1 84 6e be 0c 75 2f be fc 19 f8 bd a2 de ac 3d
       -0.23292829 -0.17134494 -0.12114331 0.08440901
0002c0 dc a9 92 3c 17 c7 0a be 19 15 87 3e d2 6d 7c 3e
       0.01790326 -0.13552509 0.26383284 0.24651268
0002d0 7d dd 29 3e 21 70 85 be 60 72 85 be 43 99 9b 3e
       0.16588397 -0.2606211 -0.26063824 0.30390367
0002e0 c7 87 06 3e b9 f9 50 bd 2a d3 8d 3e 50 e1 05 3f
       0.13137732 -0.051019404 0.27700168 0.52296925
0002f0 2b d9 96 3e ab a9 c4 3c 80 ac 4e 3e 7d df 9e bd
       0.2946256 0.024006685 0.20182991 -0.07757471
000300 1f 7e cb ba f2 69 63 be 66 86 95 bd da f8 b6 be
       -0.0015525258 -0.22208384 -0.07301025 -0.35736734
000310 79 ad 3e 3f c5 22 05 3f ca 28 1c bd 62 3a 09 3f
       0.7448345 0.5200618 -0.038124837 0.5360471
000320 3f cb 2f 3f 82 ef 19 be b1 a6 a5 3e 8b df 00 3f
       0.68669504 -0.15032771 0.32353738 0.503411
000330 b2 85 0f 3f d5 81 f9 3e 6e 80 d6 3e 39 e2 b5 3e
       0.5606338 0.48731866 0.4189486 0.35524157
000340 17 89 38 3f ca 0c 64 3e 86 6e dd 3d a2 b2 0e 3f
       0.7208418 0.22270504 0.10812096 0.5574132
000350 85 95 a4 3e bf 7e c0 3e 18 b2 2b 3f 59 d0 88 bd
       0.32145324 0.375967 0.67068624 -0.06680364
000360 33 e0 41 be 97 db 19 3f ae bc 94 bc 68 cb 60 be
       -0.18933181 0.6010069 -0.018156376 -0.21952593
000370 40 d3 26 3f 51 7f 07 be 70 68 3f be b9 47 48 be
       0.6516609 -0.13232161 -0.18692183 -0.1955861
000380 63 6c 44 be 5f 77 cf 3e a7 1a 9a 3e 65 03 0f 3f
       -0.19181971 0.4052076 0.3009846 0.55864555
000390 73 e1 88 bd bb 39 ba 3e d9 ce e7 bd 68 52 99 3e
       -0.06683626 0.3637217 -0.1131875 0.29945683
0003a0 6c 2c f6 bd f1 4f fd 3e 0c 85 02 bd d0 43 14 3f
       -0.120201916 0.49475053 -0.031865165 0.57915974
0003b0 5d 73 86 bd d2 cf 21 3f 23 82 cf 3e 4a 02 e9 3e
       -0.065649725 0.63207734 0.40528974 0.4550956
0003c0 ca 99 63 be 78 13 c5 3e 2d de b2 3e f5 31 e0 3e
       -0.22226635 0.38491416 0.34935132 0.43788114
0003d0 b6 cd 4d be f7 9a ea 3c 40 e3 e8 bd 28 bb 1c 3f
       -0.20098004 0.028638346 -0.113714695 0.6122308
0003e0 3b fd 13 3f de 65 43 3f 16 69 cb 3e ea 8b 48 be
       0.57808274 0.7632731 0.39728612 -0.19584623
0003f0 0d 6d 1e 3f 38 51 66 3e a3 99 5a bd a3 47 e4 3e
       0.6188515 0.2249192 -0.053369176 0.44585904

fc3.bias f4 [24]
000000 53 9a ef bf b8 28 2c bf 28 eb 3f bf 20 2e 85 bf
       -1.8718971 -0.6724963 -0.74968195 -1.0404701
000010 3c 1e bf bf 20 55 bc bf 32 dd 45 bf 58 8e 8d bf
       -1.4931102 -1.4713478 -0.7729064 -1.1059065
000020 dd d0 b8 bf 12 1e 38 bf 7b 9d 54 bf 50 c6 53 bf
       -1.443874 -0.71920884 -0.83052796 -0.82724476
000030 da 0d 37 bf 66 3f 6a bf 43 6b 8e bf 6b 2e b3 bf
       -0.7150551 -0.9150299 -1.1126484 -1.3998541
000040 e6 2e 5a bf d9 bf de bf f0 d0 b4 bf 2c 53 cf bf
       -0.8522781 -1.7402297 -1.4126263 -1.6197257
000050 79 38 ea bf 5a 98 59 bf d7 08 e0 bf f4 f6 4a bf
       -1.8298484 -0.84998095 -1.7502698 -0.7928307

fc4.weight f4 [2, 24]
000000 a5 72 88 bf f1 93 23 3d bc 1f 7d 3d 05 5b bd be
       -1.0659987 0.03993601 0.061797842 -0.36983505
000010 3d b4 52 bf 3e 4d 43 bf f5 06 37 3d ac da 71 be
       -0.8230627 -0.7628974 0.04468437 -0.23618573
000020 0b fe 4c bf 40 93 9d 3f 19 bd 1b 3c a1 48 9a bc
       -0.8007514 1.2310562 0.009505534 -0.01883346
000030 70 b3 05 ba 18 1a 02 bf a3 0d 81 be e4 d9 33 bf
       -0.00051002856 -0.50821066 -0.25205716 -0.7025435
000040 41 ce 3d bd a6 1d 83 bf 3e df 23 bf 2a 7a 78 bf
       -0.046339277 -1.0243423 -0.64012516 -0.9706141
000050 6e 8a 8c bf b5 6e 8e 3d 43 ce 76 bf 05 98 a5 3f
       -1.0979745 0.069547094 -0.9640848 1.2937018
000060 36 78 66 40 88 4c 3a 3f 4c ec b2 3e b3 c0 fb 3f
       3.601087 0.7277303 0.34945905 1.9668182
000070 0b ad 53 40 a7 f4 47 40 e9 43 aa 3e 7a 6c ff 3f
       3.3074367 3.1243074 0.33254936 1.995498
000080 a6 cb 49 40 14 40 a4 bf 62 73 27 3f ce d5 60 3f
       3.1530547 -1.2832055 0.65410435 0.8782624
000090 d8 37 e1 3e b5 74 e7 3f 00 58 fb 3f e3 7f 55 40
       0.43987918 1.8082491 1.963623 3.3359306
0000a0 2f 43 67 3f b8 0c 73 40 04 15 50 40 70 c5 4e 40
       0.9033689 3.7976513 3.2512827 3.2308006
0000b0 15 04 65 40 19 56 e8 3e 66 44 45 40 cb c1 a4 bf
       3.5783741 0.45378187 3.0822997 -1.2871641

fc4.bias f4 [2]
000000 a1 3d e8 3f f6 1e 33 bf
       1.8143808 -0.6996912

fc5.weight f4 [1, 2]
000000 35 e9 6a 40 b3 1d 47 c0
       3.6704838 -3.1111877
