T3-2024/Federated_Learning/Improved_FL/SRC/FL_parameters/client7.pth (torch, 34104 bytes, 9 tensors)

fc1.weight f4 [48, 12]
00000000: ba70 c93d 82d8 173c 7d35 1b3f feac b5bd
00000010: 5bca dd3d 934a 3d3e fb93 503e 1b6b 803d
00000020: a4b0 87be c553 b9bc d08b ce3e f7a5 d73c
00000030: f65b 6c3d 67af aebe d456 dfbe 7339 843d
00000040: 7bfc e43e 175b dfbe 8d48 e8be 9e84 843d
00000050: 699b 53bc 3112 703d 4db1 d8bc 964a debc
00000060: 4fee f3bd c236 cfbd 1bf2 6abf 83c2 913c
00000070: bd29 863e d1d7 fabe 2556 443e da00 df3d
00000080: 3c97 13bd 003d 853d 65e2 afbd 9a96 dcbd
00000090: 3510 ecbd 1261 e3bc 229f 57bf 67af 55bc
000000a0: 1662 39bb 719c 8ebe dda5 f5bd 264f 91bc
000000b0: aef9 253d ff7b e43d 37e3 d3bc 9c92 7abc
000000c0: 383e 22bd 973e a43d d94e 64bf 65fd 5b3d
000000d0: ac7c 65bd 7108 7ebe 118e 7b3d 93ac 2cbc
000000e0: 5122 743b 71ae 6e3d 2c3a 6ebd 5e53 e9bb
000000f0: 5161 103d 738c b73d f951 c0be 19d3 5e3c
00000100: 8ae0 17be 37b4 d23e 9fff 75bf 04d0 8dbd
00000110: 7b2c 9f3d d475 c1bc 19af c7be e49a 523e
00000120: 443b eebc 3658 093e bfcc 54bf f8c6 70bc
00000130: 6103 403c 079d 5cbe 0b73 303e 8a29 e13d
00000140: 332c 2d3e 931a febc 2856 a3bd 2e96 9ebd
00000150: 3530 c13e 9402 4c3e 56a4 43bd 0d92 50bd
00000160: 2c31 a23d 1173 21bf c5ce d8be 9e99 9f3d
00000170: bb61 373d ea95 2d3d 99f6 94bd 59cf 61bc
00000180: 7181 93bb 76d9 0d3d 8246 80bf 06db 803d
00000190: a6fc d43c a028 7bbc cb2e d7bd fed0 dd3d
000001a0: dedb 9a3d 0bc0 76bd ec42 76bd 0ba1 943d
000001b0: 47f9 7b3d fcb1 67bb bf94 353f 9907 023e
000001c0: dbe6 f33d d830 7e3d 391d 223e ee1d e33d
000001d0: 0c6f 96bc d11a e4bc 757b 373e 5317 19bc
000001e0: fe6e bd3d 42e6 8ebe 1eb8 35bf 604b 71bd
000001f0: d6d9 90bc 9a9f b4be 3857 343e 9c81 0e3b
00000200: 2c16 89bc 02ef 42bd 622d 99bd 05de a4bd
00000210: 239f 2bbd 33c0 a43c 5639 fb3d 7f97 6fbd
00000220: f75e 3bbf 006e 6e3d 12e7 9abf 1658 1fbc
00000230: 657b 223d 7466 203e 7b43 27be d659 bcbc
00000240: c103 6cbc 5a44 f2bc 0f2f 84be 760b 2cbc
00000250: ce7c 48bd 53e3 06bf 8e07 0bbf bb99 dabc
00000260: d428 823d 1ee4 773d a80f 1bbe bf2d 093d
00000270: 1700 1d3d 2137 753e 5638 68bf 3448 893d
00000280: e67e 99bd 09bc bfbe 67dc c53e f285 5fbd
00000290: 0fa0 5c3d fdc8 d93d 9c2d 5dbd 17d2 5a3d
000002a0: e3cf e8bd dabf 943d 5342 5cbf c859 a23d
000002b0: 74f3 d6bd 42f3 f9bd 0a8c 843e 228b 303d
000002c0: ad2d ba3d d7ea fc3d 6bad c2bc 0b2b 043e
000002d0: 4608 3f3d b803 bf3d 2c51 233f e813 483e
000002e0: 1a91 743e 8e7e ab3d 1c26 1e3e b3f7 8a3d
000002f0: 7304 1d3d d366 223d 8e8c 2b3e b842 0d3c
00000300: 3b9d fa3d 8005 e73b 837a 323f d481 df3d
00000310: 9dff 593e 00b1 063e e8a7 4c3e 36d4 513d
00000320: fcf2 8abc 1b5b 4c3d 06ee a63d f028 9abd
00000330: 9bbb a6bd 8a3b fa3d 516f 48bf 0f5b aebd
00000340: 9898 fcbc 9f24 c3be 56bf 06be bafa aa3c
00000350: 01ea 21bc e172 0bbc 64dd 88bd c93a 0bbc
00000360: ebc5 2f3e 43c5 33be 0e8d 213f 86f6 f03c
00000370: 207b d23d 76d4 ed3b edab 223e f3e0 c1bf
00000380: 107e 7fbd f6f6 1d3e 3607 2c3e cbb3 67bd
00000390: 8285 163e a8cc 963c d8e5 70bf e408 a8bc
000003a0: a7ea 40bd 1d5e 7abe d97e 113e 9c89 5ebb
000003b0: 7cda fb3d 1eea a9bd baac 0dbe a2b3 a63d
000003c0: b63d babb d244 d73d 9854 4b3e cb94 a1bb
000003d0: aae2 38bf d107 6c3c c70e a2bf 37a6 8b3c
000003e0: 58e5 a23d 289f 303e 6f50 2bbe 7736 c9bc
000003f0: c981 df3d f3ed c8bc 30e5 7ebf b332 403d
0.09835954 0.009267928 0.6062849 -0.08870886 0.10829612 0.18485479 0.2036895 0.06270429
-0.26501954 -0.022622952 0.40341043 0.026324255 0.05770489 -0.34118196 -0.43620932 0.0645627
0.44723877 -0.43624184 -0.45367852 0.06470607 -0.012915471 0.0586111 -0.026451731 -0.027135175
-0.11910688 -0.10117866 -0.91775674 0.017792946 0.2620372 -0.4899278 0.19173487 0.10888834
-0.0360329 0.065057755 -0.08588103 -0.107709125 -0.11526529 -0.027756248 -0.8422719 -0.013042307
-0.0028287224 -0.2785373 -0.119945265 -0.017737936 0.040521316 0.11156463 -0.02586518 -0.015293743
-0.039610118 0.080197506 -0.8918281 0.053708453 -0.0560271 -0.24807908 0.061414782 -0.010539192
0.00372519 0.05827183 -0.058160946 -0.007120534 0.03524906 0.089623354 -0.3756254 0.013600134
-0.14831749 0.41153118 -0.9609317 -0.069244415 0.07772156 -0.023615755 -0.39000776 0.20566899
-0.029080994 0.13412556 -0.8312492 -0.014695875 0.011719556 -0.21544276 0.17231385 0.10994251
0.16911392 -0.031018531 -0.079754174 -0.07743488 0.37732092 0.19922858 -0.047764145 -0.050920535
0.07919535 -0.630662 -0.42345253 0.07792972 0.044770937 0.042379297 -0.07273597 -0.013782346
-0.0045015146 0.034631215 -1.0021517 0.062917754 0.025999378 -0.01532951 -0.10506972 0.10830878
0.075614676 -0.06024174 -0.060122415 0.07257279 0.061517026 -0.003535389 0.70930094 0.12698211
0.119092666 0.0620583 0.1583146 0.11089693 -0.018363498 -0.027844818 0.17918189 -0.00934394
0.09249686 -0.27910048 -0.70984066 -0.058909774 -0.017681997 -0.35278016 0.17611396 0.0021744734
-0.016734205 -0.047591217 -0.07479359 -0.08050159 -0.04189981 0.020111179 0.12266795 -0.058494087
-0.7319178 0.058210373 -1.2101767 -0.009725591 0.03966846 0.15664083 -0.16334336 -0.022992056
-0.014405192 -0.029573608 -0.25817153 -0.010500779 -0.048947148 -0.5269062 -0.543084 -0.026684633
0.063554436 0.060520284 -0.15142691 0.033490892 0.038330164 0.23946811 -0.9071096 0.06703225
-0.07494907 -0.37448147 0.38644716 -0.0545711 0.05386358 0.106340386 -0.053998575 0.053423014
-0.11367776 0.07263155 -0.860387 0.07927281 -0.10495654 -0.12204601 0.2588809 0.043101437
0.09090743 0.1234948 -0.023764333 0.12907045 0.04663875 0.09326881 0.63795733 0.19538844
0.23883477 0.08373748 0.15444225 0.06785526 0.03833432 0.039648842 0.16752836 0.008621864
0.122370206 0.007050216 0.6971819 0.109134346 0.21288915 0.13153458 0.19985926 0.05122777
-0.016961567 0.049891572 0.08150868 -0.075273395 -0.08141252 0.122183874 -0.78294855 -0.08513462
-0.030834481 -0.38113877 -0.13158926 0.020871509 -0.009882451 -0.008511276 -0.06682852 -0.008497902
0.17165343 -0.17555718 0.6310586 0.029414427 0.102773905 0.0072579933 0.15885897 -1.5146774
-0.062376082 0.1542624 0.16799626 -0.05656795 0.14699367 0.018408135 -0.94100714 -0.020512052
-0.047098782 -0.24449964 0.14208545 -0.0033956533 0.12297532 -0.082966074 -0.13835421 0.08139731
-0.005683626 0.10511173 0.19856489 -0.0049310676 -0.7222086 0.01440616 -1.266076 0.01704703
0.079539 0.17248213 -0.16729902 -0.024562104 0.109134264 -0.024527526 -0.9956846 0.04692335

fc1.bias f4 [48]
00000000: 8bf7 14bf c8db 653e fade 20bd 58d2 113f
00000010: 90bb dd3e ecf6 c93d cbd1 883e 6368 5ebd
00000020: aec6 de3e 076b 29bf 0383 b53e effd 8b3e
00000030: 4314 cb3e cf3e c93d 72ce bebd 4389 14bf
00000040: 91bb 37bf 4947 1b3f 6174 cebe 45f3 dc3e
00000050: 400a 9c3e d397 8f3e 9ef5 08bf 4b00 9a3e
00000060: 0c65 943e 903c 1c3f d508 d1be 7ce1 db3e
00000070: 5917 80be fb16 0c3f 2250 033f b466 2abf
00000080: 75a6 39bf 805d ad3e d754 533e 80b8 7a3e
00000090: b2e9 c9be 2efe 063f 5639 d93d 7e13 9b3e
000000a0: fb42 a83e fcab 0a3d 284a 033f c53e 42be
000000b0: 99b2 4dbe c165 02bf d554 1fbf 8654 ab3e
-0.5819022 0.22447121 -0.039275147 0.56961584 0.4330716 0.0986155 0.2672256 -0.05429877
0.43510956 -0.66178936 0.35451517 0.27342173 0.39663896 0.09826433 -0.0931672 -0.58021945
-0.7177058 0.6065565 -0.40323165 0.4315435 0.3047657 0.2804552 -0.5349978 0.3007835
0.28983343 0.6102991 -0.4082705 0.42945468 -0.25017813 0.54722565 0.5129415 -0.6656296
-0.7251962 0.33860397 0.20637833 0.24484444 -0.39436108 0.527316 0.10606639 0.3028831
0.32863602 0.033855423 0.5128503 -0.18969257 -0.20087661 -0.50936514 -0.6223882 0.33462924

fc2.weight f4 [96, 48]
00000000: 9265 fe3e 6b77 fbbe e3a3 1bbf fb6d 07bf
00000010: 52d1 92be ce48 41bf 6797 3ebf ef78 23bf
00000020: b734 43bf e4cf 083f cd9a 71be 2003 01c0
00000030: 4c70 50bf 6227 dfbe ca63 1ebf f804 133f
00000040: 0474 243f 3d9a 05bf 1396 ff3e c9a8 84be
00000050: eedf 07c0 aec3 babe 6566 d13e 979b 0bc0
00000060: 0cfc 1cc0 3fdf fdbe fcc2 c33d ee76 c7be
00000070: 29d3 ea3d 7300 b5be c165 aebe 4084 b53e
00000080: 7722 523f 53e4 09bf 5923 03bf b917 ecbf
00000090: 287c ce3e 8b6e f4be 85b6 3abf c489 02bf
000000a0: 8fb2 0abf c03b 24bf d07d 2bbf abcc bdbd
000000b0: 37e8 063e 68af 093f 455c 413f 963a 5ebf
000000c0: caf0 883e 1e99 4ebf 22f0 1fbf 4252 41bf
000000d0: 879d 1cbf e683 98bf 4c41 6bbf edc2 25bf
000000e0: 79de 57bf e35e c83e 6b9c d8be f03e a3bf
000000f0: bb02 41bf 30c2 3fbf 3737 05bf f8e2 033f
00000100: a17b 203f ebc7 f7be 1321 a73e b5f6 0bbf
00000110: c6dd adbf 1bc9 50bf 7bdc 2b3e bb63 acbf
00000120: d857 babf c690 f9be 0506 633e 4e9c 14bf
00000130: 41f1 0a3e a7dd 13bf 7b9a 2fbf e736 183f
00000140: 0608 c23e e2e3 4ebf 3623 74bf d9b0 abbf
00000150: 892d b33d 0c23 28bf d798 72bf 212a 8abf
00000160: ee91 76bf c314 b9be 7d0e 25bf a535 00be
00000170: 3c4f f6bd 2601 b13e 3e5c 163e d541 58bf
00000180: 6aad 873e 340d 72bf 86b3 5ebf a940 20bf
00000190: 486b d2be 6b6b a0bf ae4a 47bf af41 7abf
000001a0: 3bd0 4dbf 59db c33e d10a ccbe c8e7 e3bf
000001b0: 3d7b 2ebf 9eca 0ebf 36c0 20bf 5506 c03e
000001c0: a683 073f 3f84 f4be 3c8f e83e 12a3 d7be
000001d0: 235e fabf 3007 a8be 9aa4 cf3e 499d e0bf
000001e0: 5345 efbf 320a 05bf 1bc1 5a3e 48e5 c9be
000001f0: 73e9 53bd f777 16bf 0504 d6be 3f6e 183f
00000200: 7963 1b3f a3da 59bf 8dbc 60bf 2863 d5bf
00000210: deb8 393e c119 02bf b6fb 8cbf 8446 0ebf
00000220: 68e7 52bf 9300 33bf 35bc 27bf d596 92bd
00000230: 7f1a da3d 0e51 1a3f 0606 dc3e 9b39 83bf
00000240: 8b0b 3b3e 4d0b 4abf 93f2 18bf 4d17 7bbf
00000250: 8bba 1fbf 652f 77bf 2d71 4cbf b66e 1cbf
00000260: b642 57bf 1d56 8b3e 6e41 e9be fd5f a4bf
00000270: 8928 32bf 8feb 53bf e994 9bbe 7c37 ac3e
00000280: 1d70 013f 000f 2ebf 4ed6 c83c 7cbd debe
00000290: 3178 9cbf a9d1 40bf 9226 1aba d2ed 93bf
000002a0: 7a1b a6bf 9d73 57bf be42 7d3d d150 04bf
000002b0: 6e22 113e bcbf 52bf c62e 2fbf 2431 123f
000002c0: c268 183f c57a 68bf f3a4 79bf 521d 97bf
000002d0: 9c23 cabb a661 33bf 77a3 7fbf 9f35 5dbf
000002e0: 8e15 46bf 91af f7be 8d05 65bf d591 263d
000002f0: d8f9 eb3c 9f6c 903e 0950 863e 7579 76bf
00000300: 048e 1a3c 31a5 193f 8314 d53e 6228 2c3f
00000310: 9f7d 2c3f 9c02 633f 5806 c73e c416 d33e
00000320: 61a2 9f3e 558a a4bc c2fd e73e c20e 693f
00000330: 559b 2a3f c3bc df3e efa1 3c3e ac8b 6bbd
00000340: 4c25 55bc 1a72 6e3f f6d8 d03d a590 323f
00000350: ccdb 3b3f 065c 513f 05bc a5bd 9f01 483f
00000360: d68f 3b3f 18de 5c3f b25f 0ebd c75d 503f
00000370: 4551 0dbe 4427 2e3f 960a 263f eee6 22be
00000380: ded4 24bd 874b 453f e812 483f c368 543f
00000390: 8ec9 08bd 43ed 2f3f 906e 303f c90f 3f3f
000003a0: 45c0 533f 5dd2 fd3e b810 c93e 11ff c03d
000003b0: faf4 0d3e f706 2a3d af26 d2bc cf20 fb3e
000003c0: 1b2d 7dbd 1769 063f 79b5 c83e 31c3 0f3f
000003d0: b3f1 423f 03e3 403f 306d af3e cc56 023f
000003e0: d783 6f3f 2a50 aabd 4fbb ca3e 0d7f c63f
000003f0: b0df 383f 4b13 d63e f01d fc3e 5c60 09bd
0.49686867 -0.49114546 -0.60796946 -0.5290219 -0.28675324 -0.75501716 -0.7444977 -0.63856405
-0.7625231 0.53442216 -0.23594208 -2.0158157 -0.8142135 -0.43584734 -0.61871016 0.57429457
0.64239526 -0.52188474 0.49919185 -0.25910023 -2.1230426 -0.36477417 0.40898433 -2.1813715
-2.4528837 -0.49584386 0.09558675 -0.38957924 0.11466057 -0.35351905 -0.34062007 0.3545246
0.8208384 -0.5386402 -0.5122581 -1.844474 0.403291 -0.47740588 -0.7293475 -0.50991464
-0.5417871 -0.6415367 -0.6698885 -0.09267553 0.1317452 0.53783274 0.7553142 -0.86808145
0.26746207 -0.8070239 -0.6247579 -0.7551614 -0.6117787 -1.1915252 -0.9189651 -0.6475056
-0.8432384 0.39134893 -0.42306837 -1.2753582 -0.7539479 -0.7490568 -0.52037376 0.515182
0.6268864 -0.48394713 0.3264242 -0.5467332 -1.3583305 -0.8155686 0.16783325 -1.3467935
-1.4558058 -0.48743266 0.22170265 -0.58051 0.13568594 -0.5776009 -0.68595093 0.59458774
0.37896746 -0.8081647 -0.9536623 -1.3413345 0.087489195 -0.6567848 -0.94764465 -1.0794107
-0.9631642 -0.36148652 -0.6447523 -0.12520464 -0.120268315 0.3457119 0.14683625 -0.8447545
0.26499492 -0.94551396 -0.8699268 -0.62598664 -0.41097474 -1.2532781 -0.7784833 -0.97756475
-0.8039586 0.38253286 -0.39852002 -1.7805109 -0.68156797 -0.5577792 -0.6279329 0.3750483
0.52935255 -0.47757146 0.4542178 -0.421166 -1.9559978 -0.32817984 0.4055527 -1.7548
-1.8693031 -0.5196868 0.21362726 -0.3943274 -0.051736306 -0.587768 -0.41799942 0.5954322
0.6069866 -0.8509924 -0.87787706 -1.6670885 0.18136927 -0.5082055 -1.1014316 -0.5557635
-0.8238435 -0.6992275 -0.65521556 -0.07157675 0.10649585 0.6027993 0.42973346 -1.0251955
0.18266122 -0.78923494 -0.5974514 -0.9808243 -0.62394017 -0.96556693 -0.7986019 -0.6110643
-0.8408617 0.27214137 -0.4555773 -1.2841793 -0.695931 -0.8278131 -0.30387047 0.3363608
0.50561696 -0.6799164 0.024516251 -0.4350394 -1.222418 -0.75319916 -0.0005880381 -1.1556952
-1.2977135 -0.84160787 0.06183123 -0.51685816 0.1417329 -0.82323813 -0.68430746 0.5710623
0.5953485 -0.9081233 -0.9751732 -1.1805823 -0.0061687957 -0.70070875 -0.998588 -0.86409944
-0.7737664 -0.48376134 -0.89461595 0.04066642 0.028805658 0.2820787 0.26232937 -0.9627908
0.009433273 0.6001769 0.41617212 0.6724912 0.6737918 0.88675857 0.38872027 0.41228306
0.31178573 -0.020085493 0.4531079 0.91038144 0.6664327 0.436987 0.18421148 -0.05750625
-0.013009381 0.93142855 0.10197632 0.6975196 0.7338226 0.8178104 -0.080925025 0.78127474
0.7326635 0.8627639 -0.03475923 0.8139309 -0.13800533 0.68028665 0.648599 -0.15908405
-0.04024207 0.7706837 0.7815385 0.82972354 -0.033395343 0.6872141 0.68918705 0.7463346
0.82715255 0.49574557 0.39270568 0.0942365 0.13862982 0.04151055 -0.025653211 0.49048468
-0.061810594 0.52504104 0.39200953 0.56157213 0.76150054 0.7534639 0.3426299 0.5091369
0.93560547 -0.08316071 0.3959603 1.5507523 0.7221632 0.41811594 0.4924159 -0.03353916

fc2.bias f4 [96]
00000000: bd69 3e3f c013 353e 54cb b93e a9a9 163e
00000010: 37f7 ed3d 23e3 bd3c df0a 1a3f b05d 983d
00000020: d672 4a3d fbd3 0d3f d2bb 2ebf 1503 aa3d
00000030: 4288 d93d b1a6 643e 2509 a33d 20a5 123e
00000040: 0fd6 5fbc f603 a33e d430 053e d957 363e
00000050: df59 afbe 0cf3 86bf 8604 0abf edd8 633e
00000060: c1d7 903d 535c e93d 7f34 493f 850c ee3e
00000070: 7804 4a3d 81b0 8d3e 7a69 7e3e d887 4c3e
00000080: ecc4 4d3f 8dd9 7cbe 1efe 58bf 621b e23d
00000090: dfbb 153f e69d 6bbe 8ac2 163f e4c1 24bf
000000a0: 7326 093f 389b ab3d 879f 863e a0ae a33d
000000b0: 2013 7a3e 0cbf c83d eb07 d13d ff8b 473c
000000c0: 0fe7 033e bbb5 7f3d 8786 333d 7812 803d
000000d0: a318 063e 7198 bdbf 1c84 50be c985 693d
000000e0: b56d c43d 1a37 993d e532 723e 92cf a33d
000000f0: c391 e43d d395 ddbe 3d5b 8f3e 9b09 873d
00000100: 46ba c43d 73f3 fc3d fff6 b43c 0ff9 893e
00000110: 3f2f b4bf 1b48 403f 2a65 4b3e 0ac9 353e
00000120: e82d 1b3f 0bfc 383f c87f 723e 8011 dd3c
00000130: 9e5a 973e 3cdf d83e e084 a83e 5aa8 6f3d
00000140: 03da 79bd 1f4c bf3e 8d31 1b3e 2353 e63d
00000150: ec2e 203e 0050 ad3e 7a62 5c3f 2ec2 003e
00000160: 9021 d23c 8649 283f 61cf 2fbd bf79 36bf
00000170: 637a e13d 375b 643d 12e0 4b3c cfc1 333f
0.74380094 0.17683315 0.3628794 0.14713158 0.11619418 0.023179596 0.6017284 0.074397445
0.049425922 0.5540158 -0.6825534 0.08301369 0.10621692 0.22329213 0.079607286 0.14320803
-0.013661875 0.3183896 0.13006908 0.17806949 -0.34248254 -1.0542922 -0.5391315 0.2225072
0.07072402 0.113945626 0.7859573 0.46493927 0.049320668 0.27673724 0.24844924 0.19973695
0.80378604 -0.24692364 -0.8476275 0.11040379 0.58489794 -0.23009452 0.58890593 -0.64358354
0.53574294 0.08379215 0.26293585 0.079922915 0.24421358 0.09802064 0.10206588 0.012179374
0.1288111 0.06242917 0.043829467 0.06253523 0.13095336 -1.4812146 -0.20362896 0.057012353
0.095912375 0.07481213 0.23652227 0.07998575 0.11160614 -0.4327837 0.27999297 0.06593629
0.09605841 0.12351122 0.022090433 0.2694783 -1.4076918 0.75110024 0.1986281 0.17752472
0.6061692 0.7225959 0.23681557 0.026985884 0.29561323 0.42357814 0.32913876 0.058510162
-0.060998928 0.37362763 0.15155621 0.11246326 0.156429 0.33850098 0.86087763 0.12574074
0.02565077 0.6573719 -0.04292238 -0.7127952 0.110096715 0.05575105 0.012443559 0.70217603

fc3.weight f4 [24, 96]
00000000: 1937 e3be 0d79 27bf 5074 27bf dcb0 48bf
00000010: 3086 2abd 6bac 6e3d d64a 48bf c6c2 11bd
00000020: 8329 33ba 44fc 2fbf fd14 633e 2156 9dbd
00000030: 3a97 caba 9686 ecbc 7319 3c3d dabb 1a3c
00000040: 5ebb aebb 43bc 16bc e4ad b13c 16ba 7cbb
00000050: b851 363e 2d16 8c3e ee31 383e e173 3ebf
00000060: 544f 8bbf 3f8e 08bd d552 18bf 31ff 1abf
00000070: 9485 81bd 38d2 29bf 7f62 02bf 72e8 50bf
00000080: 5205 07be 04e5 8f3d eee7 3c3e 4f83 1b3a
00000090: 421b ffbe 0c70 183e fe77 23bf d4e7 e03d
000000a0: c22c c0be 5ec6 bb3c fd6a 2cbe 0c9e 92bc
000000b0: d2fd 20bf 5d45 d8bc d005 73bd bcaa 89bd
000000c0: 44fa 5dbf 01e0 38bc c81a e13c 62dc 5ebd
000000d0: ca4a 54bf 5553 6b3f fccc 873e 7ba8 86bc
000000e0: af73 713d 5ffc c0bc 4e5a 55bd 5e5d 3bbf
000000f0: 8404 9c3d 5d97 1b3e 4073 38bf 2630 e73c
00000100: ea68 37bd 5ea1 93bc 4ea1 c53c 702d 24bf
00000110: ae32 1d3f 7ae8 1fbf d85a b9bc 61bf 1ebf
00000120: cefb 1abf f8b9 11bf a465 21bf c003 40bc
00000130: f9a1 0cbf 4dc4 f5be c91a 2cbf fe1e 9c3c
00000140: 5b7d ce3d c334 3fbf 621f 913d dc8d 413c
00000150: 70a8 1cbd 3ab9 55bf 75f8 21be 3cf7 cdbc
00000160: 7abe 903c b6bb 2ebf ba9a 4d3d 09b3 2b3e
00000170: c31b 293c 5a41 413d 40c8 92bd c284 1abf
00000180: 788a 80bd 2381 93be 2ce9 ac3a be07 d2be
00000190: ac44 923e 5227 863e 87fc e33c 400e 743d
000001a0: a013 723e 295c acbd ffbd 093f 376b 8c3e
000001b0: ea43 ac3e 2713 583e c487 553e 477d b33c
000001c0: b8bb b43e 169f e63c f572 b03d 2c00 923e
000001d0: ea5e 5f3e a2f9 2d3f 5148 313f fbd8 88be
000001e0: 6ecc 0dbf 5306 233e 239b bcbd fa75 27be
000001f0: 9782 2d3e 5264 c9be 8e8d f5bc 1000 9ebe
00000200: cd5d e8bd cc37 a53e 5148 bf3e 9e31 b13e
00000210: 320a f83c fc18 c63e 82fb d5bc 493f cc3e
00000220: 31f3 5ebe 05bb 873d f51e c83b aad3 423e
00000230: 4364 79be ebad d53d bf59 373e f202 d53e
00000240: 928e a7be 50b3 aa3e 962b 533e 22f5 983e
00000250: 41e1 94be 9e48 c43e 2b6d ae3e 483a 993e
00000260: 086a 8a3e 00f7 ae3e 5217 9abd c209 0abf
00000270: ae25 1e3e 0f6c 613e ea8c 4ebe b989 c63e
00000280: b22d 463e 947b 063e de8a 813e d871 77be
00000290: 5276 323f 2166 6abd 8234 743d 679d 18be
000002a0: 9ba8 eabd 4709 96bd 9125 06be fe91 953e
000002b0: e0ec 90be d5f0 4dbe ccdb ddbd 1f39 963d
000002c0: 78d6 653e 269f e8bd 6174 913e a1ec 463e
000002d0: da34 193e db6c 0fbe 67b5 56be cb22 993e
000002e0: ca7c 6f3e e3ab d6bc ab42 683e e0fd 123f
000002f0: 926f 7e3e 28ed 3e3d 4e85 133e 48af b0bd
00000300: df00 c6bc 66f7 5ebe 9ffe 93bd e540 95be
00000310: 1b95 2e3f 6886 133f bc5c 28bd fb02 053f
00000320: f23b 2d3f 35db c4bd 8017 a53e 7eef bf3e
00000330: ea4c 1a3f 01ed 033f 8e8d ec3e 9823 cf3e
00000340: fa77 353f 5674 483e fbbd df3d 43e6 043f
00000350: b145 a33e a490 c33e 1848 343f 02f0 acbd
00000360: ad02 8abe 4286 153f 43b5 3fbd 6474 03be
00000370: 09e5 1e3f d44e 80be 847d 7cbe d5b0 3abe
00000380: 0147 43be b592 ca3e 2ffc 993e 841a 113f
00000390: f852 04be f34d bc3e a2b2 14be 858b 993e
000003a0: d185 b4bd f869 073f f4e8 c2bc 0a25 083f
000003b0: 3edb 5abe 8f51 223f 0a62 d53e d3d5 ce3e
000003c0: 0e2e 5bbe e081 af3e 89c7 753e bb82 ef3e
000003d0: 6818 4bbe 4a9b ea3c 8539 16be ea4c 143f
000003e0: 287c 243f 3f1e 463f 7435 ab3e 7566 90be
000003f0: f517 023f 068d 653e e0fa abbd 2ad0 c93e
-0.44377974 -0.65419084 -0.65411854 -0.78394866 -0.041631877 0.0582699 -0.7823919 -0.03558614
-0.0006834494 -0.687443 0.22175975 -0.076824434 -0.0015456446 -0.02887277 0.045922708 0.009444201
-0.0053323945 -0.0092001585 0.021689363 -0.0038563064 0.1780461 0.2736067 0.17987797 -0.7439557
-1.0883584 -0.03333878 -0.5950139 -0.6054564 -0.06324306 -0.66336393 -0.50931543 -0.81604683
-0.13185623 0.07026103 0.18447849 0.0005932347 -0.49825484 0.14886492 -0.6385497 0.10981718
-0.37534148 0.022921737 -0.16837688 -0.017897628 -0.628873 -0.026400262 -0.059331715 -0.06722018
-0.8671 -0.011283875 0.02747859 -0.054409392 -0.8292662 0.9192403 0.26523578 -0.01643776
0.058948215 -0.02355784 -0.052088074 -0.7318934 0.07618049 0.1519446 -0.7205086 0.028221201
-0.04477779 -0.018021282 0.024124768 -0.6413183 0.61405456 -0.62464106 -0.022626325 -0.6201077
-0.60540473 -0.5692439 -0.63045716 -0.011719644 -0.5493465 -0.48001328 -0.6722837 0.019057747
0.100825034 -0.74689883 0.07086064 0.011813607 -0.038246572 -0.8348576 -0.15817435 -0.025142305
0.017668951 -0.68255174 0.050196387 0.16767515 0.01032156 0.047181465 -0.07167101 -0.6035882
-0.06276411 -0.2880946 0.0013192049 -0.41021532 0.28568017 0.26201874 0.027830375 0.059583902
0.23640299 -0.08416016 0.53805536 0.27425548 0.33645564 0.21101056 0.20852572 0.021910323
0.35299468 0.02815203 0.08615676 0.28515756 0.2181355 0.67959034 0.6925097 -0.26728043
-0.5539006 0.15920381 -0.092092775 -0.16353598 0.16944347 -0.3933435 -0.029974725 -0.30859423
-0.11346016 0.32269132 0.3735986 0.34608167 0.030278299 0.38690937 -0.026120905 0.39892033
-0.21772458 0.06627468 0.006107206 0.19026056 -0.24354653 0.10433563 0.17905329 0.4160381
-0.3272596 0.3333993 0.20622095 0.29874521 -0.29078105 0.38336653 0.34067664 0.29927278
0.2703402 0.3417282 -0.07523979 -0.5392114 0.15444061 0.22013877 -0.20170942 0.3877695
0.19353369 0.13133079 0.2530126 -0.24164522 0.6971179 -0.057226304 0.059620388 -0.14903794
-0.1145794 -0.07325988 -0.13100268 0.29212946 -0.2830572 -0.20111401 -0.108329386 0.07335114
0.22445095 -0.1135848 0.28409103 0.19426204 0.14961568 -0.14006369 -0.20967637 0.29909357
0.23387447 -0.026205009 0.22681682 0.5741863 0.24847248 0.04661289 0.1440632 -0.08627182
-0.024170337 -0.21774063 -0.072262995 -0.29151073 0.68196267 0.5762696 -0.041104063 0.5195767
0.67669594 -0.09612123 0.32244492 0.37487406 0.6027361 0.51533514 0.46201748 0.40456843
0.70886195 0.19575629 0.10924908 0.5191385 0.31889108 0.3819629 0.70422506 -0.08444215
-0.26955166 0.58407986 -0.046803724 -0.12837368 0.6206823 -0.2506014 -0.24657255 -0.18231519
-0.19070055 0.39565054 0.30075213 0.56681085 -0.12922275 0.3677822 -0.14521268 0.29989257
-0.08814586 0.5289607 -0.023792721 0.5318152 -0.21372697 0.634057 0.4167636 0.4039751
-0.21404287 0.34278774 0.24001898 0.46779427 -0.19833529 0.0286385 -0.1467038 0.5792986
0.6425195 0.773899 0.3343922 -0.2820317 0.50817806 0.22417077 -0.0839746 0.3941663

fc3.bias f4 [24]
00000000: 3ade ecbf 9fb4 35bf 7611 40bf 9a6b 83bf
00000010: 6608 c5bf 66e7 bebf 0fce 36bf 0519 85bf
00000020: 1c95 b9bf e4b0 3dbf 0ba6 57bf fe70 5abf
00000030: 8b01 45bf 34db 5bbf 25ba 8bbf a5ac b2bf
00000040: 61a5 5ebf 6f54 debf 9f40 bbbf 08f2 cdbf
00000050: 5600 ecbf 4eee 64bf 739b e1bf 99ce 41bf
-1.8505318 -0.7097873 -0.75026643 -1.0267212 -1.5393188 -1.4914367 -0.7140817 -1.039826
-1.449863 -0.7409804 -0.84237736 -0.8532866 -0.7695548 -0.8588135 -1.0916182 -1.3958937
-0.869711 -1.7369517 -1.4629096 -1.6089487 -1.8437603 -0.89426124 -1.7625564 -0.7570587

fc4.weight f4 [2, 24]
00000000: d477 95bf 5de7 b33c 8865 be3c 3b94 babe
00000010: cb4f 67bf 0f67 53bf 2899 acbc 1ea7 77be
00000020: 553b 40bf b1d9 763f d4d1 48bd 0fec b3bd
00000030: 93dd 83bc a94c be3d c3da 59be 2d79 4cbf
00000040: e5c4 72bd 0fe4 8ebf f72b 5cbf 557e 7fbf
00000050: 2d84 98bf 02ad 863c 7b25 84bf fe5b 7e3f
00000060: 0a2b 5740 eecb 333f 2447 ce3e c9d0 2440
00000070: 0542 5140 b044 4a40 90ac ef3e b269 f93f
00000080: 742e 4040 9df0 71bf 724c 563f e708 753f
00000090: 7b7e d13e 10c0 c93e f0ba 0c40 ef56 2840
000000a0: e8b7 903f a87d 6540 f325 5b40 24dd 5940
000000b0: 08ef 5b40 9331 d03e df08 6140 87aa 6cbf
-1.1677194 0.021960909 0.023241773 -0.36441216 -0.9035613 -0.8257913 -0.021069124 -0.24184844
-0.75090533 0.9642592 -0.049028233 -0.08785259 -0.016096866 0.092919655 -0.21274857 -0.798724
-0.059269805 -1.1163348 -0.86004585 -0.9980214 -1.1915337 0.016439918 -1.0323938 0.9935912
3.362002 0.70233047 0.4028865 2.5752432 3.2696545 3.1604424 0.46811342 1.9485381
3.0028353 -0.9450777 0.83710396 0.9571671 0.4091681 0.39404345 2.1989098 2.630306
1.1306124 3.5857944 3.4241912 3.4041224 3.4364643 0.40662822 3.5161664 -0.92447704

fc4.bias f4 [2]
00000000: 6de4 f93f 183d 38bf
1.9522835 -0.7196822

fc5.weight f4 [1, 2]
00000000: 6f75 6840 5f40 51c0
3.6321676 -3.269554
