T3-2024/Federated_Learning/Improved_FL/SRC/FL_parameters/client5.pth (torch, 34104 bytes, 9 tensors)

fc1.weight f4 [48, 12]
00000000: 32ee cc3d 435a 5d3d ce1e 153f 4c9b bfbd
00000010: e991 bf3d 8760 593e 4cac 0a3e 1d81 fd3d
00000020: 4a24 9ebe 5dbd b53c 7818 b43e 4a45 a13d
00000030: 27f9 6a3d 61c4 9ebe 55dc cfbe 8c4d 9d3d
00000040: 44a3 e23e db1c e6be 8ac1 a1be a2b2 1f3d
00000050: bc79 a2bd 4de8 353e b078 c2bd cef7 ac3d
00000060: 470e b0bd addb 5ebd 281e 5dbf a488 303d
00000070: ea13 a93e ed37 efbe a990 903e 05ad 4c3e
00000080: 70dd 82bd 3cfa fc3d ef7e 9bbd d9b9 2fbc
00000090: 9e75 a5bd 9178 9e3c 4821 55bf dfd7 a73b
000000a0: 29eb 6d3c d4c1 2ebe d484 33be 7800 12bc
000000b0: 7e4d fabc 4ef9 c63c 53de c3bd 1695 413d
000000c0: ac9d 98bd 920a 123d 5dbd 5fbf d043 e53c
000000d0: df8e 32bc 1488 98be b3b7 ae3d 43eb 97bd
000000e0: 2722 053b 6ae6 063d 76c7 0cbe ea12 0c3d
000000f0: 3fe2 bf3d b50e 0e3e 31f2 a3be 0c0c 5d3d
00000100: 84b5 dfbd e403 c43e 2c95 77bf 338c e7bd
00000110: 5b48 113e 4537 dabd 59ef b8be eccf 6b3e
00000120: a894 95bb 1453 1e3e 85bb 4bbf d1fe 4f3d
00000130: 9eab d63c aa06 98be 218c 473e 0de3 0fbe
00000140: 6412 043d ea4a 9fbd 42e7 8bbd 72d2 10bc
00000150: ec44 943e b8ec ef3d 5ed6 95bd 0080 1fbe
00000160: 727a 013d 25b7 0bbf 6fa6 27bf 8a75 4c3e
00000170: 0f8e cb3c 189d 523d 6b5c 9ebd e50a 993d
00000180: 3f62 95bb 77c9 133d 6574 81bf 4cce 913d
00000190: 57bb 433d 509f 4e3c 261e 1abe 6e16 8abd
000001a0: de63 f83c bcca 80bd 3595 eebd 8122 a7bc
000001b0: 8e57 713d 7685 c3bc cdda 303f 6d57 073e
000001c0: 386d f03d a092 8b3d c8bb 073e d23c 623d
000001d0: 3652 9abd 0467 74b8 fbd7 293e 5b0c 793c
000001e0: 6614 e63d 3773 82be 1804 22bf 5517 9bbd
000001f0: efaf 7ebc 4023 8dbe 4538 983e cd57 273d
00000200: 1fdb 563c 10cb 3b3d 0100 23bc bcb9 8cbc
00000210: 8bde 04bc 7180 283d d74b 053e 38fe 8bbd
00000220: 2eb0 3abf 57b7 eb3c 2f24 95bf bd94 ffbc
00000230: bfc6 f83d 508d 073e 90c2 06be 6b27 5f3d
00000240: ecc3 b7bc 847b 82bc 2dd9 77be 919b 21bd
00000250: dd08 90bd 8591 fdbe 2ea3 f8be ac61 9a3d
00000260: 8520 d9bb a495 853d 182b 10be 436f c83d
00000270: 4eba fe3c 890f 5a3e 48de 5fbf 4758 af3d
00000280: ea7d ab3c 3e32 07bf 4752 bf3e b703 15be
00000290: 66c0 de3d fa57 9b3a 4eb9 d7ba 0613 c3bc
000002a0: 0844 ecbd c7c2 b23c 7621 4ebf c5b3 0f3e
000002b0: 39f3 dcbd 718e fdbd 4f4c 993e 62b7 68bc
000002c0: fff3 613c 658f 463e 4db0 99bd aa6d 273e
000002d0: 131f 63bb 8ec3 633d c76f 133f d0cf dc3d
000002e0: a177 2d3e 3801 043e 5b90 253e 1cf2 ca3d
000002f0: a057 803d 4a3d 993d aab5 2fbc 83fe 323d
00000300: 159b e73d 5c54 a0bc da8f 2b3f 0091 203e
00000310: e291 023e bd42 2e3e a05d 333e edbd eb3d
00000320: fa96 8e3d 7c34 a93d c578 5ebc 3f85 b7bd
00000330: c347 bbbd 552e de3d 048a 52bf 65f6 debc
00000340: 144f 7ebc d61a cbbe 8cc4 54be fd75 e13c
00000350: 27fa 5b3d 5326 4ebd ddc5 e7bd 9f0c f9bc
00000360: 20ff 023e 6bfb 49be 8257 243f 6a23 833d
00000370: 639f 073e 6c3e 4e3d 65ff 2e3e f44e bbbf
00000380: e88d 0dbd 4805 153e deb2 ab3d fb91 e7bd
00000390: 0b58 f83d d613 7fbc 3152 6bbf aec9 5a3d
000003a0: 6139 6dbd 4a0f 8bbe 4529 343e 6bc8 fabc
000003b0: bc59 5c3d 79a5 c5bd e9c5 eebd b62f 463d
000003c0: dc82 563c 3239 c93d ad18 4e3e 17a7 9dbd
000003d0: 445d 47bf 6e40 f33b 94fd 9bbf dae4 b13c
000003e0: 4597 f73d 4694 b63d 546a 15be 125e 7e3c
000003f0: 3042 503d fdc0 bcbd 7f00 7ebf 081c dabb
0.1000637 0.05404116 0.5825013 -0.093557924 0.09354002 0.21228229 0.13542289 0.12378142
-0.3088706 0.022185022 0.35174918 0.07874544 0.057366516 -0.310092 -0.40597787 0.076808065
0.44265187 -0.4494389 -0.3159297 0.038988717 -0.07933375 0.17764397 -0.094956756 0.084457025
-0.08596473 -0.054408718 -0.8637414 0.04309906 0.33023006 -0.46722355 0.28235367 0.19987877
-0.06389892 0.12352416 -0.0759257 -0.010725462 -0.08079074 0.0193446 -0.8325391 0.0051221694
0.014521399 -0.17066127 -0.17531139 -0.008911245 -0.03055453 0.0242888 -0.09563889 0.04726132
-0.074519485 0.035654612 -0.8739832 0.027986437 -0.010898321 -0.2979132 0.085311316 -0.074179195
0.0020314546 0.032934584 -0.13747963 0.034197725 0.09369325 0.13872798 -0.32020715 0.053966567
-0.10923293 0.38284218 -0.96711993 -0.11306038 0.14187758 -0.10655073 -0.36120108 0.23028535
-0.0045648403 0.1546138 -0.7958301 0.05078012 0.02620488 -0.29692584 0.19487049 -0.14051457
0.0322441 -0.077779606 -0.06831218 -0.008839237 0.28958833 0.117150724 -0.07316278 -0.15576172
0.031610914 -0.5457633 -0.6548833 0.19966713 0.024848012 0.051419348 -0.07732471 0.07472781
-0.004558831 0.036080804 -1.0113646 0.07119426 0.047786083 0.012611225 -0.15050563 -0.067425594
0.030321058 -0.062886685 -0.11649553 -0.020402195 0.05892139 -0.02386735 0.69083863 0.13216944
0.11739582 0.06815076 0.13255227 0.055233784 -0.07535212 -5.8270074e-05 0.16586296 0.0152007
0.112343594 -0.25478527 -0.63287497 -0.075728096 -0.0155448755 -0.27565956 0.2973043 0.040855218
0.013113766 0.045847952 -0.009948731 -0.017178409 -0.008109699 0.041138116 0.13017212 -0.06835598
-0.7292508 0.028773947 -1.1651667 -0.031198854 0.12147283 0.132375 -0.13160157 0.05448095
-0.02243229 -0.015928037 -0.2420394 -0.039455 -0.070329405 -0.49525085 -0.48561996 0.07538161
-0.006626191 0.06522682 -0.14078939 0.097868465 0.031094696 0.21294989 -0.8744855 0.085617594
0.020934064 -0.5281104 0.3736746 -0.14552198 0.10876541 0.0011851781 -0.0016458423 -0.023812782
-0.115364134 0.021821393 -0.8051981 0.1403342 -0.107885785 -0.12380684 0.2994103 -0.014203878
0.013791083 0.19390638 -0.0750433 0.16350427 -0.0034655973 0.055606417 0.57592434 0.107818246
0.16940166 0.1289109 0.16168348 0.0990946 0.06266713 0.07482393 -0.010724464 0.043699753
0.113088764 -0.019571476 0.67016375 0.15680313 0.12750962 0.17017646 0.17516184 0.11510835
0.0696239 0.08261964 -0.013578598 -0.089609616 -0.09144547 0.10848681 -0.82241845 -0.0272171
-0.015521783 -0.39668912 -0.20778102 0.027522082 0.05370536 -0.050329518 -0.11317036 -0.030401526
0.12792635 -0.19724815 0.64196026 0.06403239 0.13244395 0.0503525 0.17089613 -1.463347
-0.03455916 0.14552796 0.083837256 -0.113071404 0.12126168 -0.015568694 -0.9192229 0.053414993
-0.05791605 -0.27160102 0.17593868 -0.030613145 0.053796515 -0.09650702 -0.11658842 0.048385344
0.013092723 0.09825362 0.201266 -0.076978855 -0.7787669 0.007423452 -1.2186761 0.02171557
0.12089399 0.08915 -0.14591342 0.015525358 0.05084437 -0.09216497 -0.99219507 -0.0066561736

fc1.bias f4 [48]
00000000: 8dd8 18bf 6727 703e ad4e b03c d1c1 133f
00000010: 500a e03e c59d ff3d 7a01 983e bbed e2bd
00000020: b7bf da3e 1869 29bf 69d8 d63e 537f 8e3e
00000030: 1d2f d43e e3ec fa3d cfc6 17bd d233 21bf
00000040: 0c01 3bbf 6850 103f 67d7 cdbe c9ab ec3e
00000050: b584 953e 6c53 843e 4518 11bf d63e a53e
00000060: 3142 8d3e 0442 1e3f c689 c5be 0154 f93e
00000070: 5917 80be 598c 133f 40ad 073f 2565 2cbf
00000080: 9868 3cbf edf3 953e 601f 4a3e 5d93 883e
00000090: f432 bebe b682 053f cedc ea3d 85e8 a23e
000000a0: 2f07 9c3e 96ad 333d ca33 073f c53e 42be
000000b0: 99b2 4dbe 9ead 07bf b4a6 1dbf 8963 b73e
-0.5970543 0.23452531 0.02152189 0.57717615 0.43757868 0.12481264 0.29688627 -0.110805
0.42724392 -0.66175985 0.41961983 0.27831516 0.41442195 0.12252214 -0.037054833 -0.62969697
-0.7304847 0.5637269 -0.402034 0.46224812 0.2920281 0.25844896 -0.5667766 0.32274503
0.27589563 0.6181948 -0.38581675 0.48696902 -0.25017813 0.5763603 0.52998734 -0.67341834
-0.735971 0.29287663 0.19738531 0.2667493 -0.3714825 0.52152574 0.114678964 0.31818023
0.3047423 0.043866716 0.528134 -0.18969257 -0.20087661 -0.52999294 -0.61582494 0.35818127

fc2.weight f4 [96, 48]
00000000: 277f ea3e 1670 ccbe 90be 4abf b546 01bf
00000010: 07bb acbe bf77 45bf 969b 54bf 5b8c 2cbf
00000020: 9081 34bf 0836 b33e 4c23 23be e80a 03c0
00000030: e87b 1ebf a7ef 07bf c3f3 1cbf bc02 d13e
00000040: 2bee fe3e 2e40 e0be 941e e13e efb5 cabe
00000050: 2d3b 08c0 4d41 c3be 56fb bc3e 8d07 06c0
00000060: 0e9a 15c0 9743 edbe 66f1 e43d ba75 debe
00000070: 29d3 ea3d ab14 adbe b8d9 b9be 5f64 7e3e
00000080: 4d49 293f 2fc8 f6be 8a3b 2bbf 13c0 f3bf
00000090: 3744 b63e a949 f2be e38f 49bf 3b57 39bf
000000a0: 0719 22bf 6d1d 5cbf d2c9 15bf abcc bdbd
000000b0: 37e8 063e 790f 0c3f 8f41 303f 409c 6ebf
000000c0: 9c70 333e baa1 58bf 9c8e 3ebf 991b 54bf
000000d0: 2189 10bf 524b 9bbf e78f 6abf de81 27bf
000000e0: 266a 3bbf f912 983e 78d1 f1be 6460 9dbf
000000f0: e694 37bf 499c 3ebf 89d4 d6be 6d72 cb3e
00000100: 1bbf 0d3f 92dc 11bf 82d9 ab3e 86fa 1cbf
00000110: 5a3d b2bf e213 1bbf bbba 383e abd0 a8bf
00000120: 85bb c0bf 799e 16bf cfeb 2e3e ebcb 0cbf
00000130: 41f1 0a3e 3b09 26bf 23dd 3dbf db2b 0e3f
00000140: c07c 823e 3d57 6fbf 5667 75bf 9cd5 a1bf
00000150: a33a b83d 6598 2bbf ead4 7bbf 192e 61bf
00000160: 7d78 7fbf e13a d9be fc73 34bf a535 00be
00000170: 3c4f f6bd 33f1 823e f572 6b3d 8220 54bf
00000180: ddd7 823e 4e76 7fbf 5ef5 71bf a6a3 18bf
00000190: b9b1 06bf 75e4 a7bf 2149 22bf dcf6 90bf
000001a0: 4410 52bf ae3d cd3e aede d3be dd68 e8bf
000001b0: d55f 48bf 57fe 00bf 1c21 15bf befc d53e
000001c0: 22c6 063f d7ed 0ebf 1b32 c83e 65eb cfbe
000001d0: c5b5 fdbf edbc a1be 16fd d93e d180 ebbf
000001e0: 4e4d f7bf 37d2 f5be 7be2 4b3e 8225 afbe
000001f0: 73e9 53bd efcd 0fbf 65cf e9be cbbf e53e
00000200: 4133 0b3f b30f 7dbf e672 62bf 67d7 e3bf
00000210: 65a2 143e 0f6b 18bf 7ac6 87bf 6707 27bf
00000220: 648b 6ebf bfa5 2ebf 59b6 2dbf d596 92bd
00000230: 7f1a da3d 8f8e 133f 5a4f c23e 9612 91bf
00000240: 15d2 3a3e 2a17 54bf 658a 3dbf 0ff1 5dbf
00000250: dfd7 25bf 4045 8abf 2a09 48bf f441 14bf
00000260: 2e16 62bf c417 673e a1e5 dcbe bc94 a1bf
00000270: d58a 30bf 8004 44bf 15f1 a5be f4d2 843e
00000280: cb67 e63e eafd 41bf 2f49 133e 65ad cbbe
00000290: ddc1 a1bf 740f 12bf 4899 18bd 7338 9ebf
000002a0: c7e0 abbf f2da 6cbf d568 913c ab90 f1be
000002b0: 6e22 113e df89 63bf c681 34bf 0edd db3e
000002c0: d6f7 073f 5773 80bf aae6 76bf 4ee0 92bf
000002d0: d10a 353d 3a43 22bf 48b7 85bf 8947 51bf
000002e0: 1855 56bf 51b6 c5be b071 67bf d591 263d
000002f0: d8f9 eb3c dd8a 8d3e 1390 053e 37b2 78bf
00000300: 766b a3bd e79c 1d3f 9951 d83e d847 163f
00000310: 3c09 233f 3fdf 5f3f fd05 bc3e 4f0c 8a3e
00000320: ac04 993e 06e1 f1bc dc1d fc3e 8e48 4e3f
00000330: ff1c 2b3f eba0 f43e e9ff 143e 677e edbc
00000340: a665 90bd b4a9 683f 6da8 40bc 1a8b 3a3f
00000350: 8b4e 2a3f 779a 443f f4c3 6dbd d9a1 4d3f
00000360: 0f7f 1f3f b604 723f ddf8 ddbc 6efa 603f
00000370: 4551 0dbe 2a2b 333f a9e4 1a3f 316c a6bd
00000380: 2134 8fbd 095e 3d3f 39bc 403f 2d57 2a3f
00000390: feae 81bd 1a71 2d3f 9447 333f ddc6 0d3f
000003a0: 9274 553f d5ff e13e 36a9 b93e 11ff c03d
000003b0: faf4 0d3e e639 d93c 4b24 85bd f44c 0b3f
000003c0: 8c05 173c b38d 183f 98e3 e63e 3a98 0d3f
000003d0: 1ba8 373f d578 383f 55bb a73e 3183 0b3f
000003e0: fb76 733f cdb9 0dbd d39f d23e 33aa c23f
000003f0: 9159 313f 6b36 b83e 92ce f73e c951 06bd
0.45800135 -0.39929265 -0.79197025 -0.50498515 -0.3373644 -0.77135843 -0.83049905 -0.67401665
-0.70510197 0.3500216 -0.15931433 -2.0475407 -0.61907816 -0.53100055 -0.6130945 0.408224
0.49791083 -0.43798965 0.43968642 -0.3959193 -2.1286118 -0.38135758 0.36910504 -2.0942109
-2.3375278 -0.4634063 0.111788556 -0.43449193 0.11466057 -0.3380483 -0.3629892 0.24842976
0.66127473 -0.48199603 -0.66887724 -1.9042991 0.3559892 -0.47321823 -0.7873518 -0.7239873
-0.6331944 -0.859824 -0.5851108 -0.09267553 0.1317452 0.5471111 0.68850034 -0.9320717
0.17523426 -0.84621775 -0.74436355 -0.8285461 -0.5645924 -1.2132361 -0.9162583 -0.65432537
-0.73208845 0.29701975 -0.47230124 -1.2295041 -0.71711576 -0.7445722 -0.41959026 0.39735737
0.5536973 -0.5697719 0.33564383 -0.6131977 -1.3924973 -0.60577214 0.18039982 -1.318868
-1.5057226 -0.5883556 0.17082141 -0.54998654 0.13568594 -0.64857835 -0.7416555 0.5553567
0.25485802 -0.9349249 -0.95860803 -1.2643313 0.08995559 -0.6702941 -0.98371756 -0.87960964
-0.99793226 -0.42427734 -0.7048948 -0.12520464 -0.120268315 0.25574645 0.05748268 -0.82862103
0.25555316 -0.99789894 -0.94515026 -0.5962471 -0.52614933 -1.3116595 -0.63392836 -1.1325336
-0.8205607 0.4008612 -0.4138083 -1.8157002 -0.7827123 -0.5038809 -0.58253646 0.4179439
0.52646077 -0.55831665 0.39100727 -0.4060928 -1.9821097 -0.3158945 0.42575902 -1.8398687
-1.9320467 -0.48011944 0.19910614 -0.34208304 -0.051736306 -0.56173605 -0.45666042 0.4487289
0.5437508 -0.9885208 -0.8845657 -1.780011 0.14515074 -0.5953836 -1.0607445 -0.6524567
-0.93181443 -0.6822166 -0.67856365 -0.07157675 0.10649585 0.576394 0.37951165 -1.1333797
0.18244202 -0.82847846 -0.740393 -0.8669595 -0.6478252 -1.0802383 -0.78138983 -0.57913136
-0.88315094 0.2256766 -0.43143943 -1.2623515 -0.6896184 -0.76569366 -0.32410493 0.25942194
0.45001063 -0.7577807 0.14383386 -0.39780727 -1.2637287 -0.5705483 -0.037255555 -1.2360977
-1.3427972 -0.92521584 0.017750183 -0.47180685 0.1417329 -0.8888225 -0.7051052 0.4294209
0.5311254 -1.0035199 -0.96445715 -1.1474702 0.04419977 -0.6338383 -1.0446558 -0.8174978
-0.8372359 -0.3861566 -0.9040785 0.04066642 0.028805658 0.27645007 0.13043241 -0.97146934
-0.07979481 0.6156754 0.42249754 0.58703375 0.63685966 0.8745002 0.3672332 0.26962516
0.29886377 -0.029526245 0.4924153 0.8057946 0.6684112 0.4777902 0.14550747 -0.028990937
-0.07050638 0.90883946 -0.011758906 0.728685 0.665261 0.76798195 -0.058048204 0.80325085
0.6230325 0.9453844 -0.027096206 0.87882125 -0.13800533 0.6998774 0.6050516 -0.081261046
-0.06992365 0.7397161 0.75287205 0.6653927 -0.06332205 0.67750704 0.70031095 0.55381566
0.83381 0.44140497 0.3626191 0.0942365 0.13862982 0.026516866 -0.06501063 0.54414296
0.009217631 0.59591216 0.45095515 0.55310404 0.71740884 0.72059375 0.3276011 0.5449706
0.95103425 -0.03460102 0.4113756 1.5208191 0.6927729 0.35979018 0.48399788 -0.03279284

fc2.bias f4 [96]
00000000: 6594 303f dbe7 2b3e 474a 9e3e ec31 1d3e
00000010: a29d ac3d 5d73 64bc 9c10 fd3e 50bc c23d
00000020: 7d78 bd3d bba9 0d3f 2d3c 2ebf ca67 b93d
00000030: 7c6a b93c 6d1f 4b3e c4fc 9d3d e257 f73d
00000040: 2e9c 36bc 01b3 773e 7882 b93d 41fb e03d
00000050: 1670 dbbe 1407 88bf 8f80 21bf 330e 743e
00000060: d3b2 193e b295 b83d a7e6 3c3f ec8a fc3e
00000070: ca6b 603d 229a 543e 0b64 5f3e 5d9a 0e3e
00000080: 1000 433f 98f1 55be 8fff 5dbf 5e46 873d
00000090: 7511 1f3f 9c48 88be 575a 133f 1b79 33bf
000000a0: 8d08 da3e ac24 763d 4c50 553e c667 113e
000000b0: b940 873e 30f6 bb3d 0c17 dc3d f421 7ebd
000000c0: b830 f43d e960 b33d d848 293d 3cad cc3d
000000d0: 9854 353e b120 b6bf bec4 83be 81e5 6f3d
000000e0: c8ac 7a3d 41f5 af3d 372b 093e 2b55 aa3d
000000f0: b79b 48ba 6aa6 03bf 2f44 b53e 0958 df3b
00000100: 18f6 fd3c 3dcd a83c 4142 783d 510c 653e
00000110: 496e adbf 627f 463f 922e 403e 0174 843e
00000120: ac93 2c3f 8392 343f 7e35 903e 7362 89bd
00000130: 5ab9 6f3e cff8 b23e 1cd1 da3e e126 ac3d
00000140: 6a80 25be 9f2c 8f3e 4e7c c23d 4497 f83d
00000150: a905 103e 7c1e b83e e4d2 4d3f 7aa8 403d
00000160: d021 653d 7c70 2d3f 3f9d fcbb 82e9 46bf
00000170: 0d4d f33d 578c 013d b2fd 9e3c c460 383f
0.6897643 0.16787665 0.30916044 0.15351075 0.084285036 -0.01394352 0.49426734 0.09508574
0.09251497 0.55337113 -0.6806057 0.09052999 0.022633784 0.19836207 0.07714227 0.12077309
-0.011145635 0.24189378 0.09058088 0.10985423 -0.42858952 -1.062716 -0.6308679 0.23833542
0.15009622 0.09012927 0.7378945 0.4932474 0.054790296 0.20761922 0.21815507 0.13926072
0.7617197 -0.20892942 -0.86718076 0.06605218 0.6213601 -0.26617897 0.5755972 -0.7010667
0.4258465 0.060093567 0.20831412 0.14199743 0.26416567 0.09177816 0.10746583 -0.0620441
0.11923355 0.087587185 0.041329235 0.09993979 0.17708051 -1.4228727 -0.2573604 0.05856848
0.061199933 0.085917 0.13395391 0.08317026 -0.0007652598 -0.514258 0.35403582 0.0068159145
0.031001136 0.020605678 0.06061006 0.2236798 -1.3549281 0.7753812 0.18767765 0.25869754
0.6741283 0.7053606 0.2816581 -0.06708231 0.2341055 0.3495545 0.42737663 0.08405853
-0.16162267 0.2796373 0.094963655 0.12138227 0.14064659 0.35960758 0.8039992 0.04703567
0.05594045 0.6774976 -0.007709175 -0.77700055 0.11879931 0.03162798 0.01940808 0.7202265

fc3.weight f4 [24, 96]
00000000: 5ab3 cfbe 30e5 30bf e06a 0dbf 133f 5abf
00000010: b5d5 13bd a78c e93c 3fb8 39bf bdcd 05bd
00000020: d171 ae3b 0e6a 21bf a0f6 533e 4a72 21bb
00000030: 484c 8f3d cb4b 123c 529c 513d 7fe1 7e3d
00000040: 5670 5ebc 8227 e5bd deee 993c 679f 93bd
00000050: bb7f d53d b559 9e3e 0680 203e 0994 4bbf
00000060: f3fb 90bf f77d 35bd 0e1d 07bf 020d 24bf
00000070: 5946 663c d65f 1cbf ec47 f6be cee9 47bf
00000080: 8fde 4cbd 8d8c ec3d 6588 4c3e dde6 a03c
00000090: 524d 11bf 09c9 903d 6228 29bf dd76 ca3d
000000a0: 0eb6 9bbe 9564 edbc 8c74 80bd 53c3 24bd
000000b0: 72e7 29bf 6029 9abd be4a 4ebc 307e 4dbd
000000c0: 9c10 5cbf 8db2 433c df58 223d 1a08 6a3b
000000d0: 56e7 5dbf 10fa 7f3f 6273 c13d 01b2 48bd
000000e0: a412 cc3c cc18 19bd a476 2e3c e111 4bbf
000000f0: ac6a aa3c 34bf 533e e870 41bf 8076 a1bc
00000100: fca8 73bc 3194 c33c 62a1 2ebc bae0 1bbf
00000110: 0c1c 223f 188f 1abf e04b e4bb a7ff 33bf
00000120: b7dc 27bf c3b1 e8be fce1 39bf 7872 f8bc
00000130: 949d 1dbf fb67 bebe 8209 31bf 9aec 99bd
00000140: 5688 1b3d 8db8 29bf 9617 483e 6445 ba3a
00000150: 8b24 073d f94f 5dbf 12c3 f4bd 9d78 613c
00000160: 6814 8b3c 3886 2ebf a5ec 0ebd 72f8 7d3e
00000170: 55c1 4a3c e62c b03b cc8c a0bd 79eb 14bf
00000180: f20c 0dbd c79b 88be 16fd 8dbd 43c3 b2be
00000190: 2f6f 843e b78c af3e 6d63 933d 854e fb3d
000001a0: 9b0a 973e 31da 62bd 309b 103f eca9 a13e
000001b0: 4372 b13e 6b34 1b3e 440a 2d3e 7ec2 413d
000001c0: 2abc c23e a5e8 dc3d f9e3 f03d d782 903e
000001d0: e4c5 863e 5663 313f 01e5 243f 0627 87be
000001e0: c1c6 01bf 5ee2 313e 05da 64bd 44a4 10be
000001f0: 96ef 903e 9f28 5fbe 4523 b0bd db51 86be
00000200: f8c4 ddbc dca0 993e 5d3b ca3e 0597 a33e
00000210: 5dea 693d 9073 ac3e b5c4 a5bc d90c d23e
00000220: b2af 71bd 3d1b fb3d 9240 c9bb dc24 8f3e
00000230: d575 51be 62ca 3c3e 3815 733e 289e c93e
00000240: 679a cebe 62b4 dd3e d84b 803e 0f32 ab3e
00000250: 44eb a8be 5bac e23e 6d6b 883e 6132 bb3e
00000260: b125 8a3e 7bde bc3e 600f e7bc b646 eebe
00000270: 650c 293e 99d8 7a3e f329 48be f288 b23e
00000280: a34f 163e e9c6 213e 37e1 a13e c0d8 56be
00000290: bc50 433f 001a d7b6 ab80 0b3e e6d7 7dbe
000002a0: 6d69 a9bd de8a 273d dcc2 1fbe 2971 b83e
000002b0: 7769 8abe 84b0 94be 7279 d1bd 9eaa 293e
000002c0: 9d96 b83d 928f 07bd 5d3a 983e 3d8e 393e
000002d0: dcb1 283e bac3 52be 24f0 6ebe 3d98 953e
000002e0: d751 613e ee31 c6bd 4553 b93e 69bd 093f
000002f0: 7f06 6d3e 9c43 9e3d bf7c 933e 17be febd
00000300: 891e 0e3d 371b 01be b7df cdbc bb6b 89be
00000310: c725 473f de06 f43e 4a5c bebd 9aa6 093f
00000320: 9f78 2d3f 607c 80bd 2d0a a63e b4ce d73e
00000330: 2683 103f d37e 063f e915 ff3e 5f69 b53e
00000340: 1584 413f 1f73 663e 3d95 843d e546 f53e
00000350: 62fa a53e 694e c23e 3491 2b3f 2f83 9ebd
00000360: 85c6 09be 4bf2 1c3f 54ba 59bd 239c 94bd
00000370: f1b0 183f d68e c0bd 301a 33be 78ad ecbd
00000380: dd94 5bbe cd44 e43e bf19 9a3e e86d 163f
00000390: f10c a1bd 3f68 b33e 6324 8bbd 3981 993e
000003a0: b06d dbbd bae6 f33e d52d 18bd ae1d 243f
000003b0: 1441 9cbd d3dd 0c3f 3f2b e33e d8ba d03e
000003c0: dfad 87be 55ae b93e 8e9d a93e d37f 093f
000003d0: ede0 39be 9cdf e63c a52f cebd 7b85 1b3f
000003e0: f93d 233f 878a 4f3f b301 b53e 8a06 5bbe
000003f0: ea15 e93e c986 643e 9ef1 e73c 135d 013f
-0.40566522 -0.6909971 -0.55241203 -0.85252494 -0.03609248 0.028509451 -0.7254676 -0.03266691
0.0053236266 -0.6305245 0.20699549 -0.0024634772 0.06996971 0.008929203 0.05117447 0.06222677
-0.013576588 -0.11189176 0.018790659 -0.07208138 0.10424753 0.30927816 0.15673837 -0.7952276
-1.1326889 -0.044309583 -0.5277871 -0.6408235 0.014054858 -0.61083734 -0.48101747 -0.7809113
-0.050016936 0.115502454 0.19973905 0.019641334 -0.56758606 0.070695944 -0.66077244 0.098859526
-0.30412334 -0.028978625 -0.062722296 -0.04022534 -0.6636878 -0.07527423 -0.012591062 -0.05016917
-0.85962844 0.011944425 0.039635535 0.0035710395 -0.86681116 0.9999094 0.09445836 -0.048997883
0.024911232 -0.037377164 0.010648403 -0.79324156 0.020802818 0.20678407 -0.75562906 -0.019709826
-0.014871832 0.023874374 -0.010658594 -0.6088978 0.63324046 -0.60374594 -0.006967053 -0.7031197
-0.6557116 -0.4544812 -0.7261045 -0.03032802 -0.6156857 -0.37188706 -0.6915513 -0.07515831
0.037971817 -0.6629723 0.19540247 0.0014211354 0.032993834 -0.86450154 -0.11951269 0.013761667
0.016977504 -0.6817355 -0.03489365 0.24801806 0.0123751955 0.005376446 -0.07839355 -0.581718
-0.034436174 -0.2668135 -0.06933038 -0.34914598 0.25866076 0.34287044 0.07196698 0.12270836
0.2950028 -0.055383865 0.564868 0.31574953 0.34657487 0.15156715 0.16898447 0.047304623
0.38034183 0.10786561 0.11762232 0.28224823 0.26322854 0.692922 0.6441193 -0.2639696
-0.506939 0.17371508 -0.055871982 -0.14125162 0.2830779 -0.2179284 -0.08600477 -0.26234326
-0.027071461 0.30005538 0.39498416 0.31951156 0.057108272 0.33681917 -0.020235399 0.41025427
-0.059005447 0.12261055 -0.0061417306 0.2795781 -0.20455106 0.18436578 0.23738563 0.39378476
-0.40352175 0.43301684 0.25057864 0.3343663 -0.32991993 0.44272122 0.2664446 0.36561874
0.2698188 0.3688849 -0.028205574 -0.46538323 0.16508634 0.24496688 -0.19547252 0.34870106
0.14678816 0.15798534 0.31617138 -0.20981121 0.76295066 -6.410526e-06 0.13623302 -0.2478939
-0.082720615 0.04090392 -0.15601677 0.36023834 -0.27033588 -0.2904092 -0.10228242 0.16568992
0.09013102 -0.033095904 0.29732028 0.18120666 0.16474098 -0.20582476 -0.23333794 0.2921771
0.22003876 -0.09677492 0.36196342 0.5380464 0.2314701 0.07727739 0.2880611 -0.124386005
0.03469709 -0.12608038 -0.02513109 -0.26840004 0.7779202 0.4766149 -0.092949465 0.5376984
0.6776218 -0.06273723 0.32429639 0.4214989 0.56450117 0.5253727 0.49821404 0.35431954
0.75592166 0.22504853 0.064737774 0.4790565 0.3241759 0.37950447 0.6701844 -0.07739865
-0.13454635 0.6130721 -0.053156212 -0.07256343 0.5964499 -0.09402244 -0.17490458 -0.11556524
-0.21443506 0.4458374 0.30097768 0.58761454 -0.078637965 0.3504047 -0.067940496 0.29981402
-0.107142806 0.47636968 -0.037153084 0.6410779 -0.076296 0.55025977 0.44368932 0.4076755
-0.2649984 0.36265817 0.33128017 0.5371067 -0.18152209 0.028182797 -0.10067681 0.6075055
0.6376644 0.8107075 0.3535286 -0.21389213 0.45524532 0.22317041 0.028313454 0.50532645

fc3.bias f4 [24]
00000000: 59b2 ecbf 5a05 2abf be54 3dbf 0112 87bf
00000010: df2a c1bf 9b01 bfbf 56c8 4abf bc1c 8abf
00000020: 3d79 b8bf a66c 25bf aaa7 60bf c59e 4ebf
00000030: 1ef5 46bf c38c 65bf b0ed 8bbf 11b9 afbf
00000040: fcec 5abf 7e1b ddbf 7cce b9bf 18af cebf
00000050: 8670 e9bf 6520 5bbf f5fe debf ae3b 36bf
-1.8491927 -0.66414416 -0.7395743 -1.0552369 -1.5091208 -1.4922365 -0.7921194 -1.0790019
-1.4411999 -0.6461891 -0.87755835 -0.80711013 -0.7771777 -0.8966791 -1.0931911 -1.3728353
-0.8551786 -1.7274015 -1.4516139 -1.6147184 -1.8237464 -0.85596305 -1.7421557 -0.71184814

fc4.weight f4 [2, 24]
00000000: 17b3 70bf 8778 5cbc 4ab5 e03c 320a e1be
00000010: 5549 43bf 1c23 3abf ed36 7a3d 7089 8bbe
00000020: cae6 23bf 0cd6 cc3f 8c17 afbd 432b 83bd
00000030: 441c 2b3d 086c 1abf 5b0f 6cbe 7cbd 23bf
00000040: 68d1 60bd 96c4 79bf 1945 2cbf 2e5d 66bf
00000050: 592d 85bf 1bfa a53d 2e9b 61bf 57e7 c03f
00000060: f17f 8540 7320 173f 183f ad3e 5959 0740
00000070: 9cde 3f40 db75 5840 b01e cb3e 6a81 f93f
00000080: 18b3 6540 817c cfbf 8cdb 223f da68 3a3f
00000090: 02ab b73e 81fd c73f 9e49 e53f c43f 4e40
000000a0: 3d8a 343f afdb 7f40 7d1f 5040 9d9c 7040
000000b0: db20 7c40 3338 ab3e 096b 6840 3e8d bcbf
-0.9402327 -0.01345647 0.027430195 -0.4395309 -0.7628377 -0.7270982 0.061087538 -0.27253294
-0.6402403 1.6002822 -0.08549413 -0.06404736 0.041775003 -0.6032109 -0.23052733 -0.63961005
-0.054887205 -0.9756559 -0.67292935 -0.8998593 -1.0404464 0.081043445 -0.8812741 1.5070599
4.171868 0.5903389 0.338372 2.1148283 2.997962 3.3821933 0.3967185 1.9492619
3.589056 -1.620987 0.6361625 0.7281624 0.35872656 1.5624238 1.7913091 3.222642
0.70523435 3.9977834 3.251922 3.759559 3.9395053 0.33441314 3.631533 -1.4730604

fc4.bias f4 [2]
00000000: 796c ec3f 6f6b 3cbf
1.8470603 -0.7360143

fc5.weight f4 [1, 2]
00000000: 9d34 6340 8203 46c0
3.5500863 -3.093964
