T3-2024/Federated_Learning/Improved_FL/SRC/FL_parameters/client8.pth (torch, 34104 bytes, 9 tensors)

fc1.weight f4 [48, 12]
0.043970745 -0.02818993 0.59567994 -0.11742138 0.08444036 0.28313243 0.24314491 0.16153249
-0.34167978 0.14500146 0.35947385 0.059170924 -0.021016369 -0.36042005 -0.4838373 0.10150476
0.4115098 -0.44165787 -0.36667535 -0.06459983 0.03607537 0.046339557 -0.031738248 0.073040456
-0.016174898 0.014771646 -0.84433216 0.05510579 0.32592398 -0.4950467 0.2511601 0.2451501
-0.012372947 0.1102726 -0.029560756 -0.008818593 -0.07946641 0.010034742 -0.8476076 -0.012523632
-0.021243224 -0.21951249 -0.09566861 -0.049733706 -0.04322456 0.0050160573 -0.03055365 0.021509008
-0.06895044 0.06779202 -0.8828448 0.017625857 -0.007274046 -0.30808815 0.05593079 -0.031270444
0.009024051 0.017107127 -0.10785136 -0.007868125 0.038368825 0.10184523 -0.37421507 -0.0107345125
-0.2127371 0.3620503 -0.9856217 -0.18647793 0.053758204 0.0906162 -0.3662194 0.15941139
-0.008145008 0.15170847 -0.81869924 -0.028950304 0.042050693 -0.3494989 0.12221551 -0.008613487
0.04666864 8.5306165e-05 -0.058008276 -0.08419616 0.2884664 0.122039266 -0.08735488 -0.15628596
-0.018952843 -0.64428014 -0.53911006 0.033802543 0.015361278 0.05829962 0.0047839317 0.028096968
-0.03407076 -0.01759463 -1.0337481 0.088731796 0.0583346 -0.02979261 -0.10457962 -0.054823477
-0.0062113265 -0.098395646 -0.10350562 0.0630492 0.050172254 -0.04565714 0.68934333 0.14763387
0.06393411 0.16997835 0.23572338 0.07985532 0.007824789 0.057319697 0.11453676 0.00997964
0.07745147 -0.3022447 -0.64258873 -0.03383377 -0.04366752 -0.4487938 0.22621033 0.023455095
-0.04432302 0.017773535 -0.012213523 0.030348621 0.03966778 0.07328487 0.13194233 -0.050763912
-0.7196225 0.049989045 -1.2868886 0.1159577 0.10855508 0.098987244 -0.09517929 0.032327957
-0.020383831 -0.022004634 -0.27850786 -0.031420775 -0.095452435 -0.5630695 -0.46567833 -0.121303774
-0.03297004 0.032845017 -0.14661656 0.08454451 0.043381363 0.23482345 -0.92730445 0.011558186
0.010248566 -0.48419642 0.34508628 -0.14356434 -0.026719397 0.05843783 -0.08664861 -0.03216067
-0.14330572 0.019628987 -0.8358476 0.08266073 -0.115270935 -0.11879761 0.27362844 -0.020724995
0.041811414 0.094609134 -0.025313683 0.13947889 0.009176947 0.08868687 0.5717953 0.14072172
0.15600196 0.17294216 0.20109479 -0.0011181973 0.10646103 0.062208105 0.033562057 0.014098265
0.085602224 -0.058663458 0.6403252 0.063268825 0.17867923 0.14867456 0.19477078 -0.001765914
0.1420578 0.055695403 -0.06862351 -0.031218348 -0.07985781 0.11172238 -0.7620705 -0.06170578
-0.013082019 -0.38822988 -0.061503537 0.026550835 -0.0042766044 0.02485918 0.041076522 0.036614385
0.1283555 -0.20183699 0.6017412 0.0972895 0.16962416 0.038143225 0.20500356 -1.4952928
-0.08537315 0.007429776 0.088066295 -0.090441644 0.084822305 -0.053368516 -0.9641051 0.00019976165
-0.065199666 -0.33293387 0.1293639 -0.1591182 0.06889081 0.020971986 -0.080427006 -0.015423253
-0.042817213 0.058299363 0.15174015 -0.09632786 -0.7764778 0.022169588 -1.2585869 0.04783117
0.08566724 0.10823102 -0.104326725 0.002831683 0.07093779 -0.064405404 -0.93987495 0.082253955
00000000: ab1a 343d 91ee e6bc 7b7e 183f 9f7a f0bd
00000010: 11ef ac3d bcf6 903e fbfa 783e c668 253e
00000020: a7f0 aebe 437b 143e f50c b83e 365d 723d
00000030: 852a acbc fa88 b8be 86b9 f7be bae1 cf3d
00000040: 6ab1 d23e fb20 e2be dfbc bbbe ea4c 84bd
00000050: c4c3 133d 8cce 3d3d f7ff 01bd 3c96 953d
00000060: 3881 84bc c604 723c 2726 58bf 9cb6 613d
00000070: 82df a63e c376 fdbe 0e98 803e a108 7b3e
00000080: e7b7 4abc 9ad6 e13d 6629 f2bc dc7b 10bc
00000090: 49bf a2bd c268 243c d0fc 58bf eb2f 4dbc
000000a0: 4506 aebc e2c7 60be e7ed c3bd 92b5 4bbd
000000b0: 3c0c 31bd bd5d a43b a64b fabc a933 b03c
000000c0: e335 8dbd 8bd6 8a3d 1e02 62bf 1a64 903c
000000d0: 1f5b eebb bbbd 9dbe af17 653d 7015 00bd
000000e0: 9dd9 133c 3f24 8c3c 2de1 dcbd 4fe9 00bc
000000f0: a128 1d3d 3b94 d03d 1e99 bfbe cfdf 2fbc
00000100: c1d7 59be a85e b93e b451 7cbf 12f4 3ebe
00000110: 9031 5c3d fc94 b93d 1c81 bbbe bd3c 233e
00000120: a472 05bc 7759 1b3e 4696 51bf 3029 edbc
00000130: 593d 2c3d 85f1 b2be 204c fa3d 951f 0dbc
00000140: 9e27 3f3d 66e6 b238 169a 6dbd 096f acbd
00000150: deb1 933e b9ef f93d 1ee7 b2bd 6d09 20be
00000160: fe42 9bbc 8bef 24bf 1e03 0abf 8974 0a3d
00000170: dfad 7b3c 95cb 6e3d 87c2 9c3b 9d2b e63c
00000180: c88d 0bbd 9d22 90bc dc51 84bf 04b9 b53d
00000190: 43f0 6e3d a20f f4bc d72d d6bd 958e 60bd
000001a0: 6288 cbbb a883 c9bd c1fa d3bd f01f 813d
000001b0: 6c81 4d3d fb02 3bbd ce78 303f 552d 173e
000001c0: e3ef 823d ce0e 2e3e 7861 713e 308b a33d
000001d0: 8b33 003c 0fc8 6a3d 4092 ea3d a581 233c
000001e0: e09e 9e3d d1bf 9abe b280 24bf 4795 0abd
000001f0: b7dc 32bd 4dc8 e5be aea3 673e e624 c03c
00000200: 0e8c 35bd ce99 913c 3a1b 48bc ac9d f83c
00000210: af7a 223d 6116 963d e41b 073e d2ed 4fbd
00000220: 2e39 38bf 50c1 4c3d c4b8 a4bf 3b7b ed3d
00000230: 2052 de3d d3b9 ca3d 5ced c2bd 526a 043d
00000240: fefb a6bc 1043 b4bc 9598 8ebe 12b3 00bd
00000250: 917c c3bd 5325 10bf 646d eebe 1d6e f8bd
00000260: 980b 07bd 7f88 063d a722 16be ac25 ad3d
00000270: a8b0 313d 8f75 703e d363 6dbf 8c5e 3d3c
00000280: 9ae9 273c 98e8 f7be 26af b03e 8802 13be
00000290: a3e2 dabc 825c 6f3d d474 b1bd e8ba 03bd
000002a0: bcbe 12be f8cc a03c 1cfa 55bf 074a a93d
000002b0: 2b13 ecbd 294c f3bd 0719 8c3e 77c7 a9bc
000002c0: 7242 2b3d 6fc2 c13d a45e cfbc 8ed3 0e3e
000002d0: e85a 163c 76a1 b53d 2d61 123f 5b19 103e
000002e0: fabe 1f3e c017 313e cbeb 4d3e 7a90 92ba
000002f0: 3e08 da3d edcd 7e3d 5e78 093d 69fc 663c
00000300: 3850 af3d 1849 70bd 5aec 233f 1693 813d
00000310: b0f7 363e 253e 183e fe71 473e 3e76 e7ba
00000320: 9a77 113e dd20 643d 7c8a 8cbd 9fbd ffbc
00000330: 7e8c a3bd b4ce e43d 0d17 43bf 33bf 7cbd
00000340: f755 56bc 11c6 c6be 22eb 7bbd 2381 d93c
00000350: c222 8cbb 7ba5 cb3c db3f 283d f7f8 153d
00000360: a06f 033e 5bae 4ebe b60b 1a3f b83f c73d
00000370: f5b1 2d3e 123c 1c3d 74ec 513e c165 bfbf
00000380: 1ed8 aebd 7a75 f33b 1a5c b43d 7839 b9bd
00000390: 51b7 ad3d f298 5abd 98cf 76bf 1c77 5139
000003a0: 6787 85bd 4f76 aabe f877 043e e2ef 22be
000003b0: a016 8d3d 71cd ab3c eab6 a4bd d0b1 7cbc
000003c0: 1a61 2fbd 50cb 6e3d c561 1b3e 8b47 c5bd
000003d0: 40c7 46bf ff9c b53c 6019 a1bf 9eea 433d
000003e0: 4e72 af3d 3aa8 dd3d 40a9 d5bd c293 393b
000003f0: d547 913d fbe6 83bd a59b 70bf c374 a83d

fc1.bias f4 [48]
-0.5532629 0.17786647 0.030624125 0.58476436 0.4354268 0.07239362 0.27245036 -0.13649872
0.41412538 -0.6440468 0.38224253 0.28915766 0.37112153 0.071907915 -0.076714076 -0.62560016
-0.758028 0.62831855 -0.4255992 0.4154045 0.27283406 0.31205642 -0.53082705 0.29453737
0.30160198 0.61810315 -0.44467086 0.45054317 -0.25017813 0.57877934 0.542931 -0.6511316
-0.75921667 0.3090829 0.2399723 0.22212566 -0.4055381 0.5415909 0.15432969 0.3357889
0.34660065 0.040645782 0.5214607 -0.18969257 -0.20087661 -0.50259256 -0.59192073 0.36003977
00000000: a3a2 0dbf a122 363e 72df fa3c 1eb3 153f
00000010: 43f0 de3e 1b43 943d 9d7e 8b3e 52c6 0bbe
00000020: 3e08 d43e 40e0 24bf 4bb5 c33e 790c 943e
00000030: a403 be3e 7544 933d 451c 9dbd 5527 20bf
00000040: 1f0e 42bf 7cd9 203f 23e8 d9be e6af d43e
00000050: e8b0 8b3e dcc5 9f3e 48e4 07bf 9acd 963e
00000060: 936b 9a3e 023c 1e3f e6ab e3be 98ad e63e
00000070: 5917 80be e22a 143f 87fd 0a3f 8fb0 26bf
00000080: 065c 42bf 1d40 9e3e 4cbb 753e e974 633e
00000090: b1a2 cfbe b4a5 0a3f 9a08 1e3e 86ec ab3e
000000a0: a475 b13e 317c 263d 737e 053f c53e 42be
000000b0: 99b2 4dbe e8a9 00bf 1e88 17bf 2257 b83e

fc2.weight f4 [96, 48]
0.4970618 -0.42116538 -0.70644444 -0.55093676 -0.40089974 -0.70822114 -0.6900804 -0.558235
-0.773902 0.38749197 -0.20425282 -2.2025225 -0.6065298 -0.4887477 -0.59899145 0.5195106
0.5870126 -0.42264888 0.60622466 -0.31804723 -2.1607354 -0.37658554 0.4159208 -2.2120123
-2.398632 -0.46303928 0.13891608 -0.41122803 0.11466057 -0.3483823 -0.3104558 0.37024048
0.66344076 -0.44003773 -0.46161103 -1.8577694 0.36305606 -0.44170254 -0.7021024 -0.55219966
-0.4893517 -0.8458591 -0.68251765 -0.09267553 0.1317452 0.64925194 0.714152 -0.82552356
0.28443158 -0.7745984 -0.7417572 -0.81986195 -0.64608294 -1.1272202 -0.9274843 -0.60767204
-0.6987997 0.3188791 -0.4905147 -1.3168417 -0.7185562 -0.7270966 -0.49591276 0.33302736
0.57422787 -0.56146336 0.349663 -0.60345006 -1.3071637 -0.62965006 0.1805888 -1.3495289
-1.4974194 -0.47917312 0.12907381 -0.6178463 0.13568594 -0.6649344 -0.7664074 0.56388515
0.2967798 -0.92835283 -1.0229316 -1.1918362 0.116768055 -0.60639256 -1.0333335 -0.99555516
-1.0793437 -0.31031504 -0.6794974 -0.12520464 -0.120268315 0.36389658 0.083184294 -0.85073566
0.38973206 -0.85211724 -0.7986243 -0.60445076 -0.3892206 -1.1827135 -0.5403115 -0.92878467
-0.8553806 0.5012727 -0.2469366 -1.8445024 -0.7520014 -0.47990605 -0.67817694 0.43418413
0.61421114 -0.34274042 0.5850941 -0.34194905 -2.01928 -0.2996547 0.6113134 -1.7979848
-1.9186984 -0.36596894 0.24837457 -0.21690513 -0.051736306 -0.46534014 -0.46924394 0.68505466
0.64757293 -0.8230785 -0.7882494 -1.6887233 0.25487557 -0.54284465 -1.0140592 -0.52756006
-0.70612466 -0.6827945 -0.6993286 -0.07157675 0.10649585 0.7032155 0.52832973 -1.1641115
0.31798786 -0.8120058 -0.60054445 -0.92233914 -0.62905926 -0.9722426 -0.79032034 -0.49800092
-0.84496856 0.2547775 -0.35875612 -1.3068221 -0.67001474 -0.8815987 -0.33494118 0.32430837
0.5204677 -0.6591072 0.115526654 -0.3868095 -1.2312682 -0.6275907 -0.013231646 -1.2032878
-1.2997037 -0.84177613 -0.009693994 -0.48385018 0.1417329 -0.84022576 -0.65796006 0.55794203
0.571473 -0.9510041 -0.9769041 -1.0562719 0.08916815 -0.56828696 -0.9685847 -0.8163491
-0.8959437 -0.34992537 -1.0392065 0.04066642 0.028805658 0.2622455 0.27101013 -0.8888058
0.0019261746 0.630108 0.28308448 0.5820316 0.6330677 0.77336323 0.37376228 0.34880102
0.14527397 -0.033082608 0.52129334 0.75853807 0.62799823 0.39077905 0.17391515 -0.0883009
-0.10848134 0.94099313 0.06872107 0.6461624 0.7183855 0.7148376 -0.008134536 0.68118227
0.6826696 0.9696269 -0.037887085 0.9227768 -0.13800533 0.6483322 0.5498978 -0.010857929
-0.051329874 0.82704735 0.79752755 0.7479438 -0.046156988 0.70774215 0.7412395 0.8236915
0.92963415 0.28789777 0.2892049 0.0942365 0.13862982 0.043023396 -0.016801324 0.4184333
-0.016765086 0.5472466 0.4630833 0.6356596 0.77265066 0.6892981 0.34158084 0.46512002
0.9013771 0.05591576 0.46375045 1.5546095 0.6337433 0.462941 0.43401265 0.0029923758
00000000: e27e fe3e fda2 d7be 8bd9 34bf 310a 0dbf
00000010: bb42 cdbe fb4d 35bf 1ca9 30bf 7de8 0ebf
00000020: 711e 46bf 5965 c63e a727 51be 21f6 0cc0
00000030: 8945 1bbf 233d fabe 8157 19bf a6fe 043f
00000040: 7546 163f 6f65 d8be 8a31 1b3f 16d7 a2be
00000050: 7d49 0ac0 d2cf c0be 92f3 d43e 9c91 0dc0
00000060: 3083 19c0 7c13 edbe 0440 0e3e 7b8c d2be
00000070: 29d3 ea3d 2a5f b2be 10f4 9ebe 2990 bd3e
00000080: 41d7 293f a04c e1be 4858 ecbe 63cb edbf
00000090: 7ce2 b93e d626 e2be fcbc 33bf f55c 0dbf
000000a0: 4e8c fabe 398a 58bf 7ab9 2ebf abcc bdbd
000000b0: 37e8 063e 6035 263f aad2 363f 8355 53bf
000000c0: 04a1 913e 154c 46bf cde3 3dbf 79e2 51bf
000000d0: b165 25bf c048 90bf 9c6f 6dbf 6590 1bbf
000000e0: 8ae4 32bf 1f44 a33e be24 fbbe 458e a8bf
000000f0: 4df3 37bf 0123 3abf 47e8 fdbe 9082 aa3e
00000100: 9900 133f 10bc 0fbf 0707 b33e b47b 1abf
00000110: 2451 a7bf bf30 21bf 45ec 383e 5dbd acbf
00000120: 70ab bfbf 2e56 f5be ed2b 043e 2d2b 1ebf
00000130: 41f1 0a3e 2439 2abf 4633 44bf c75a 103f
00000140: 86f3 973e 88a8 6dbf 6cef 82bf 178e 98bf
00000150: 1724 ef3d 8b3c 1bbf 4644 84bf b4dc 7ebf
00000160: ef27 8abf 9de1 9ebe 8bf3 2dbf a535 00be
00000170: 3c4f f6bd a750 ba3e 875c aa3d d0c9 59bf
00000180: f68a c73e 5b24 5abf a472 4cbf 49bd 1abf
00000190: ec47 c7be 2863 97bf db51 0abf d5c4 6dbf
000001a0: 39fa 5abf 6853 003f f3dc 7cbe a818 ecbf
000001b0: 2a83 40bf 3fb6 f5be 019d 2dbf 624d de3e
000001c0: f13c 1d3f ac7b afbe bac8 153f f213 afbe
000001d0: e23b 01c0 576c 99be 097f 1c3f 5e24 e6bf
000001e0: e997 f5bf 4860 bbbe e755 7e3e 611c 5ebe
000001f0: 73e9 53bd 1041 eebe be40 f0be be5f 2f3f
00000200: 57c7 253f 46b5 52bf b6ca 49bf 1628 d8bf
00000210: 0d7f 823e def7 0abf b1cc 81bf 2d0e 07bf
00000220: 96c4 34bf 9fcb 2ebf 3307 33bf d596 92bd
00000230: 7f1a da3d ee05 343f 9e40 073f 9b01 95bf
00000240: 4ecf a23e 9ddf 4fbf 48bd 19bf 6b1e 6cbf
00000250: 070a 21bf e4e4 78bf 6f52 4abf faf9 febe
00000260: dc4f 58bf 3272 823e e2ae b7be f245 a7bf
00000270: 1686 2bbf 74b0 61bf 697d abbe bf0b a63e
00000280: 5f3d 053f 40bb 28bf 3d99 ec3d e50b c6be
00000290: 329a 9dbf c9a9 20bf 8cc9 58bc 5605 9abf
000002a0: b15c a6bf a47e 57bf 8fd3 1ebc 36bb f7be
000002b0: 6e22 113e 0919 57bf 1270 28bf 4ad5 0e3f
000002c0: 0e4c 123f 0175 73bf 6316 7abf eb33 87bf
000002d0: cb9d b63d 417b 11bf 2bf5 77bf 41fc 50bf
000002e0: 915c 65bf 6b29 b3be b804 85bf d591 263d
000002f0: d8f9 eb3c 0b45 863e d7c1 8a3e c788 63bf
00000300: b277 fc3a c24e 213f 73f0 903e 0600 153f
00000310: ba10 223f 22fb 453f c55d bf3e 0c96 b23e
00000320: b3c2 143e a181 07bd 7b73 053f 8d2f 423f
00000330: 7ec4 203f 3114 c83e d016 323e 1ad7 b4bd
00000340: 772b debd ede4 703f a2bd 8c3d e66a 253f
00000350: 1de8 373f 99ff 363f b846 05bc f661 2e3f
00000360: 6fc3 2e3f 7839 783f 7d2f 1bbd 1a3b 6c3f
00000370: 4551 0dbe 19f9 253f 1ac6 0c3f 74e5 31bc
00000380: 463f 52bd 60b9 533f c42a 4c3f 3f79 3f3f
00000390: 1c0f 3dbd 972e 353f dfc1 3d3f 72dd 523f
000003a0: 81fc 6d3f 5667 933e aa12 943e 11ff c03d
000003b0: faf4 0d3e 4d39 303d eea2 89bc e43c d63e
000003c0: ef56 89bc 5a18 0c3f 4119 ed3e 96ba 223f
000003d0: 6fcc 453f d775 303f afe3 ae3e 3624 ee3e
000003e0: a6c0 663f ed07 653d b370 ed3e 72fd c63f
000003f0: 003d 223f 9a06 ed3e e836 de3e bc1b 443b

fc2.bias f4 [96]
0.7408177 0.14883783 0.48561716 0.16143952 0.13661283 0.0285355 0.52586377 0.13244678
0.007784144 0.42583647 -0.6052096 0.10750286 0.12083081 0.22678958 0.067279465 0.113247745
0.13059804 0.27858302 0.08404165 0.14127977 -0.34330642 -1.0361499 -0.5769702 0.17964771
0.043220542 0.16576013 0.7559515 0.44833654 0.121159986 0.24785127 0.24461877 0.15786237
0.75853187 -0.1679216 -0.8717391 0.067472935 0.589821 -0.20495407 0.5537812 -0.52273375
0.446802 0.11040258 0.20472401 0.14304282 0.336945 0.07770745 0.14421241 0.018960655
0.0874524 0.07562959 0.09148568 0.04854313 0.16913706 -1.4162775 -0.13839205 0.047382448
0.133771 0.076323815 0.22924192 0.11383209 0.04215101 -0.43087038 0.2879701 0.0320631
0.13448615 0.08284487 0.07058816 0.22777963 -1.3804909 0.6449244 0.23260625 0.18785506
0.5807982 0.645653 0.17125537 0.05133767 0.23631276 0.2968838 0.27309626 0.08071664
-0.11468769 0.33424035 0.16175161 0.09617725 0.14075999 0.3048639 0.85279465 0.08221496
0.049402095 0.68858474 -0.00882953 -0.77149427 0.16165736 0.013915407 0.037846476 0.708719
00000000: 3ba6 3d3f f268 183e d0a2 f83e 6750 253e
00000010: 3ce4 0b3e 48c3 e93c 029f 063f 21a0 073e
00000020: 2212 ff3b 3d07 da3e 04ef 1abf 762a dc3d
00000030: 2576 f73d 873b 683e d1c9 893d 6fee e73d
00000040: 7ebb 053e 6fa2 8e3e 071e ac3d a5ab 103e
00000050: dcc5 afbe 8fa0 84bf 52b4 13bf 92f5 373e
00000060: 0608 313d 06bd 293e 0a86 413f 5e8c e53e
00000070: ba22 f83d b9cc 7d3e 587d 7a3e aca6 213e
00000080: 252f 423f a4f3 2bbe 4b2a 5fbf 402f 8a3d
00000090: 82fe 163f 7bdf 51be 9bc4 0d3f e1d1 05bf
000000a0: 3bc3 e43e bf1a e23d 2ca3 513e d179 123e
000000b0: 0e84 ac3e 1525 9f3d 6bac 133e 6053 9b3c
000000c0: 3e1a b33d b0e3 9a3d d85c bb3d 29d5 463d
000000d0: 4432 2d3e 9548 b5bf a5b6 0dbe 1914 423d
000000e0: 44fb 083e a94f 9c3d 65be 6a3e cc20 e93d
000000f0: 8aa6 2c3d 0b9b dcbe d170 933e 9954 033d
00000100: bdb6 093e 92aa a93d 8690 903d 103f 693e
00000110: edb3 b0bf c419 253f 5530 6e3e 145d 403e
00000120: 31af 143f 8449 253f 915d 2f3e 7347 523d
00000130: f9fb 713e 2701 983e 46d3 8b3e c44e a53d
00000140: 61e1 eabd 8d21 ab3e 37a2 253e 94f8 c43d
00000150: 6323 103e 1f17 9c3e c050 5a3f 5160 a83d
00000160: da59 4a3d 1747 303f bca9 10bc a680 45bf
00000170: 8289 253e 72fd 633c e804 1b3d 9c6e 353f

fc3.weight f4 [24, 96]
-0.4302423 -0.72996354 -0.6218282 -0.7353311 -0.028875913 -0.04460383 -0.74316293 0.051842712
-0.024514325 -0.7158536 0.17021607 -0.043589387 0.025636043 -0.052819435 -0.03594136 0.0023900464
0.037621178 -0.06737529 -0.029049607 0.07376398 0.13421668 0.2587788 0.07807779 -0.7401436
-1.0532838 -0.08310933 -0.50214314 -0.6450144 -0.04546544 -0.6759272 -0.5298994 -0.85801995
-0.07813338 0.103010125 0.23288691 -0.019325364 -0.5358766 0.069348186 -0.62145674 0.09443459
-0.34776676 0.003111729 -0.056576643 0.0037958366 -0.7150253 -0.056342106 0.04178656 -0.014877863
-0.9664326 0.029441161 -0.02417821 0.019636214 -0.81524 0.91108745 0.15605086 0.02276485
0.0045912988 0.023367139 0.034460425 -0.7820739 0.06693894 0.2809885 -0.70906645 -0.0034625574
-0.009416417 0.012803614 -0.0060693617 -0.6415798 0.5913645 -0.60190004 0.019859985 -0.76555467
-0.6602477 -0.53297925 -0.6477382 -0.041632168 -0.5704964 -0.587403 -0.6295574 -0.0027489706
0.05839982 -0.76476216 0.061500285 0.06462887 -0.019409126 -0.9216776 -0.06608008 0.0090588415
0.07581156 -0.7277328 -0.0051416014 0.17003457 0.0288122 -0.0033862987 -0.013795388 -0.6524912
-0.07705003 -0.3364836 -0.10747905 -0.4201386 0.26665038 0.31901297 -0.10689455 0.0766666
0.16323452 -0.09954164 0.4682132 0.28487864 0.18757765 0.19247702 0.17915323 0.015524842
0.35074306 0.15076788 0.043753233 0.3061061 0.10425139 0.71342474 0.6642713 -0.1816388
-0.48912087 0.16774449 -0.19199416 -0.12350668 0.24694288 -0.3303259 -0.15775478 -0.25895292
-0.10235716 0.3407032 0.39497313 0.28794146 -0.03483094 0.4580841 -0.13517569 0.18460287
-0.16350293 0.09643329 0.09034915 0.19482143 -0.26040533 0.21946114 0.07930586 0.32722977
-0.39543542 0.28333738 0.15330452 0.21279894 -0.35285172 0.38158026 0.22283497 0.22710879
0.30041146 0.2227355 -0.11722451 -0.5467901 0.1137097 0.21542902 -0.21539107 0.33444083
0.09416554 0.111337185 0.25361753 -0.24063596 0.65908504 -0.03989513 0.043990634 -0.19492216
-0.059940387 -0.001740566 -0.1917727 0.28431904 -0.39039558 -0.20073555 -0.08556529 0.17376378
0.15314512 -0.17116834 0.27764925 0.11966606 0.10711507 -0.17153427 -0.2646096 0.32183117
0.16625954 -0.06616965 0.26950353 0.5628515 0.13015613 0.08937027 0.19742419 -0.07629179
0.01981217 -0.15983652 -0.020550398 -0.3070375 0.7028799 0.52918893 -0.13122757 0.6296726
0.627635 -0.045057703 0.32433796 0.3728144 0.6617606 0.53728664 0.40500954 0.255059
0.7547113 0.25619864 0.13136871 0.528845 0.32147112 0.3718037 0.68716323 0.0013871475
-0.20961823 0.6205268 -0.023027929 -0.055535667 0.6055058 -0.13120262 -0.1753865 -0.06528735
-0.1616013 0.44179183 0.30129975 0.48400164 -0.08644271 0.35171902 -0.13160168 0.29889658
-0.077330746 0.42623198 0.10503254 0.5695246 -0.12617762 0.5381062 0.37964877 0.40515164
-0.21377832 0.34743038 0.3441497 0.3998132 -0.16907611 0.028679498 -0.15119605 0.54414046
0.61452264 0.81992626 0.37284765 -0.24632144 0.5269177 0.22579311 -0.076829 0.39343646
00000000: b848 dcbe e4de 3abf 2230 1fbf a93e 3cbf
00000010: 2e8d ecbc 81b2 36bd ed3f 3ebf 0659 543d
00000020: 44d2 c8bc 2e42 37bf 1f4d 2e3e c98a 32bd
00000030: ae02 d23c 3159 58bd 3f37 13bd 53a2 1c3b
00000040: aa18 1a3d 0efc 89bd 71f9 edbc 9211 973d
00000050: 1970 093e a87e 843e 40e7 9f3d 0d7a 3dbf
00000060: 01d2 86bf 3935 aabd 748c 00bf aa1f 25bf
00000070: f839 3abd 9109 2dbf 7da7 07bf 32a7 5bbf
00000080: 6504 a0bd f9f6 d23d e879 6e3e 3a50 9ebc
00000090: 352f 09bf 6c06 8e3d ca17 1fbf ec66 c13d
000000a0: 7c0e b2be 26ee 4b3b e9bc 67bd 92c3 783b
000000b0: e60b 37bf fbc6 66bd 6228 2b3d 48c2 73bc
000000c0: 2068 77bf 972e f13c 6211 c6bc 20dc a03c
000000d0: 92b3 50bf 073d 693f cccb 1f3e 5a7d ba3c
000000e0: 9b72 963b 716c bf3c 6026 0d3d ff35 48bf
000000f0: 4817 893d badd 8f3e 6185 35bf 13ec 62bb
00000100: 5147 1abc 40c6 513c 7fe1 c6bb 933e 24bf
00000110: aa63 173f 1f16 1abf 68b1 a23c 64fb 43bf
00000120: fe05 29bf 5471 08bf 2cd2 25bf 7e86 2abd
00000130: 0d0c 12bf 0b60 16bf ac2a 21bf 1328 34bb
00000140: a634 6f3d 74c7 43bf b9e7 7b3d 245c 843d
00000150: e3ff 9ebc 10f3 6bbf fe54 87bd 896b 143c
00000160: 1743 9b3d b24c 3abf e17a a8bb 8b1d 2e3e
00000170: 9007 ec3c aaec 5dbb 0d06 62bc aa09 27bf
00000180: 68cc 9dbd 9447 acbe fa1d dcbd 681c d7be
00000190: 6686 883e ab55 a33e 88eb dabd 6103 9d3d
000001a0: f326 273e 7ddc cbbd a4b9 ef3e 9ddb 913e
000001b0: 5b14 403e b218 453e f273 373e e85b 7e3c
000001c0: 9894 b33e e562 1a3e 9736 333d f0b9 9c3e
000001d0: c181 d53d 01a3 363f af0d 2a3f 86ff 39be
000001e0: 0d6e fabe 36c5 2b3e 1e9a 44be 12f1 fcbd
000001f0: 98de 7c3e 7a20 a9be 788a 21be 7a95 84be
00000200: a1a0 d1bd a670 ae3e eb39 ca3e 106d 933e
00000210: e3aa 0ebd 008a ea3e 7f6b 0abe 8908 3d3e
00000220: 506d 27be d17e c53d fa08 b93d 457f 473e
00000230: d953 85be 6cba 603e 1c6b a23d a98a a73e
00000240: 8376 cabe 9911 913e dcfb 1c3e f7e7 593e
00000250: fba8 b4be 7d5e c33e da2e 643e 358f 683e
00000260: 88cf 993e c614 643e 6713 f0bd 70fa 0bbf
00000270: a2e0 e83d 6d99 5c3e 7a8f 5cbe d43b ab3e
00000280: ddd9 c03d c004 e43d 28da 813e 4669 76be
00000290: ccb9 283f 1369 23bd 862f 343d ad99 47be
000002a0: 0d84 75bd b423 e4ba 1060 44be 4492 913e
000002b0: eee1 c7be 9f8d 4dbe db3c afbd 22ef 313e
000002c0: 13d2 1c3e c146 2fbe 0b28 8e3e 7b13 f53d
000002d0: 255f db3d aea6 2fbe e97a 87be 0ec7 a43e
000002e0: f13f 2a3e f483 87bd 5efc 893e 0917 103f
000002f0: a647 053e c307 b73d 9129 4a3e df3e 9cbd
00000300: 224d a23c 2fac 23be 4f59 a8bc 0534 9dbe
00000310: f0ef 333f ed78 073f 8560 06be 3932 213f
00000320: b0ac 203f 6d8e 38bd a00f a63e 87e1 be3e
00000330: 2569 293f 9e8b 093f 695d cf3e 1897 823e
00000340: c234 413f 782c 833e 8585 063e 6362 073f
00000350: dd97 a43e 0e5d be3e eee9 2f3f f2d0 b53a
00000360: 29a6 56be d8da 1e3f 11a5 bcbc 5e79 63bd
00000370: 6e02 1b3f fb59 06be 8598 33be 60b5 85bd
00000380: d07a 25be 8a32 e23e f643 9a3e 10cf f73e
00000390: e008 b1bd 8414 b43e 97c2 06be f908 993e
000003a0: 955f 9ebd 143b da3e 4d1b d73d 5dcc 113f
000003b0: b534 01be 54c1 093f 5361 c23e 0970 cf3e
000003c0: b4e8 5abe 65e2 b13e 6434 b03e 51b4 cc3e
000003d0: 4a22 2dbe 44f1 ea3c 23d3 1abe ca4c 0b3f
000003e0: 5b51 1d3f b0e6 513f e3e5 be3e b03b 7cbe
000003f0: 14e4 063f 4f36 673e 8658 9dbd 8170 c93e

fc3.bias f4 [24]
-1.8247483 -0.74648756 -0.74203897 -0.9311537 -1.5050223 -1.4957576 -0.78017527 -1.0757709
-1.396764 -0.7157827 -0.8239726 -0.8649958 -0.69570255 -0.90862995 -1.0597761 -1.4345524
-0.83597916 -1.727964 -1.4173253 -1.5971988 -1.8106829 -0.874876 -1.6676949 -0.7530458
00000000: 5a91 e9bf cf19 3fbf 44f6 3dbf 1760 6ebf
00000010: 92a4 c0bf fc74 bfbf 91b9 47bf dcb2 89bf
00000020: 2ac9 b2bf 893d 37bf deef 52bf 5d70 5dbf
00000030: 9019 32bf f99b 68bf bea6 87bf 6a9f b7bf
00000040: bb02 56bf ed2d ddbf ea6a b5bf 0371 ccbf
00000050: 75c4 e7bf e0f7 5fbf 0777 d5bf 9cc7 40bf

fc4.weight f4 [2, 24]
-1.2452273 -0.054065846 0.02819686 -0.44198757 -0.905038 -0.90868145 0.042031225 -0.27391788
-0.9416589 1.2564635 -0.044795774 -0.015797114 0.046138015 -0.38178563 -0.2541848 -0.8342711
-0.08731929 -1.1717927 -0.825094 -1.0703998 -1.2791482 0.037659846 -1.1324326 1.3247966
4.0436378 0.41132933 0.5264059 2.4508424 3.2242503 3.5110817 0.46555683 1.9536875
3.0525854 -1.2721819 0.588716 0.8353792 0.48937395 0.28491893 1.9618392 3.188057
1.0326275 4.094308 3.215525 3.6691158 4.4965434 0.4100725 4.061999 -1.290964
00000000: 9c63 9fbf 2674 5dbd 1afd e63c 324c e2be
00000010: 92b0 67bf 599f 68bf ef28 2c3d f73e 8cbe
00000020: 8f10 71bf ccd3 a03f c67b 37bd f368 81bc
00000030: 37fb 3c3d 6879 c3be 8324 82be ca92 55bf
00000040: 75d4 b2bd 4efd 95bf 5c39 53bf dc02 89bf
00000050: 21bb a3bf 3641 1a3d 8df3 90bf ef92 a93f
00000060: 7b65 8140 c299 d23e 89c2 063f 9ada 1c40
00000070: 1e5a 4e40 90b5 6040 775d ee3e 6f12 fa3f
00000080: 8f5d 4340 dbd6 a2bf 17b6 163f 69db 553f
00000090: 398f fa3e e5e0 913e 8c1d fb3f 2009 4c40
000000a0: 232d 843f 9204 8340 29cb 4d40 cbd2 6a40
000000b0: afe3 8f40 06f5 d13e e5fb 8140 4f3e a5bf

fc4.bias f4 [2]
1.8170176 -0.6141935
00000000: 0894 e83f c93b 1dbf

fc5.weight f4 [1, 2]
3.5753572 -3.1915958
00000000: a7d2 6440 1b43 4cc0
