T3-2024/Federated_Learning/Improved_FL/SRC/FL_parameters/client6.pth (torch, 34104 bytes, 9 tensors)

fc1.weight f4 [48, 12]
00000000: 557a e13d aae1 8a3c efa5 193f 79e7 70bd
00000010: ed0b 113e 6987 2e3e ce96 1b3e 580d 053e
00000020: 50e8 7bbe 43c4 ba3d 9066 d33e 147f ed3d
00000030: d00c 93bd 8047 e3be ede4 01bf 750b cf3d
00000040: 730b bd3e dad2 ddbe 59da a5be 64c0 15bc
00000050: e340 1dbe 3540 d13d d264 e1bd a646 afbc
00000060: 19cd 11bc 1391 d3bc 5ab0 5fbf 31b3 163d
00000070: 91c5 a13e 9c03 e6be ceaa 8e3e 58bf f23d
00000080: 3836 7bbd 255d 36bc 84ed ddbd 879f 3ebd
00000090: 2bf2 91bd 96da 2f3b 253e 50bf c04d 003d
000000a0: c52a dbbc dbe8 31be cca8 a5bd 5216 193b
000000b0: f35c 88bc c87e cf3d 11de bb3c c8a0 fd3b
000000c0: 2b1c 89bc 0ee2 773d 421f 5bbf 182a d238
000000d0: 3440 a93c 10cc 94be 8a92 3c3d e233 ba3c
000000e0: 8200 093d 1c53 bebb bdd1 41be 6167 0d3a
000000f0: d854 8d3d bbe2 103e 6adb bebe bf33 963d
00000100: ce97 2ebe 7431 9b3e c6d8 78bf ce81 b2bd
00000110: 117f 073e 6759 7dbd 33a6 96be 42d3 7c3e
00000120: 2a10 d2bc fd30 e53d a3b0 53bf f2b5 acbc
00000130: bf95 d53c 1d01 a2be 641d f43d 1117 eebd
00000140: 46fe 643d cb10 c5ba 53ad f7ba 9e43 32bd
00000150: 69a7 8b3e 5652 e83d b7b1 e9bd 9bfe d4bd
00000160: e825 dfbc c636 1fbf 4b38 17bf 478d e33d
00000170: a676 32bb fa67 dd3d 783a b03b 6a52 22bb
00000180: 9ee4 ecbb f568 983c 6eaa 83bf 9ee6 a93d
00000190: 297e 963d e4b4 573b 5dcc 2bbe 8af4 90bd
000001a0: d080 ca3c 12de 473a 0078 44bd ed0b f8bc
000001b0: c991 883d 45c4 0ebc 5d92 333f 267e ed3d
000001c0: 362d 9d3d 8348 043c 0d86 503e 0937 993d
000001d0: a5b0 17bd 08cb a83c 113a 113e f190 6fbd
000001e0: 339b 323e 142b 45be cb7f 2bbf dd2b 2ebd
000001f0: ed26 e83c 90d1 b9be c720 413e b59b bd3d
00000200: ad1f 433c 1513 c2bb 1403 acbd 66df 1d3d
00000210: f1fb 6dbc 1b73 ae3c f41e d33d 1465 83bd
00000220: 8bd2 38bf 3172 703d e3a2 a0bf 0e0a 21bc
00000230: 2c7a 9c3d 4fe3 523d 2a16 b6bd ce86 303d
00000240: 489f b73a 52d7 25bc 87ff 7abe 0c8d f8bb
00000250: ac98 70bd d78c f2be a007 19bf 2f5f 1dbd
00000260: 5ae3 c83c ddd3 103d 506e a3bd 2c31 e13c
00000270: ede4 80bc 756f 353e 17e5 69bf 4b38 0e3d
00000280: 9087 6f37 749e debe 81ca c63e d72b 4abe
00000290: e040 fabc ecf5 433c 99e4 f8bd 4767 a8bc
000002a0: a92f d0bd 708b 6f3d 1047 3ebf 2edd 193e
000002b0: 32f3 eabc c23c 94bd 1e4c bc3e f0d3 bebd
000002c0: 1a9b 0abd 4c99 d83d 364d a0bd e2b9 503e
000002d0: cd2a ed3c b8c3 933d 1661 0f3f a766 b33d
000002e0: dee9 fe3d ffba 9b3d c3d7 5a3e e0f2 ec3c
000002f0: fffa 9a3d 05c1 f63d 180e 793d 9b21 3bbd
00000300: 3349 a43d 89f6 4abd 8e90 2e3f e2d4 c53d
00000310: 7620 0f3e 7e46 d53d 992c 463e 7151 d2bb
00000320: ec71 8b3d 92fd ea3d 1afd 983d f6d8 b5bc
00000330: 5c70 c0bd fd87 a63d 0007 45bf 3b58 63bc
00000340: 08b3 5a3d ed25 cabe bb88 bbbd 4447 183d
00000350: c046 09bc 358d c83b 5938 c5bd ede1 bb3b
00000360: 5cd0 a93d d188 71be e9d3 243f 2d60 263d
00000370: cfb6 323e cdfd 473d b4cc 423e cc56 b5bf
00000380: c50e 233d a870 9fbc 2986 d53d 36b6 0abe
00000390: bd2a 0c3e 75a5 c6bc 14a9 6bbf 2240 9abc
000003a0: 311a 61bd e550 98be 1b53 2d3e dc04 33bd
000003b0: fcb3 453d e747 bdbd 13fd 09be a5b1 4a3d
000003c0: bb1f 69bc ed7c a53d 35a4 473e 7fe0 b5bb
000003d0: c56a 45bf 8cb6 993c 8603 9bbf f1c3 1d3b
000003e0: 424c 8b3d 65e4 1d3e 65f6 09be 5219 d83c
000003f0: 024d d73d 4966 76bd f3c0 79bf 91cd 0c3d
0.11009661 0.016953308 0.6001882 -0.0588145 0.14164706 0.17043842 0.15194246 0.12993371
-0.24600339 0.09119465 0.41289186 0.11596504 -0.07180178 -0.44390488 -0.5073994 0.10109607
0.36922798 -0.4332493 -0.3239315 -0.009140108 -0.15356784 0.10217325 -0.11005558 -0.021395992
-0.008898997 -0.025826013 -0.87378466 0.036791984 0.31596044 -0.4492463 0.2786469 0.11852902
-0.061331004 -0.011130606 -0.10836318 -0.046538856 -0.07126268 0.0026833168 -0.81344825 0.03132415
-0.026753793 -0.17373984 -0.08088836 0.0023359251 -0.016645884 0.101316035 0.022933038 0.007740114
-0.016737064 0.060518317 -0.8559457 0.00010021421 0.020660497 -0.29061937 0.046038188 0.022729818
0.03344775 -0.0058082473 -0.18927665 0.0005394128 0.06900948 0.14148991 -0.37276775 0.073340885
-0.17050096 0.30311167 -0.9720577 -0.087161645 0.13232066 -0.06185284 -0.29423675 0.24689963
-0.025642473 0.111909844 -0.826914 -0.021082852 0.026072381 -0.31641474 0.11919668 -0.11625493
0.055906557 -0.0015034912 -0.0018896259 -0.043521516 0.2727616 0.11343829 -0.114108495 -0.10400125
-0.027239755 -0.6219295 -0.5907027 0.11110931 -0.0027231365 0.108108476 0.005378064 -0.002476836
-0.0072294017 0.018604735 -1.0286386 0.0829594 0.07348282 0.0032914216 -0.16777177 -0.07077892
0.024719626 0.00076243386 -0.047966003 -0.030279124 0.06668431 -0.0087137865 0.7014521 0.115963265
0.07674639 0.008073929 0.20363636 0.074812 -0.037033696 0.020604625 0.14182307 -0.058487836
0.17442016 -0.19254714 -0.6699187 -0.0425223 0.028338874 -0.36292696 0.1886016 0.092582144
0.011909408 -0.005922685 -0.083990246 0.038543127 -0.0145254 0.021295121 0.10308638 -0.064157635
-0.72196263 0.05870265 -1.2549709 -0.009829057 0.0764049 0.05148631 -0.08890946 0.04309731
0.0014009262 -0.010122137 -0.24511538 -0.0075851735 -0.05873935 -0.47373077 -0.5977726 -0.038420852
0.024522472 0.0353583 -0.07980025 0.027489267 -0.01573416 0.17718299 -0.9136519 0.034721654
1.4277073e-05 -0.43480265 0.38826373 -0.19743286 -0.030548513 0.011960488 -0.121529765 -0.020557059
-0.101653405 0.058482587 -0.7432718 0.1502578 -0.028680418 -0.07238151 0.36776823 -0.093177676
-0.033839323 0.10576114 -0.07827227 0.20383409 0.028951073 0.07215065 0.56007516 0.08759814
0.124469504 0.07604026 0.21371369 0.028924406 0.07567405 0.12048534 0.060804456 -0.045686346
0.08021774 -0.04955152 0.6818932 0.09659745 0.13977227 0.10413836 0.1935295 -0.0064184
0.06808838 0.11474146 0.0747015 -0.022198182 -0.09396431 0.081314065 -0.76963806 -0.013876016
0.053393394 -0.3948206 -0.09156939 0.03717734 -0.0083786845 0.006120349 -0.09629888 0.0057337196
0.082916945 -0.23587348 0.6438585 0.040619064 0.17452548 0.048826028 0.190234 -1.4167113
0.039809007 -0.019462898 0.1042598 -0.1354607 0.13688178 -0.024248818 -0.9205487 -0.018829409
-0.05495662 -0.29749218 0.16926233 -0.043705806 0.04826735 -0.0924223 -0.13475446 0.04948582
-0.014228757 0.08080468 0.19496234 -0.0055504437 -0.7711604 0.018763803 -1.211045 0.002407309
0.068016544 0.15419157 -0.13472898 0.026379261 0.10512735 -0.06015614 -0.9756004 0.03437573

fc1.bias f4 [48]
00000000: 872e 16bf 124d 213e 4832 483c 865c 1c3f
00000010: 1607 ec3e 822a b63d 61f7 883e 5978 1cbe
00000020: af2b d43e 03bf 29bf d997 ca3e a62e 863e
00000030: 84b7 cd3e a397 e23d 55c4 163c d5f2 24bf
00000040: a69e 3dbf 5628 1f3f 6a2e c9be e641 e63e
00000050: 49f6 963e fabb 993e 4740 03bf ff39 8f3e
00000060: 66fc 8e3e 4f2b 1e3f 865c cebe 9e2a e83e
00000070: 5917 80be 8980 0c3f b130 093f d50a 2cbf
00000080: 379b 3fbf bce8 a43e 1b53 633e 9165 673e
00000090: 4f57 d2be a1c5 043f 2946 113e 74a7 af3e
000000a0: 809e a23e bf23 593d 9e0c 013f c53e 42be
000000b0: 99b2 4dbe b508 08bf 1162 1bbf bbb4 bb3e
-0.58664745 0.15752056 0.012219019 0.6107868 0.46099156 0.088948265 0.26751235 -0.15280284
0.41439578 -0.66307086 0.39568976 0.26207465 0.40179074 0.11064079 0.009202083 -0.6443303
-0.74070203 0.6217092 -0.39293224 0.44972152 0.29484776 0.30026227 -0.51269954 0.27973935
0.2792694 0.61784834 -0.40304965 0.45345014 -0.25017813 0.5488363 0.5358992 -0.6720403
-0.74846214 0.32208812 0.22199671 0.22597338 -0.41082236 0.5186406 0.1418692 0.34307444
0.3176155 0.053012606 0.5040988 -0.18969257 -0.20087661 -0.53138286 -0.6069651 0.36661324

fc2.weight f4 [96, 48]
00000000: dad0 e73e fe45 cfbe eb46 2ebf e434 21bf
00000010: c311 8abe 80ed 38bf fe15 21bf ac7a 18bf
00000020: cd8a 58bf 1f93 f23e d437 3ebe f50c f9bf
00000030: e5b6 10bf e840 10bf 8c78 03bf c7b2 093f
00000040: ee8f 0a3f 89de e3be 9dbb 193f f0ef 95be
00000050: f9e4 10c0 ba2f d4be 154f d03e b62c 00c0
00000060: b72c 18c0 fc66 b8be e4f0 133e 9fb2 eabe
00000070: 29d3 ea3d 3843 c3be f4b6 a7be d028 e23e
00000080: 97a0 3b3f 00a8 08bf 045e 0ebf b408 eabf
00000090: e398 e63e 076f 01bf dccd 4cbf 5036 17bf
000000a0: 9478 07bf cd7f 40bf aa5b 33bf abcc bdbd
000000b0: 37e8 063e d135 0e3f 3482 313f 7f2e 6dbf
000000c0: 0aa0 a33e eebb 48bf d036 18bf 1c26 48bf
000000d0: 96d4 2cbf e6f7 8fbf 4a76 69bf 98a2 26bf
000000e0: 907f 45bf 7d65 d73e 6e35 bbbe 8520 a9bf
000000f0: 1151 43bf 576e 2cbf cef4 fbbe 090f c73e
00000100: c173 183f 177c 2cbf ffee c93e e842 08bf
00000110: 6030 adbf 0cba 1fbf 9343 453e e1d1 acbf
00000120: 97b1 c2bf 912c 06bf e9cf 3c3e 7971 12bf
00000130: 41f1 0a3e 689a 2bbf f716 24bf aece 193f
00000140: 1fea a43e 102b 5dbf a07b 81bf 49c5 9bbf
00000150: 42c7 fa3d 50b8 1dbf dc33 7ebf fdbb 78bf
00000160: a4ac 8fbf c431 d3be 2961 34bf a535 00be
00000170: 3c4f f6bd dcd8 c23e cccb 0c3e bb2e 58bf
00000180: caa4 983e 596a 7bbf e995 50bf c59a 2dbf
00000190: 4b9e a5be 26c6 97bf 75ad 10bf 120e 84bf
000001a0: 9c24 5fbf 54b6 d43e 91c8 b1be a479 e4bf
000001b0: fa14 49bf 89bf 0cbf 47e5 2cbf e120 d93e
000001c0: 9916 073f 5b4d eabe a8d4 fd3e 3e57 64be
000001d0: 2f85 f9bf e5cb 9fbe 6bd2 073f b656 e9bf
000001e0: 7e41 f8bf 4dfd f5be b76d a83e 1325 cabe
000001f0: 73e9 53bd 6f5f 01bf 296c f3be 0f62 0e3f
00000200: 3c7b 353f 28df 7abf deae 55bf 7815 ddbf
00000210: 4773 593e 48d9 25bf 6348 89bf a5b6 1dbf
00000220: 1a42 67bf 8dc2 27bf 13ff 47bf d596 92bd
00000230: 7f1a da3d 54ef 183f 9909 013f d38a 8abf
00000240: df00 723e fa38 53bf 82f5 38bf 9004 58bf
00000250: d0d8 34bf 5c91 68bf c1e8 3dbf 108c 15bf
00000260: 6ad7 6fbf 7991 8c3e 907e d0be c74a a0bf
00000270: 8035 3cbf 41b5 37bf d143 bfbe ae30 863e
00000280: fa50 eb3e 64d1 48bf c2c2 1b3e 0943 a8be
00000290: fb3b a6bf ced8 1bbf 53f1 5ebd b743 9bbf
000002a0: 389b a7bf dc63 6fbf 5d56 153e 810f d1be
000002b0: 6e22 113e 4100 55bf a93a 2bbf 5cde 033f
000002c0: aa17 063f f34a 66bf 5ac7 78bf 3cc7 90bf
000002d0: 369c 173e 2f46 23bf 2947 73bf 4726 61bf
000002e0: 0bc1 4dbf 29b5 bebe 2e7e 66bf d591 263d
000002f0: d8f9 eb3c 439c b93e 04ab 433e 166f 6abf
00000300: b25f 11be 8327 1a3f 2922 f93e a0f5 1e3f
00000310: fedb 283f 735f 323f 11ae bc3e 027d ad3e
00000320: 1a24 823e fdc9 11be 2596 d33e 3475 513f
00000330: 5ffa 0c3f dfa2 983e 6701 7f3e e49c d5bc
00000340: f059 89bd f79c 7e3f 8bb0 3f3c 1570 3e3f
00000350: dabe 283f 81f2 363f 0bbb 1abd bd36 1e3f
00000360: f94c 113f fd75 753f 31df 30be 0a03 603f
00000370: 4551 0dbe a11d 303f 4ffc 1f3f c0c7 ffbd
00000380: 29a0 a2bc d58f 2d3f 9738 2f3f aecc 373f
00000390: 2408 9dbd 168e 1b3f 2c0f 253f 5b3f 333f
000003a0: 21c0 543f 5a41 b13e d17d 9b3e 11ff c03d
000003b0: faf4 0d3e fa1f f6bd d89e 72bd 1fc3 e23e
000003c0: 7745 e7bd 0307 053f bc9c ee3e 9d26 fb3e
000003d0: 39ac 243f 9ef9 333f 85d0 b03e ed89 ea3e
000003e0: 0bf6 713f b715 52bd cbe0 bd3e cec8 be3f
000003f0: 0518 263f 3c75 b23e 2b41 db3e 67ec 4dbd
0.4527653 -0.40483087 -0.6807696 -0.6297133 -0.26966676 -0.72237396 -0.6292418 -0.5956218
-0.84586793 0.4737787 -0.18575984 -1.9457079 -0.56529075 -0.5634904 -0.51355815 0.5378842
0.5412587 -0.44505718 0.600519 -0.2928462 -2.2639754 -0.41442662 0.40685335 -2.002729
-2.3777292 -0.3601607 0.14447361 -0.45839402 0.11466057 -0.3813722 -0.3275677 0.44171762
0.73291916 -0.5338135 -0.55612206 -1.8283906 0.45038518 -0.5056004 -0.80001616 -0.5906725
-0.5291836 -0.7519501 -0.70061743 -0.09267553 0.1317452 0.5555087 0.693393 -0.9264907
0.31958038 -0.7841176 -0.5945864 -0.7818315 -0.6751188 -1.1247528 -0.9119612 -0.6509185
-0.7714777 0.42069617 -0.365642 -1.3213049 -0.7629557 -0.67355865 -0.4921021 0.38878658
0.59551626 -0.67376846 0.39440152 -0.5322709 -1.3530388 -0.6239326 0.19264059 -1.350155
-1.5210446 -0.5241175 0.18438686 -0.57204396 0.13568594 -0.6703248 -0.6409754 0.60080993
0.3220987 -0.86393833 -1.0115852 -1.2169582 0.12245037 -0.61609364 -0.9929788 -0.9716185
-1.1224561 -0.41248906 -0.70460755 -0.12520464 -0.120268315 0.38056076 0.13749617 -0.84446305
0.29813224 -0.9820915 -0.81478745 -0.67814285 -0.3234733 -1.1857345 -0.56514674 -1.0316794
-0.87165236 0.41545355 -0.34723333 -1.7849622 -0.7854763 -0.5497976 -0.6753735 0.42407897
0.52768856 -0.45762143 0.49576306 -0.22298905 -1.949377 -0.31210247 0.5305545 -1.8229587
-1.9394987 -0.48044816 0.32896206 -0.3948141 -0.051736306 -0.50536245 -0.47543457 0.55618376
0.70891166 -0.9799676 -0.8346995 -1.7272177 0.21235381 -0.6478467 -1.0725216 -0.6160682
-0.9033524 -0.65531236 -0.7812359 -0.07157675 0.10649585 0.59740186 0.5040527 -1.0823616
0.23633145 -0.82508814 -0.72249615 -0.8438196 -0.7064333 -0.908468 -0.7418328 -0.58416843
-0.9368807 0.27454737 -0.4072156 -1.252282 -0.73519135 -0.71760947 -0.37356427 0.26209015
0.45960218 -0.78444505 0.15211013 -0.32863644 -1.2987055 -0.6087769 -0.054429363 -1.213004
-1.3094244 -0.9351175 0.14583726 -0.4083214 0.1417329 -0.8320351 -0.66886383 0.5151117
0.5237986 -0.89958113 -0.97179186 -1.1310802 0.14805683 -0.63778967 -0.95030457 -0.8794903
-0.80372685 -0.3724759 -0.90036285 0.04066642 0.028805658 0.3625203 0.19108206 -0.91575754
-0.14196661 0.6021654 0.48658875 0.62093544 0.6596068 0.69676894 0.36851552 0.33884436
0.25418168 -0.14237209 0.4132549 0.8181946 0.55069536 0.2981176 0.24902879 -0.026075788
-0.06706607 0.9945826 0.011699806 0.74389774 0.65916216 0.7146378 -0.037776034 0.61802274
0.56758076 0.9588316 -0.17272641 0.8750464 -0.13800533 0.6879521 0.6249437 -0.12489271
-0.019851761 0.67797595 0.68445724 0.7179669 -0.07667568 0.6076368 0.64476275 0.7001855
0.83105665 0.34620172 0.30369428 0.0942365 0.13862982 -0.12017818 -0.059233516 0.4428949
-0.11292546 0.51963824 0.46603954 0.49052897 0.6432529 0.7030276 0.34534088 0.45808354
0.94516057 -0.05129024 0.37085566 1.4905031 0.648804 0.34855068 0.42823157 -0.05027428

fc2.bias f4 [96]
00000000: c8a0 3d3f e322 143e 4844 e23e dd74 f83d
00000010: eca3 f03d bc2a ffbc b040 f93e cfcb f13d
00000020: 87e8 563d eb03 073f 87b9 2bbf 269f b53d
00000030: 1a4b c43d b980 453e 283d c63d 568e ef3d
00000040: 1325 8c3d 2f44 893e 3de1 c73d fc35 2f3e
00000050: 30b7 ccbe 8763 7abf 6bc5 0ebf 7b7c 333e
00000060: c29c 823d 9313 153e f103 453f 34fa d23e
00000070: 1268 df3d 4ae5 213e 28ea 2f3e a363 303e
00000080: b26a 4b3f b9ec 46be 6bed 5bbf e592 823c
00000090: 545e 293f 7387 92be c3ec 1a3f b31a 17bf
000000a0: 1bad f33e 1810 e03d 61a7 633e 416e 123e
000000b0: 81fc 923e c343 033e 446c e63d e45c 99bd
000000c0: 586c b43d f111 c93d a976 db3a afd4 023c
000000d0: ca15 803d 794f b4bf 142f 8bbe 46e8 8b3d
000000e0: 7ad0 bb3d 533a 733d c703 5b3e 1588 c13d
000000f0: 98ae 8f3c 52f7 c7be 2a66 a43e 4f82 6a3d
00000100: 1e6f 933d 008d 873d f7f7 2c3e b6ef 203e
00000110: 9aa7 a7bf 3bfe 2d3f 9a3d 963e 0ffd 483e
00000120: e08f 143f 23d0 213f db9a 3e3e 9989 3bbc
00000130: 617a 623e 08ea d33e fe39 c83e 23e1 7f3d
00000140: f9b2 2abe b355 c53e 86f5 193d ce40 f53d
00000150: 68a8 223e b154 953e 2aa2 4a3f 2925 9e3d
00000160: a73a 813c 035a 313f 7ac2 eabb fd20 3ebf
00000170: 5e57 133e 022d 553d 696a ca3c 70a6 3d3f
0.7407346 0.14466433 0.4419272 0.12131665 0.117500156 -0.031148307 0.48682165 0.118064515
0.05246785 0.52740353 -0.6707997 0.08868246 0.09584637 0.19287385 0.096796334 0.1169707
0.06843009 0.26809832 0.09759758 0.17110437 -0.3998351 -0.97808117 -0.55769986 0.17527954
0.063775554 0.14558248 0.7695914 0.41206515 0.10908522 0.15810123 0.17179167 0.17225508
0.7945968 -0.1942624 -0.85909146 0.015939185 0.6615956 -0.28618965 0.6051752 -0.59025115
0.47593006 0.1094057 0.22231819 0.14299871 0.2870827 0.12818818 0.11251119 -0.074884206
0.088097274 0.09817875 0.0016743738 0.007985278 0.06254156 -1.4086753 -0.27184355 0.06831412
0.09170623 0.059381794 0.2138816 0.09449784 0.017539307 -0.39055878 0.32109195 0.05725318
0.07198928 0.066186905 0.16891466 0.15716442 -1.3098023 0.6796605 0.29343873 0.19627784
0.58032036 0.63208216 0.1861376 -0.01144638 0.22116996 0.4138949 0.39106745 0.062470566
-0.16669835 0.38541946 0.037587665 0.11975251 0.15884554 0.29166177 0.7915369 0.077219315
0.015775038 0.6927797 -0.0071642967 -0.74269086 0.14388797 0.052044876 0.024708943 0.7408209

fc3.weight f4 [24, 96]
00000000: 7cdb b6be c06e 24bf eb87 27bf c74b 52bf
00000010: 0c17 17bd 0b34 e93c 0de2 25bf fe1f 843d
00000020: 6d22 6b3d b09b 1cbf ac7b 0f3e 7a78 8abc
00000030: 3720 2c3d 3bbb 56bd 7fd7 173d c91f 583d
00000040: 8209 c33c 858c 0c3c 7c91 4a3d f940 e9bb
00000050: 40b0 473e bebc 4a3e 746d 1b3e b69c 1ebf
00000060: 2122 88bf c038 7dbd 683c f2be 9cb7 16bf
00000070: 74e2 a03d 5a17 13bf 0ddb 01bf 48d8 43bf
00000080: 5255 edbd 2c20 d83d b25d 763e 9152 c73c
00000090: 50aa 0dbf 32a6 ab3d 231a 22bf c721 0a3e
000000a0: a9ec d5be d4a6 053c 3431 d2bd 98cc 313d
000000b0: b22a 28bf 45d8 17bc 8b97 6e3d a4f1 0bbc
000000c0: 3383 74bf 6a86 923c 94b1 dd3c acfe 4a3d
000000d0: f907 48bf 7c53 833f af2a dd3d c062 10bc
000000e0: 798f 8b3d f5c1 7ebb 22d1 8e3d 5907 47bf
000000f0: da0e 9f3d 3c5d 663e 56bd 33bf 5bc5 10bd
00000100: 3b62 8f3c a1bf fdbc 3083 d2bb e039 13bf
00000110: cfb0 203f be13 ffbe 0f3a 1d3b a6b5 27bf
00000120: c1f3 d9be e113 06bf 4285 34bf 255c acbd
00000130: be0e 05bf a67f f8be e078 0fbf d2ab 883d
00000140: 1ea6 bf3c ac9a 2ebf 1408 b73d de49 92bc
00000150: dc3a 44bd 30d1 46bf 0ade b0bd e38f a53d
00000160: def8 2f3d 1d3d 2abf 5478 2e3c 04bd 0a3e
00000170: abe3 563d 4001 7f3d 8e4f babb 1628 06bf
00000180: 219e 223d 3f63 a6be d9e6 57bd e1bb 91be
00000190: 1963 793e 2765 a33e 2ddd 3bbd 2cb8 d93d
000001a0: 5453 863e 0f2a 9fbd 108f 0f3f cafd 943e
000001b0: d6a9 663e 5994 223e 33e0 103e 257a 9e3d
000001c0: f2e7 bd3e b4de 473e 568e 143e 8e5e b73e
000001d0: f839 1b3e 09b8 313f 615c 153f 94aa 35be
000001e0: cc7d f9be 9cbd fc3d a1a5 bebd 2c36 00be
000001f0: 3695 893e 39bb 87be b2e0 dabc 1e40 7cbe
00000200: 67d2 67bd 04c3 9e3e 203f bd3e 3b83 8f3e
00000210: 9c66 6cbc af5f c83e a438 27bd c109 cc3e
00000220: 2ca8 81bd 3485 b13d 72ed e33d 0b8f 6d3e
00000230: 1288 6dbe 9376 793e f8cf 4e3e 26bf b33e
00000240: 8cf1 c1be e400 c03e 3787 953e 7980 953e
00000250: 970f 94be 5b88 be3e b047 383e 0601 923e
00000260: b42f c23e 565a 8b3e 75fa 4bbd afd4 17bf
00000270: d6f4 c73d 1d6b 5a3e 7f1f 2fbe f8d8 d23e
00000280: a624 403e 274a 3b3e 72e9 bf3e e398 59be
00000290: 9e5b 213f 80c5 4abd 93ce 103e 583b 1dbe
000002a0: 5ee5 3dbd d4d9 6dbc aba3 3cbe 5dea a73e
000002b0: e091 56be b980 67be d7af 44be 738f 243e
000002c0: 43ae e23c 6439 e6bd ca9e 873e b24c 3d3e
000002d0: fe63 e83d beaf 36be d794 23be 6861 a53e
000002e0: 5ef4 633e 518f 3abd 726f ac3e a927 093f
000002f0: 3d82 973e 4d38 1f3e 62fb 563e 6145 01bd
00000300: bc8b 10bd e91c 0abe c065 f1bb b609 81be
00000310: 8d49 3d3f f92b 0b3f 12ae 20bd c42d 133f
00000320: da83 223f 1650 dfbd d8cc a53e 6f03 053f
00000330: a8ea 233f c7dd 133f af5f ea3e d1f5 da3e
00000340: f3b6 453f 531c 953e f392 df3d 5a40 0c3f
00000350: ff08 a53e 05a8 c83e 99df 2a3f 3870 46bd
00000360: 07d9 6fbe 47d5 1c3f f3fc a9bd a8f3 b2bd
00000370: f1a6 203f 4b47 cdbd ea3b 92bd 0840 3dbe
00000380: e0b2 12be c1ea ec3e 7d2e 9a3e 2afe f43e
00000390: 7ef9 f1bd 0d4c b63e 474f 9fbd aa9c 993e
000003a0: d567 c0bd e252 013f f036 913d a88b 153f
000003b0: 7c67 b6bd c542 193f 79bf d83e 4060 e13e
000003c0: ae47 3dbe 7dd6 9d3e b506 a73e c199 e83e
000003d0: 0852 31be b9a4 ea3c b0d5 d0bd 9f71 1b3f
000003e0: 68ca 303f 4804 3a3f b809 c23e d848 a5be
000003f0: f7fb 163f d3a4 6a3e 4750 3c3b f872 003f
-0.35714328 -0.6423149 -0.6544177 -0.8214688 -0.036887214 0.028467199 -0.6479805 0.064514145
0.057405878 -0.6117506 0.14012021 -0.01690315 0.04202291 -0.05242465 0.037070747 0.052764688
0.023808245 0.008578424 0.04945515 -0.007118341 0.19500828 0.19798562 0.15178472 -0.6195787
-1.0635415 -0.0618217 -0.4731171 -0.58873916 0.078556925 -0.57457507 -0.5072487 -0.76501894
-0.11588539 0.10553011 0.2405918 0.024331363 -0.55338 0.083813086 -0.6332113 0.13489448
-0.4178212 0.008157451 -0.10263291 0.043408006 -0.6569015 -0.009267871 0.05824999 -0.008541498
-0.95512694 0.01788636 0.027062215 0.04955928 -0.78137165 1.0259852 0.10799157 -0.008812606
0.068144746 -0.0038872932 0.06973483 -0.77745587 0.077665046 0.22496504 -0.7021078 -0.035344463
0.017502895 -0.030975165 -0.00642433 -0.57510185 0.6276979 -0.4981975 0.0023990904 -0.6551155
-0.42568782 -0.5237408 -0.70515835 -0.08416013 -0.5197562 -0.48534888 -0.56043816 0.06673397
0.02339464 -0.6820476 0.08937088 -0.017857488 -0.047907695 -0.77662945 -0.086361006 0.08084085
0.042961948 -0.664995 0.010648806 0.13548666 0.052463215 0.06225705 -0.005685753 -0.52404916
0.039701585 -0.32497594 -0.052710388 -0.28463653 0.24354209 0.3191311 -0.045865227 0.10630831
0.2623545 -0.07771694 0.5607767 0.29099876 0.22525725 0.15876903 0.14148025 0.07738141
0.37091023 0.19518548 0.14507422 0.35814327 0.15158832 0.6942144 0.58344084 -0.17740852
-0.48728788 0.123408526 -0.09308935 -0.12520665 0.2687165 -0.26510027 -0.026718471 -0.24633834
-0.05659714 0.3100816 0.36962223 0.28029808 -0.014428761 0.391355 -0.0408255 0.39851192
-0.06330904 0.086679846 0.111292735 0.23199098 -0.23196438 0.24361639 0.20196521 0.35106772
-0.37879598 0.3750068 0.29204723 0.2919958 -0.28918144 0.37213406 0.17996097 0.28516406
0.3792702 0.27217358 -0.0497994 -0.59308904 0.097634956 0.21329923 -0.17101859 0.4118116
0.1876398 0.18290006 0.37482792 -0.21249728 0.6303042 -0.049504757 0.14141302 -0.15354669
-0.04636132 -0.014517266 -0.1842181 0.32795992 -0.20954084 -0.22607698 -0.19207703 0.16070347
0.027670985 -0.11241415 0.26488334 0.18486288 0.11347197 -0.17840478 -0.15974747 0.32300878
0.22261187 -0.045546833 0.33678776 0.5357614 0.2959155 0.15548821 0.20994332 -0.031560306
-0.03528951 -0.13487591 -0.007366866 -0.2520272 0.73940355 0.5436397 -0.039228506 0.5749171
0.6348244 -0.10903947 0.32382846 0.51958364 0.6402993 0.5776028 0.45776126 0.42765668
0.77232283 0.29123172 0.109167 0.5478569 0.32233426 0.3919069 0.6674743 -0.048446864
-0.23422633 0.61262935 -0.08300199 -0.0873788 0.6275473 -0.10023364 -0.07140334 -0.18481457
-0.14326048 0.46272853 0.30113593 0.47850162 -0.11815165 0.35604897 -0.07778793 0.30002338
-0.093948044 0.50517094 0.070905566 0.58416224 -0.08906457 0.5986751 0.42333582 0.44018745
-0.18484375 0.30827704 0.32622305 0.45429805 -0.17316449 0.028642999 -0.10197008 0.6072025
0.6905885 0.7266278 0.3789804 -0.32282138 0.5897822 0.22914438 0.0028734372 0.5017543

fc3.bias f4 [24]
00000000: d636 e9bf b7d7 24bf e654 31bf 0d50 84bf
00000010: 3d72 c1bf 57a1 b6bf b342 3cbf ed15 7cbf
00000020: 3796 b4bf 2573 33bf 35e1 5bbf 9db5 59bf
00000030: bdbb 45bf df8c 66bf 5155 8cbf 54b0 b4bf
00000040: f4ba 5abf 64af dcbf 43b6 b9bf abee d3bf
00000050: 0bc4 f0bf c89e 55bf bf77 e1bf 5a9a 3ebf
-1.821986 -0.64391655 -0.6927017 -1.033693 -1.5112988 -1.4267987 -0.73539275 -0.98470956
-1.4108342 -0.7009757 -0.85890514 -0.85042745 -0.7723959 -0.900587 -1.0963537 -1.4116311
-0.8544152 -1.7241025 -1.4508747 -1.6557211 -1.8809828 -0.83445406 -1.7614669 -0.7445427

fc4.weight f4 [2, 24]
00000000: da60 7ebf f19a cc3c 3717 223d 985f b2be
00000010: 602f 49bf dad2 4dbf 428e a03d d3d5 47be
00000020: 8896 3fbf 7a1d 8c3f c943 b33b 4d03 5fbd
00000030: d3ce 423d b46d 1ebf ce15 a4be bdb9 40bf
00000040: 3f2b 60bd 1a5e 78bf 3192 38bf c3c3 5abf
00000050: 9598 89bf 75e2 743d e3cd 5cbf 18e8 9e3f
00000060: 4fd8 6040 3de9 2a3f 9c5f fc3e 4591 0740
00000070: 48fa 3340 085b 2e40 a4a5 ae3e 4274 e93f
00000080: 895c 3040 3ba7 86bf 8f66 083f 6e42 703f
00000090: 6cf6 d43e 85f0 ee3f 9ec5 f23f a471 1e40
000000a0: 234e 533f 7347 6040 20e6 3340 008b 4b40
000000b0: 1aea 6240 6a92 f73e 057e 6340 f076 96bf
-0.99366534 0.024976226 0.03957292 -0.34838557 -0.78587914 -0.8039986 0.078396335 -0.19515161
-0.7483907 1.0946496 0.005470727 -0.054446507 0.047560524 -0.61886144 -0.32047886 -0.75283414
-0.054728743 -0.9701859 -0.7209807 -0.8545496 -1.0749689 0.05978628 -0.8625166 1.2414579
3.5132024 0.66762143 0.49291694 2.1182415 2.812151 2.724306 0.3411075 1.8238604
2.755648 -1.0519785 0.5328149 0.93851364 0.41594255 1.8667151 1.8966558 2.475686
0.825411 3.504361 2.8109207 3.180359 3.5455384 0.48353893 3.5545666 -1.1755047

fc4.bias f4 [2]
00000000: 24b9 f43f dafd 2fbf
1.9119 -0.6874672

fc5.weight f4 [1, 2]
00000000: 85a6 5f40 e690 40c0
3.4945385 -3.008844
