T3-2024/Federated_Learning/Improved_FL/SRC/FL_parameters/client2.pth (torch, 34104 bytes, 9 tensors)

fc1.weight f4 [48, 12]
0.08121784 0.017614521 0.5756303 -0.12677836 0.115795225 0.18923728 0.21071312 0.1305475
-0.30958685 0.042906094 0.29866785 0.093984805 -0.04244448 -0.3847328 -0.4856991 0.04527195
0.39793852 -0.45471916 -0.36993608 0.07859622 -0.09146068 0.11271862 -0.034964766 0.062735915
-0.040322352 -0.015147133 -0.8718945 0.054672275 0.3076635 -0.49976996 0.24794032 0.17040883
-0.0025074752 0.17199083 -0.081949346 -0.12537287 -0.16062422 -0.050469484 -0.81940925 -0.0016778978
-0.017458623 -0.2237732 -0.093616754 -0.0618887 -0.0347226 0.06312631 -0.016523771 -0.0007847639
-0.076494016 0.04787787 -0.8685934 0.072246976 -0.028860195 -0.26824144 0.07777612 -0.06810718
0.07947377 0.07656037 -0.060381453 0.0003692418 0.09009603 0.14607166 -0.35153013 0.069905676
-0.2418681 0.3511753 -0.85807 -0.09527322 0.080136076 0.10894647 -0.2862165 0.22055757
0.0010332842 0.1523821 -0.83459765 -0.0040192334 0.03466762 -0.30267534 0.15179841 -0.003040339
-0.023627562 0.04635534 -0.07515961 -0.065812215 0.31820375 0.15413393 -0.06702356 -0.06874795
-0.012944272 -0.5376378 -0.6277389 0.07561978 -0.0868622 0.04745273 -0.12844506 -0.022607148
-0.013598293 0.029968316 -1.0080806 0.08413304 0.04533041 -0.02671615 -0.08191521 0.04407101
0.026292194 0.04162529 -0.09833358 0.030622799 0.11343257 -0.0006250052 0.68597305 0.11203355
0.12456048 0.03714493 0.1894766 0.06477286 0.00095117366 0.0418196 0.12532878 -0.03853153
0.084306814 -0.30615103 -0.70440316 -0.07009503 0.03795538 -0.41426262 0.1253163 0.008415556
0.001994267 0.045937628 0.0070552034 -0.04881835 0.00028186443 0.04977071 0.11803596 -0.07313856
-0.71230745 0.14950109 -1.2583872 0.08219483 0.05621376 0.11990432 -0.049412224 0.019306386
0.015954148 0.010156892 -0.20407377 0.014229006 -0.041338194 -0.47710276 -0.50848055 0.0475375
-0.06892041 -0.017741207 -0.17311959 -0.02530107 -0.00041140188 0.21826036 -0.9127847 0.035717484
-0.016167853 -0.48265836 0.3881097 0.009860691 0.032278437 0.06842006 -0.04424512 -0.0068126596
-0.041476935 0.094287224 -0.8661862 0.070039354 -0.11203945 -0.11518049 0.27166632 -0.008621919
0.08440834 0.060822643 0.021195633 0.1478042 0.0401546 0.08802183 0.58865535 0.1351283
0.16396527 0.14245173 0.14958295 0.10248292 0.05854223 0.062288456 0.050823208 0.009129402
0.12811415 -0.008833358 0.696022 0.09486182 0.16947019 0.12177612 0.20135805 0.032013234
0.02874442 0.067986414 0.10150939 0.020493643 -0.1445318 0.04783714 -0.81387174 -0.014541138
0.00056445535 -0.3118254 -0.10582433 0.016381707 -0.057292864 0.08935203 -0.14306515 0.014933282
0.2119751 -0.1470376 0.622108 0.03405365 0.121590845 0.08956136 0.19481407 -1.4116077
-0.09012032 0.023233015 0.1437965 -0.018267017 0.09350426 -0.04604805 -0.9686382 0.06435156
0.040659107 -0.26495403 0.15279847 -0.04274174 -0.031269606 0.07865362 -0.1356165 -0.03426389
-0.013277464 0.06705005 0.19127929 -0.02452184 -0.7507309 0.11257158 -1.2495073 0.09503406
0.09282929 0.09836463 -0.10171406 -0.0018821362 0.075251795 -0.059168763 -0.9561856 0.056703392
00000000: 8a55 a63d 544c 903c 825c 133f 30d2 01be
00000010: 0c26 ed3d 6bc7 413e 2ec5 573e 3eae 053e
00000020: 2b82 9ebe 4dbe 2f3d feea 983e 1b7b c03d
00000030: 43da 2dbd b3fb c4be 8dad f8be 156f 393d
00000040: 99be cb3e f3d0 e8be 4368 bdbe 0ef7 a03d
00000050: bd4f bbbd 05d9 e63d 3737 0fbd b07b 803d
00000060: 0d29 25bd ae2b 78bc 7a34 5fbf 09f0 5f3d
00000070: 1286 9d3e d9e1 ffbe 11e4 7d3e a77f 2e3e
00000080: 7454 24bb 5d1e 303e 0fd5 a7bd bf61 00be
00000090: ad7a 24be 17b9 4ebd cec4 51bf e8ec dbba
000000a0: 6305 8fbc cd24 65be 24ba bfbd 017f 7dbd
000000b0: 4939 0ebd 5e48 813d dc5c 87bc 9db8 4dba
000000c0: e5a8 9cbd 961b 443d 235c 5ebf 39f6 933d
000000d0: 376c ecbc f156 89be 1649 9f3d c77b 8bbd
000000e0: 25c3 a23d afcb 9c3d 8b52 77bd cc96 c139
000000f0: 4484 b83d cf93 153e c2fb b3be b52a 8f3d
00000100: 45ac 77be 40cd b33e 7aaa 5bbf 9b1e c3bd
00000110: 621e a43d 541f df3d f88a 92be d8d9 613e
00000120: 446f 873a 0e0a 1c3e 31a8 55bf c6b3 83bb
00000130: a2ff 0d3d 43f8 9abe 0b71 1b3e 6d40 47bb
00000140: 978e c1bc 19df 3d3d 48ed 99bd 8ec8 86bd
00000150: 9aeb a23e 49d5 1d3e a643 89bd bacb 8cbd
00000160: 3614 54bc a2a2 09bf 7fb3 20bf 8bde 9a3d
00000170: cfe4 b1bd cb5d 423d 1a87 03be a032 b9bc
00000180: 60cb 5ebc 1d80 f53c c908 81bf f14d ac3d
00000190: 61ac 393d d4db dabc 29c3 a7bd ce83 343d
000001a0: ba62 d73c 487f 2a3d 1e63 c9bd aadc fa3c
000001b0: 564f e83d 64d7 23ba ee9b 2f3f d971 e53d
000001c0: 9119 ff3d 4825 183d 2706 423e a2a7 843d
000001d0: 2f58 793a 074b 2b3d 3056 003e 3dd3 1dbd
000001e0: 0da9 ac3d d4bf 9cbe c453 34bf fc8d 8fbd
000001f0: 1a77 1b3d 3b1a d4be eb52 003e 66e1 093c
00000200: 40b2 023b 1829 3c3d 562f e73b c0f5 47bd
00000210: 34c7 9339 5fdc 4b3d d6bc f13d abc9 95bd
00000220: c859 36bf d016 193e d512 a1bf c355 a83d
00000230: 6640 663d 6590 f53d 7964 4abd 6d28 9e3c
00000240: 46b2 823c 1869 263c b7f8 50be c720 693c
00000250: 3d52 29bd d046 f4be c82b 02bf aeb6 423d
00000260: 2526 8dbd 0256 91bc 4346 31be 3144 cfbc
00000270: 6db1 d7b9 a57f 5f3e 42ac 69bf 7f4c 123d
00000280: 7272 84bc ff1e f7be 51b6 c63e bc8e 213c
00000290: 6536 043d d11f 8c3d 5f3a 35bd bb3c dfbb
000002a0: b8e3 29bd a919 c13d 61be 5dbf cb70 8f3d
000002b0: f074 e5bd c0e3 ebbd d917 8b3e f342 0dbc
000002c0: 48de ac3d 2a21 793d 77a2 ad3c fc59 173e
000002d0: 2679 243d ca44 b43d 1eb2 163f 135f 0a3e
000002e0: 83e6 273e dede 113e 462c 193e 91e2 d13d
000002f0: fac9 6f3d 2e22 7f3d ff2b 503d 7d93 153c
00000300: 5b30 033e cab9 10bc 7f2e 323f ea46 c23d
00000310: 9889 2d3e c265 f93d ce30 4e3e 4f20 033d
00000320: 6b79 eb3c 763c 8b3d 28e4 cf3d 49e2 a73c
00000330: 2500 14be e0f0 433d e659 50bf f43d 6ebc
00000340: f5f7 133a 94a7 9fbe 6dba d8bd ee32 863c
00000350: ecab 6abd 32fe b63d ac7f 12be b9aa 743c
00000360: 0010 593e 0691 16be 7842 1f3f d77b 0b3d
00000370: 9f04 f93d f26b b73d 577d 473e 90af b4bf
00000380: 0191 b8bd 2a53 be3c 643f 133e b6a4 95bc
00000390: 297f bf3d e19c 3cbd acf8 77bf c0ca 833d
000003a0: 2a8a 263d 0ea8 87be 3477 1c3e f611 2fbd
000003b0: 8f14 00bd 2615 a13d 0ddf 0abe 4b58 0cbd
000003c0: b889 59bc 8951 893d b8de 433e 07e2 c8bc
000003d0: e62f 40bf ee8b e63d dbef 9fbf 38a1 c23d
000003e0: 481d be3d 6573 c93d 764f d0bd 03b2 f6ba
000003f0: 9d1d 9a3d f25a 72bd 94c8 74bf d141 683d

fc1.bias f4 [48]
-0.5902232 0.18740132 -0.0009147699 0.5862522 0.45249948 0.10056128 0.27349684 -0.11989287
0.44972828 -0.66116565 0.3571607 0.27268702 0.4200597 0.098829605 -0.06447257 -0.6287688
-0.71442485 0.58698124 -0.41263273 0.43089092 0.3040703 0.30966532 -0.51168835 0.28962094
0.25592056 0.6498409 -0.3776873 0.45586348 -0.25017813 0.57634914 0.529591 -0.656324
-0.74630725 0.31738022 0.19967504 0.22512862 -0.3773173 0.56140625 0.13968757 0.32974467
0.35331562 0.052719507 0.5318079 -0.18969257 -0.20087661 -0.5457809 -0.59050596 0.40239754
00000000: de18 17bf 22e6 3f3e 2bcd 6fba a014 163f
00000010: 03ae e73e 13f3 cd3d c707 8c3e 658a f5bd
00000020: c942 e63e 2742 29bf c4dd b63e a29d 8b3e
00000030: 1112 d73e 2d67 ca3d 320a 84bd fef6 20bf
00000040: 8ce4 36bf 6744 163f 9944 d3be bc9d dc3e
00000050: 1aaf 9b3e 748c 9e3e 02fe 02bf 3249 943e
00000060: 0508 833e f95b 263f 3b60 c1be f066 e93e
00000070: 5917 80be 9e8b 133f 4793 073f da04 28bf
00000080: fe0d 3fbf a97f a23e 9d77 4c3e 1e88 663e
00000090: bc2f c1be 52b8 0f3f 420a 0f3e 4bd4 a83e
000000a0: c9e5 b43e 69f0 573d 9024 083f c53e 42be
000000b0: 99b2 4dbe 4cb8 0bbf 662b 17bf 0d07 ce3e

fc2.weight f4 [96, 48]
0.43468946 -0.41250494 -0.69165057 -0.49044588 -0.39682102 -0.73865765 -0.7781271 -0.6088666
-0.77955633 0.5139311 -0.23906733 -2.0001068 -0.4425984 -0.51901555 -0.6079971 0.5853855
0.5943412 -0.51126933 0.4577095 -0.37097976 -2.237848 -0.34368408 0.51828957 -2.0626767
-2.5280468 -0.44228387 0.05802646 -0.35707134 0.11466057 -0.26441237 -0.32539457 0.3127617
0.680207 -0.45301247 -0.54107046 -1.927955 0.48291984 -0.50732523 -0.68222344 -0.5827395
-0.42386156 -0.67149115 -0.741194 -0.09267553 0.1317452 0.54096967 0.67437005 -0.80902064
0.18927833 -0.7472266 -0.7125839 -0.78715277 -0.56865865 -1.2049901 -0.970284 -0.7219904
-0.6532215 0.33262554 -0.42075896 -1.3795582 -0.84824455 -0.74751633 -0.41038138 0.40510568
0.5553453 -0.4595871 0.297905 -0.6539862 -1.3881727 -0.6413239 0.19653659 -1.3240181
-1.5776606 -0.5166993 0.18087383 -0.4602665 0.13568594 -0.7529929 -0.8660349 0.6442791
0.3545768 -0.97777736 -1.012441 -1.2403452 0.11042044 -0.62939477 -1.0609859 -0.9806982
-1.0871961 -0.38887352 -0.76146203 -0.12520464 -0.120268315 0.30214173 0.06903451 -0.8264832
0.23016807 -0.83788216 -0.8852107 -0.5344872 -0.33570382 -1.1633003 -0.71342456 -1.1183337
-0.79444087 0.41858646 -0.36689472 -1.8352585 -0.76594126 -0.48247713 -0.77618873 0.3182979
0.47116166 -0.5044716 0.4500276 -0.39918032 -1.9715391 -0.39780274 0.48633447 -1.8802205
-1.9895917 -0.42918757 0.13065884 -0.37067264 -0.051736306 -0.54012406 -0.52496827 0.56305087
0.59220505 -0.84949684 -0.76812404 -1.7759857 0.22732703 -0.64576733 -1.0750098 -0.58972204
-0.8995623 -0.6753291 -0.85329056 -0.07157675 0.10649585 0.5311582 0.3570495 -1.0724326
0.13369372 -0.6882915 -0.70032763 -0.8287478 -0.56476265 -0.9782722 -0.77220684 -0.63663256
-0.802519 0.2519197 -0.4153903 -1.234805 -0.8567175 -0.8166271 -0.23735146 0.3196952
0.44150043 -0.6681309 0.11649705 -0.45604464 -1.2125208 -0.6048966 -0.044291098 -1.268949
-1.3369789 -0.8832561 0.18580179 -0.36908433 0.1417329 -0.86750335 -0.7819927 0.5271918
0.58556986 -0.96436155 -1.0346891 -1.1192605 0.052274894 -0.6833139 -1.1397957 -0.8141771
-0.8848768 -0.392192 -1.0215341 0.04066642 0.028805658 0.2918529 0.11601113 -0.9610606
-0.049085654 0.61237866 0.48805308 0.6679272 0.60477 0.79202104 0.33083606 0.38505206
0.21857563 0.009556637 0.48331884 0.84884423 0.7207404 0.38073123 0.12005917 -0.07605069
-0.05239211 0.9322997 0.012234171 0.7290492 0.6781192 0.71159005 0.019794041 0.7035389
0.6029848 1.0325394 0.005756444 0.83016026 -0.13800533 0.7431318 0.5737526 -0.027721623
-0.0032541212 0.6620106 0.75960016 0.7930575 -0.086296916 0.7065676 0.7695092 0.779963
0.8706063 0.4590144 0.3438985 0.0942365 0.13862982 -0.026791714 -0.08963787 0.49042243
0.035164278 0.4664592 0.5684065 0.55186516 0.7285171 0.7048708 0.3986497 0.532456
0.89784074 0.032900486 0.34886244 1.5528651 0.7321078 0.48649827 0.47533283 -0.0842012
00000000: 9e8f de3e d933 d3be 0310 31bf b91b fbbe
00000010: 202c cbbe ab18 3dbf 5633 47bf aede 1bbf
00000020: 0191 47bf fd90 033f 11ce 74be c001 00c0
00000030: 429c e2be 34de 04bf b3a5 1bbf d3db 153f
00000040: bf26 183f 8ce2 02bf e658 ea3e 0ff1 bdbe
00000050: e738 0fc0 5cf7 afbe a0ae 043f e502 04c0
00000060: 85cb 21c0 0873 e2be 27ad 6d3d 0ed2 b6be
00000070: 29d3 ea3d 0f61 87be 1e9a a6be 4d22 a03e
00000080: 0c22 2e3f 40f1 e7be 9883 0abf 3bc7 f6bf
00000090: 4541 f73e 11e0 01bf 32a6 2ebf 6a2e 15bf
000000a0: 6204 d9be d8e6 2bbf e4be 3dbf abcc bdbd
000000b0: 37e8 063e fd7c 0a3f 84a3 2c3f fa1b 4fbf
000000c0: 2ed2 413e 3e4a 3fbf e66b 36bf d882 49bf
000000d0: 9d93 11bf 1e3d 9abf 8864 78bf 5dd4 38bf
000000e0: 8639 27bf e54d aa3e b86d d7be 5d95 b0bf
000000f0: 8e26 59bf 3b5d 3fbf 821d d2be 036a cf3e
00000100: 1c2b 0e3f 004f ebbe 0187 983e a46b 27bf
00000110: a5af b1bf ce2d 24bf e340 493e 6d79 a9bf
00000120: c8f0 c9bf 6846 04bf fd36 393e 0da8 ebbe
00000130: 41f1 0a3e 25c4 40bf 77b4 5dbf 7aef 243f
00000140: 178b b53e 9e4f 7abf ab97 81bf a2c3 9ebf
00000150: 1d24 e23d 0420 21bf 63ce 87bf 0a0f 7bbf
00000160: 3e29 8bbf 6e1a c7be 2def 42bf a535 00be
00000170: 3c4f f6bd 52b2 9a3e f761 8d3d 6794 53bf
00000180: 2eb1 6b3e 727f 56bf 2b9d 62bf 27d4 08bf
00000190: 5fe1 abbe 06e7 94bf fea2 36bf 8f25 8fbf
000001a0: 7a60 4bbf f750 d63e a0d9 bbbe c0e9 eabf
000001b0: ba14 44bf 3e07 f7be 4eb4 46bf f1f7 a23e
000001c0: 1a3c f13e 0d25 01bf 056a e63e 5d61 ccbe
000001d0: 655b fcbf cdac cbbe d500 f93e 11ab f0bf
000001e0: f1aa febf 79be dbbe 6ecb 053e cec8 bdbe
000001f0: 73e9 53bd 9245 0abf 5264 06bf 1a24 103f
00000200: c09a 173f a078 59bf c7a3 44bf 8053 e3bf
00000210: 6bc8 683e 0251 25bf ec99 89bf 06f8 16bf
00000220: b749 66bf 5ee2 2cbf 4071 5abf d596 92bd
00000230: 7f1a da3d fcf9 073f 31cf b63e 7945 89bf
00000240: 02e7 083e df33 30bf ac48 33bf d128 54bf
00000250: 4994 10bf 0c70 7abf 59af 45bf 5afa 22bf
00000260: e371 4dbf 9efb 803e 0aae d4be 170e 9ebf
00000270: d751 5bbf 790e 51bf 430c 73be 17af a33e
00000280: 580c e23e a00a 2bbf 0196 ee3d af7e e9be
00000290: e233 9bbf 81da 1abf 956a 35bd ec6c a2bf
000002a0: 2022 abbf 121d 62bf d342 3e3e 9ff8 bcbe
000002b0: 6e22 113e b314 5ebf ac30 48bf 0bf6 063f
000002c0: e8e7 153f 66e0 76bf b170 84bf ee43 8fbf
000002d0: 331e 563d a9ed 2ebf d3e4 91bf e96d 50bf
000002e0: 4987 62bf 64cd c8be a1c1 82bf d591 263d
000002f0: d8f9 eb3c be6d 953e 3e97 ed3d 1108 76bf
00000300: 0a0e 49bd d9c4 1c3f 18e2 f93e 47fd 2a3f
00000310: 35d2 1a3f e4c1 4a3f 5863 a93e 8b25 c53e
00000320: 4ad2 5f3e 7193 1c3c 9175 f73e db4d 593f
00000330: 7182 383f 34ef c23e 95e1 f53d 77c0 9bbd
00000340: 1c99 56bd 31ab 6e3f d571 483c f8a2 3a3f
00000350: 3899 2d3f c42a 363f 1d27 a23c 201b 343f
00000360: 365d 1a3f 402a 843f 8da0 bc3b 6285 543f
00000370: 4551 0dbe e33d 3e3f 73e1 123f 7518 e3bc
00000380: 1843 55bb 8779 293f 2875 423f d105 4b3f
00000390: 70bc b0bd 9de1 343f 8efe 443f a8ab 473f
000003a0: 0ee0 5e3f ef03 eb3e 7713 b03e 11ff c03d
000003b0: faf4 0d3e 4c7a dbbc 0f94 b7bd a618 fb3e
000003c0: 6b08 103d bed3 ee3e 1783 113f 0947 0d3f
000003d0: 1980 3a3f 6a72 343f d01b cc3e 094f 083f
000003e0: e4d8 653f a9c2 063d 199e b23e 49c4 c63f
000003f0: 6b6b 3b3f 4d16 f93e d35e f33e ae71 acbd

fc2.bias f4 [96]
0.7479765 0.19700134 0.36275634 0.198323 0.15398854 0.035416856 0.5068821 0.1055396
0.12979802 0.45632997 -0.6763301 0.06583927 0.015446418 0.22496872 0.080661096 0.07631022
-0.0058457786 0.25454426 0.06276966 0.08352779 -0.34120557 -1.0873996 -0.48692045 0.2150196
0.08814266 0.06725941 0.7539811 0.45070288 0.002675949 0.238597 0.36978266 0.23912928
0.8572489 -0.17677276 -0.92196655 0.042416077 0.6773694 -0.25291744 0.55648816 -0.5700743
0.4592246 0.094069295 0.2598954 0.122732505 0.30865315 0.03851073 0.15806675 -0.11504853
0.092041425 0.056841355 0.017754953 0.025957009 0.08165929 -1.4973307 -0.093361124 0.007638096
0.07656664 0.055600736 0.099761054 0.055595513 0.11646941 -0.40311667 0.35136667 0.04775559
0.07513363 0.095961414 0.05180789 0.2857332 -1.4433769 0.68969935 0.21689679 0.24565439
0.5787642 0.65650815 0.33514652 0.018837564 0.26773867 0.45442036 0.45755473 0.102849014
-0.1129348 0.38889396 0.10470351 0.032913312 0.16676657 0.3316748 0.85194445 0.06273912
0.10956671 0.6503886 0.07948234 -0.7042776 0.12794794 0.058098707 0.050454058 0.73028964
00000000: 637b 3f3f b8ba 493e 33bb b93e 2f15 4b3e
00000010: 2caf 1d3e 4411 113d 06c3 013f 2525 d83d
00000020: c6e9 043e 15a4 e93e f823 2dbf bdd6 863d
00000030: f912 7d3c 335e 663e a531 a53d 8848 9c3d
00000040: f28d bfbb a053 823e 618d 803d 9e10 ab3d
00000050: 7fb2 aebe e92f 8bbf a34d f9be 192e 5c3e
00000060: 2484 b43d 4dbf 893d e804 413f 87c2 e63e
00000070: f95e 2f3b c652 743e 2754 bd3e 4ede 743e
00000080: aa74 5b3f eb03 35be 0006 6cbf 7bbc 2d3d
00000090: 1568 2d3f 657e 81be 0276 0e3f 64f0 11bf
000000a0: 7d1f eb3e 67a7 c03d 0311 853e 2e5b fb3d
000000b0: c907 9e3e 6dbd 1d3d 40dc 213e 909e ebbd
000000c0: 3780 bc3d 7bd2 683d d672 913c cba3 d43c
000000d0: fc3c a73d 88a8 bfbf 1e34 bfbd fe48 fa3b
000000e0: f8ce 9c3d 99bd 633d 864f cc3d 1fb8 633d
000000f0: 8487 ee3d 4f65 cebe 55e6 b33e 5e9b 433d
00000100: a9df 993d 6b87 c43d 8334 543d 9f4b 923e
00000110: 93c0 b8bf 2390 303f 311a 5e3e d38c 7b3e
00000120: e429 143f eb10 283f 5398 ab3e 3c51 9a3c
00000130: 0b15 893e c9a9 e83e 9d44 ea3e 81a2 d23d
00000140: 5c4a e7bd 1c1d c73e cb6e d63d 1cd0 063d
00000150: dbc4 2a3e 48d1 a93e 0819 5a3f 5e7d 803d
00000160: 8364 e03d de7f 263f a3c7 a23d 894b 34bf
00000170: c904 033e e9f8 6d3d eaa8 4e3d 43f4 3a3f

fc3.weight f4 [24, 96]
-0.46310803 -0.75484693 -0.611472 -0.8681853 -0.033767823 -0.05654382 -0.66288537 0.13512327
-0.037099976 -0.62315696 0.277541 -0.11908061 -0.054232873 -0.009315258 -0.018909441 0.104007356
-0.024966193 -0.06369572 0.025195131 -0.009408331 0.08666658 0.2677384 0.11258503 -0.7736462
-1.0950102 -0.021608505 -0.5060138 -0.6227905 -0.016805088 -0.5948994 -0.4779884 -0.813613
-0.16179477 0.11496389 0.19539402 -0.016341716 -0.53218824 0.08914551 -0.5775078 0.14150368
-0.25410566 -0.01805055 -0.22462077 0.07044056 -0.7171764 0.014551133 -0.002258289 -0.055137206
-0.9046994 -0.012885727 0.0008331899 0.006101451 -0.8825062 0.9739196 0.123491295 -0.016977636
0.057244625 -0.0061914395 0.0898764 -0.8005084 0.0125745125 0.14426732 -0.6709481 -0.062599726
-0.015964612 0.0013054818 0.0036952177 -0.64595145 0.5206768 -0.5317283 0.022884773 -0.8063598
-0.57633114 -0.49906918 -0.70396054 -0.06888819 -0.57103 -0.5123992 -0.69952935 0.005169646
0.014681326 -0.66738474 0.040836517 -0.015238855 -0.037898157 -0.8149944 -0.141631 -0.01721289
-0.033718713 -0.7331256 -0.02812072 0.17847562 0.018670661 0.013146928 -0.035827145 -0.63430595
-0.047900997 -0.23911527 -0.0546824 -0.33390605 0.2849522 0.41693282 -0.07045409 0.03611149
0.35718998 -0.06432475 0.54916215 0.24937855 0.21665095 0.21187665 0.18933375 0.0627945
0.34809372 0.17568968 0.10459047 0.26914 0.24083714 0.65123516 0.67623514 -0.1535852
-0.47274444 0.1228209 -0.05909797 -0.12312043 0.24908204 -0.2894782 -0.12641098 -0.26047945
-0.13492295 0.2563459 0.38197112 0.33306205 -0.0077206637 0.37433884 -0.061846532 0.37621617
-0.10325558 0.16626364 0.0907582 0.2600308 -0.20263727 0.19156586 0.27607483 0.3604669
-0.36046183 0.42749476 0.15826494 0.36830327 -0.31537026 0.38337663 0.26739654 0.319531
0.33434403 0.2921124 -0.06629639 -0.46777406 0.18700211 0.20739567 -0.18179615 0.41443434
0.25280353 0.23044583 0.35638934 -0.2717654 0.66521835 -0.08367611 0.11664437 -0.09361976
-0.07665211 0.11204151 -0.24908142 0.35973492 -0.2760393 -0.17517689 -0.111855134 0.18152378
0.11390168 -0.16327374 0.33834466 0.22582607 0.15404251 -0.12287853 -0.2271992 0.324182
0.3365348 -0.030757511 0.38814557 0.6246986 0.26820442 0.09265427 0.3414641 0.046731424
0.004114203 -0.23535188 -0.01064122 -0.30300936 0.7305124 0.50355273 -0.139599 0.5477637
0.6795305 -0.10635973 0.32259756 0.4114605 0.5451614 0.54733235 0.41627356 0.40900528
0.7139903 0.2109066 0.11527471 0.419495 0.3095924 0.40408534 0.70192575 -0.04571165
-0.19190077 0.52615863 -0.021369185 -0.14704984 0.5095574 -0.27476254 -0.19360445 -0.15090592
-0.259978 0.3522572 0.3010013 0.5508482 -0.1426138 0.35550845 -0.10157928 0.2903698
-0.111707926 0.4435076 0.08202386 0.5339031 -0.17125757 0.62914866 0.42177716 0.45528993
-0.2366899 0.31556815 0.31029642 0.40916517 -0.21316527 0.0286385 -0.1382797 0.5800975
0.6536613 0.71760714 0.3235249 -0.17801653 0.5727133 0.21156113 -0.12285747 0.39577636
00000000: 7f1c edbe a63d 41bf 6e89 1cbf 6441 5ebf
00000010: 2150 0abd 7e9a 67bd dbb2 29bf c15d 0a3e
00000020: 25f6 17bd 3787 1fbf db19 8e3e 89e0 f3bd
00000030: 4a23 5ebd 069f 18bc f9e7 9abc cf01 d53d
00000040: e785 ccbc e772 82bd 0566 ce3c 6625 1abc
00000050: 3f7e b13d 0215 893e fb92 e63d ad0d 46bf
00000060: 4b29 8cbf 5204 b1bc 1f8a 01bf 336f 1fbf
00000070: d3aa 89bc 544b 18bf e5ba f4be f148 50bf
00000080: 87ad 25be 3072 eb3d 5f15 483e 10df 85bc
00000090: 7d3d 08bf ec91 b63d 8dd7 13bf 57e6 103e
000000a0: 231a 82be bfde 93bc fd02 66be 2443 903d
000000b0: df98 37bf e067 6e3c cdff 13bb 8dd7 61bd
000000c0: 619a 67bf a81e 53bc 6d6a 5a3a aeee c73b
000000d0: edeb 61bf cb52 793f 01e9 fc3d af14 8bbc
000000e0: 5779 6a3d 8fe1 cabb 1e11 b83d 1eee 4cbf
000000f0: 5405 4e3c d0ba 133e 41c3 2bbf 4934 80bd
00000100: 38c8 82bc b31c ab3a 772b 723b 135d 25bf
00000110: 134b 053f 591f 08bf d978 bb3c 996d 4ebf
00000120: 708a 13bf ff85 ffbe c236 34bf 4015 8dbd
00000130: 062f 12bf 982c 03bf 5b14 33bf 2266 a93b
00000140: f289 703c bad9 2abf 3144 273d 64ac 79bc
00000150: 193b 1bbd 79a3 50bf b807 11be 0c02 8dbc
00000160: a21c 0abd 1fae 3bbf 6d5d e6bc 50c2 363e
00000170: 37f3 983c 3666 573c 7cbf 12bd e061 22bf
00000180: d633 44bd a2da 74be a7fa 5fbd bcf5 aabe
00000190: 41e5 913e 3878 d53e 3c4a 90bd a4e9 133d
000001a0: 9be1 b63e b2bc 83bd e495 0c3f 175d 7f3e
000001b0: bfd9 5d3e 31f6 583e b5e0 413e 679a 803d
000001c0: 5739 b23e ffe7 333e 8733 d63d b8cc 893e
000001d0: 039e 763e 59b7 263f bf1d 2d3f 7045 1dbe
000001e0: 8f0b f2be 8689 fb3d b710 72bd 9026 fcbd
000001f0: 5d0f 7f3e 7d36 94be e171 01be 905d 85be
00000200: 3e29 0abe c53f 833e b891 c33e 1c87 aa3e
00000210: 9ffd fcbb 57a9 bf3e ca52 7dbd 689f c03e
00000220: a977 d3bd 0441 2a3e 6fdf b93d c222 853e
00000230: 2580 4fbe d729 443e ae59 8d3e 1e8f b83e
00000240: 748e b8be 98e0 da3e 3410 223e 3f92 bc3e
00000250: 3678 a1be f149 c43e 33e8 883e 9199 a33e
00000260: 242f ab3e c28f 953e 67c6 87bd 1580 efbe
00000270: 7b7d 3f3e 885f 543e c528 3abe bd30 d43e
00000280: 776f 813e fef9 6b3e aa78 b63e d624 8bbe
00000290: c04b 2a3f 615e abbd 3ee3 ee3d b7bb bfbd
000002a0: c8fb 9cbd 0576 e53d 330f 7fbe 2d2f b83e
000002b0: 0655 8dbe 9261 33be 4e14 e5bd 5fe1 393e
000002c0: 4945 e93d 3b31 27be 833b ad3e f33e 673e
000002d0: 52bd 1d3e bda7 fbbd e8a6 68be 2ffb a53e
000002e0: 4a4e ac3e 2df7 fbbc 04bb c63e 3fec 1f3f
000002f0: 1752 893e 86c1 bd3d 62d4 ae3e 7369 3f3d
00000300: 70d0 863b 1500 71be 8358 2ebc 0b24 9bbe
00000310: dc02 3b3f d5e8 003f 0af3 0ebe 3e3a 0c3f
00000320: b6f5 2d3f 21d3 d9bd 822b a53e f3aa d23e
00000330: b38f 0b3f f91d 0c3f cf21 d53e 2469 d13e
00000340: 11c8 363f e6f7 573e 2615 ec3d 0cc8 d63e
00000350: e582 9e3e 46e4 ce3e 68b1 333f 243c 3bbd
00000360: a381 44be 55b2 063f 6e0e afbc 3c94 16be
00000370: 5b72 023f adad 8cbe 3f40 46be 1587 1abe
00000380: d61b 85be 0e5b b43e d81c 9a3e 6304 0d3f
00000390: 5a09 12be 3405 b63e cc08 d0bd 5aab 943e
000003a0: 20c7 e4bd 6e13 e33e 20fc a73d e0ad 083f
000003b0: 255e 2fbe e30f 213f 2df3 d73e c31b e93e
000003c0: d65e 72be 2692 a13e 2cdf 9e3e 197e d13e
000003d0: ff47 5abe 4a9b ea3c 3299 0dbe 4581 143f
000003e0: 5956 273f 1ab5 373f 0ea5 a53e f749 36be
000003f0: 579d 123f 7ba3 583e b29c fbbd 33a3 ca3e

fc3.bias f4 [24]
-1.8463988 -0.66608983 -0.76975864 -1.0824225 -1.475055 -1.4386919 -0.7776123 -1.0905004
-1.4054662 -0.69617397 -0.8344027 -0.858251 -0.70345515 -0.9402165 -1.084751 -1.4038826
-0.8748081 -1.769175 -1.4028282 -1.5699773 -1.8386544 -0.8516825 -1.7725279 -0.7195875
00000000: cc56 ecbf dd84 2abf e70e 45bf d28c 8abf
00000010: 9ace bcbf 0e27 b8bf 9a11 47bf 8495 8bbf
00000020: 51e6 b3bf 7538 32bf 6a9b 55bf 56b6 5bbf
00000030: a315 34bf 07b2 70bf 1fd9 8abf 6db2 b3bf
00000040: 6cf3 5fbf 5474 e2bf e08f b3bf 04f5 c8bf
00000050: 0759 ebbf dd07 5abf 32e2 e2bf e336 38bf

fc4.weight f4 [2, 24]
-1.181664 -0.018960541 0.07174497 -0.49211684 -0.8540358 -0.9036878 0.019851087 -0.27912116
-0.9463583 1.3647587 -0.020309785 0.025709726 0.017034577 -0.6689697 -0.33872363 -0.87461
-0.084625326 -1.0994896 -0.8212249 -1.0927272 -1.2579676 0.0680032 -0.97583574 1.3941417
3.1487126 0.43100303 0.49280632 1.9923183 3.2025032 3.01711 0.3960592 1.9243492
2.7831924 -1.3758508 0.686873 0.8255107 0.38327944 1.6369418 1.8468513 2.7987888
0.7690508 3.3471966 2.8882933 3.2180374 3.6152458 0.4702426 3.3507879 -1.3582344
00000000: c440 97bf 2353 9bbc 07ef 923d bdf6 fbbe
00000010: 17a2 5abf 1558 67bf bf9e a23c f8e8 8ebe
00000020: 8a44 72bf 6ab0 ae3f b560 a6bc 349d d23c
00000030: 198c 8b3c 9941 2bbf 2f6d adbe 71e6 5fbf
00000040: 0b50 adbd 13bc 8cbf cc3b 52bf 7cde 8bbf
00000050: 1505 a1bf 4345 8b3d 5fd0 79bf 3c73 b23f
00000060: 8284 4940 6eac dc3e 1c51 fc3e 4904 ff3f
00000070: d0f5 4c40 5518 4140 45c8 ca3e 1351 f63f
00000080: d31f 3240 e11b b0bf e9d6 2f3f ab54 533f
00000090: 343d c43e 4f87 d13f a065 ec3f 5b1f 3340
000000a0: 83e0 443f 7838 5640 ccd9 3840 53f4 4d40
000000b0: 3060 6740 a3c3 f03e 4f73 5640 a0da adbf

fc4.bias f4 [2]
1.896756 -0.5911755
00000000: e7c8 f23f 4757 17bf

fc5.weight f4 [1, 2]
3.604949 -3.0289214
00000000: 7cb7 6640 d9d9 41c0
