T3-2024/Federated_Learning/Improved_FL/SRC/FL_parameters/client9.pth (torch, 34104 bytes, 9 tensors)

fc1.weight f4 [48, 12]
00000000: 07df bb3d b230 a73c 79e2 183f f091 d7bd
00000010: 6e29 163e 9bd7 583e 9318 3f3e f3e9 573e
00000020: 3362 b3be 0da0 81bc 39a7 ae3e b352 b33c
00000030: beee 003d 561e a6be e3f1 dcbe 1863 8e3d
00000040: fa8a e83e 4751 b4be f79f c2be e0ac 383a
00000050: a84b 14be 20f6 463e 0088 a0bd a6bd 78bd
00000060: dac0 8bbc fb34 373c 4adb 58bf 9251 f43d
00000070: ca29 b93e 1486 e8be 6040 953e fdcd 3f3e
00000080: 6054 b9bd 85c8 903d 12da b3bd 0cd8 4dbd
00000090: fc8e c2bd 0ce8 093c 5e0b 5cbf 7e46 ae3b
000000a0: 832d e8bd 7377 6cbe 188f c2bd c151 2cbd
000000b0: 3609 fc3b 3c4f 593d 685e 74bd 443a c13c
000000c0: 8ec4 cabd 39ec 033d 087a 64bf 60bd 683d
000000d0: 47f5 99bc d5c3 a6be 95a5 433d 5f7d 8abd
000000e0: 1e01 153d cdb0 503d 1e1a a9bd aa52 a13b
000000f0: f029 b83d 34da 233e 555f cbbe 9100 933c
00000100: 2881 2ebe 48c8 9a3e 1bfe 73bf ab73 eebd
00000110: 5a5e 053e eea2 22bc 1141 a8be af13 5a3e
00000120: bf51 8a3b 6641 193e 5386 50bf a82b 2ebd
00000130: 10b9 d23c a7ea adbe 4117 173e b89c e0bd
00000140: b4a4 603d 661c a1bc 6224 32be 1076 b7bd
00000150: 987b a23e f3d7 1d3e 9da1 73bd 3cd5 b1bd
00000160: 2829 993d f86c 0fbf ee90 2dbf 151a 213e
00000170: 0308 fc3c 6d82 13bb 12cc 3dbd b0b3 8c3d
00000180: 59e6 76bc c6df bc3c d5ed 81bf 9135 cb3d
00000190: 7906 5f3d a7bb 6ebd 8b7b 61be f8ee 4b3d
000001a0: 4f94 4c3d dc3e 32bb 00d2 8fbc 4c68 8a3d
000001b0: 55f1 bc3d f303 4b3c 0f3a 2c3f e9d8 db3d
000001c0: 2672 2c3e 9007 593d d2c6 063e 7408 8f3d
000001d0: cd70 143c c425 f13c 53dd 4f3e 97d2 423b
000001e0: 9102 1b3e 523b 65be b095 29bf 22ab 7d3c
000001f0: c82d 54bd 2124 acbe 7b2d 5b3e 216a 85bc
00000200: 868e 12bd 5e2e 023d 17e1 febd 83ee dcbc
00000210: 3ed8 663c 99fe 293d 6afb 073e f95e 80bd
00000220: 7722 34bf 091e 873d d7d7 9dbf c363 f23b
00000230: f34a 203d 668e 033e 09dd 38be c486 be3c
00000240: 54ff 6ebb a533 3a3c 0e19 79be b880 8fbd
00000250: 3126 94bc 8c63 09bf 39d7 03bf 3775 093d
00000260: ab47 433d 61d1 4bbd 2079 07be a76c c43d
00000270: 127f 8bbc 9d21 383e 61a0 66bf e716 933c
00000280: e40d b13c 22ba f6be 2ca7 c23e 7427 1fbe
00000290: 1b64 873d fee3 d73d 9547 f5bd 3ea0 bbbd
000002a0: cee8 ccbd 2626 a53d ef73 47bf e3e0 c73d
000002b0: 9871 b6bd 5489 a7bd 3866 b33e f201 573d
000002c0: 742d ae3d e6d2 d53d c742 49bc 85d7 513e
000002d0: 476a 8abc c6f7 153d 95b6 1b3f e015 a13d
000002e0: 6652 553e 08fe 133e 1953 183e 43ad c73d
000002f0: bbe6 e33c f988 033e 7e43 a73d 10a0 e33c
00000300: bfab b13d 69ca f6bc 6226 373f cf5c 973d
00000310: a44d 3a3e e9d6 503e e074 0e3e fc78 d43d
00000320: b274 743d 7c46 f23d 7b48 c73d 1565 7abc
00000330: 82fe b7bd e0ae c03d 38f5 43bf b98b 763a
00000340: 723f d6bc 45c3 d1be 1465 06be e69f a03c
00000350: 562d dabd 483c e7bc f262 60be 6b7b a23c
00000360: 908b 083e 0af2 40be 7a0b 1d3f 8e94 8b3d
00000370: 3a32 4b3e 1d46 0d3c 7a58 153e e0d5 b3bf
00000380: ae02 9f3c a659 043d 4a4f 7c3e cd90 233b
00000390: f912 953d 18f2 90bd 1d1e 7fbf 29ce 7cbc
000003a0: 1e0a b8bd 86bd b4be 0205 cb3d f7be 00bd
000003b0: 6783 963d 4150 babd 3c1c 09be 3b61 79bd
000003c0: a1c1 a13c 03b7 a33d 15f2 1b3e e5b3 d0bd
000003d0: c40e 41bf 1340 1fbb 1901 9ebf caa8 4b3c
000003e0: 0451 7a3d 9db2 0e3e edf3 37be 9745 873c
000003f0: a1e7 823d 7dae a0bd 3445 71bf 15d8 dd3c
0.091733985 0.020408962 0.5972057 -0.10525882 0.14664242 0.21175997 0.18661718 0.21085338
-0.35035858 -0.015823388 0.34111956 0.02189002 0.031477682 -0.3244502 -0.43153295 0.069524944
0.4541853 -0.3521826 -0.38012668 0.00070448034 -0.14481986 0.19429827 -0.0783844 -0.060727738
-0.017059732 0.011182065 -0.8470961 0.11929621 0.36164695 -0.45414793 0.29150677 0.18730922
-0.090492964 0.07069496 -0.08781828 -0.050254866 -0.09499928 0.008417141 -0.85954845 0.005318462
-0.11336806 -0.23092441 -0.09499949 -0.042070154 0.0076915277 0.05305408 -0.059660345 0.023587354
-0.09900771 0.0322077 -0.89248705 0.056821227 -0.018793715 -0.32571283 0.047765333 -0.06762194
0.03637802 0.05094986 -0.082569346 0.0049231844 0.08992374 0.16001207 -0.3972117 0.017944606
-0.17041457 0.30230927 -0.9530961 -0.11643156 0.13024274 -0.009926541 -0.32862142 0.21296571
0.0042211707 0.14966354 -0.8145496 -0.042522103 0.02572301 -0.33968088 0.14754964 -0.10967392
0.054844573 -0.019666862 -0.17396691 -0.089580655 0.3173492 0.1541441 -0.0594803 -0.08683249
0.07478553 -0.5602565 -0.6779927 0.15732606 0.030765539 -0.002250816 -0.046337195 0.0687021
-0.015069568 0.023055922 -1.0150706 0.09922326 0.054449532 -0.058284428 -0.22019784 0.049788445
0.049946126 -0.0027198112 -0.01755619 0.06758174 0.09225718 0.012391078 0.6727609 0.10734732
0.16840419 0.052985728 0.13161781 0.06984034 0.009060097 0.029436953 0.20299272 0.0029727572
0.15137698 -0.2238591 -0.6624403 0.015482696 -0.051801473 -0.33621314 0.21404068 -0.016285958
-0.035780452 0.0317825 -0.12445276 -0.0269692 0.014089642 0.04150257 0.132795 -0.062681146
-0.7036509 0.065975256 -1.2331494 0.0073971464 0.039133977 0.1284729 -0.18053068 0.02325762
-0.0036468105 0.011364852 -0.24325964 -0.07006973 -0.018084617 -0.5366752 -0.5150028 0.03355905
0.04767577 -0.049760226 -0.132298 0.09591036 -0.017028365 0.17981572 -0.9008847 0.017955257
0.021613069 -0.48188883 0.38018167 -0.15542394 0.066108905 0.10541533 -0.11976544 -0.09161423
-0.100053415 0.08063917 -0.77911276 0.097596906 -0.08908385 -0.0818049 0.35038924 0.05249209
0.08504763 0.10440616 -0.012283987 0.2049237 -0.01689638 0.03661325 0.60825473 0.078655005
0.20832214 0.14452374 0.14875449 0.09749844 0.027819982 0.1284522 0.0816717 0.027786285
0.08675336 -0.030125814 0.7154294 0.07390749 0.1819368 0.20394482 0.13911772 0.103746384
0.0596816 0.1182985 0.097306214 -0.015282889 -0.089840904 0.09408355 -0.7654605 0.00094049756
-0.0261533 -0.4096929 -0.13124496 0.019607496 -0.106531784 -0.028226987 -0.21912745 0.01983424
0.13334489 -0.1884233 0.61345637 0.06815444 0.19843379 0.008622673 0.14584532 -1.4049644
0.019410457 0.032312058 0.24639621 0.0024958134 0.07279009 -0.07077426 -0.99655324 -0.015430012
-0.08986305 -0.35300845 0.099130645 -0.03143212 0.07349282 -0.090973385 -0.13389677 -0.06088374
0.01974565 0.07993891 0.15229066 -0.10190562 -0.75413156 -0.0024299666 -1.2344085 0.012430379
0.06111242 0.13935323 -0.17964144 0.016512675 0.06391836 -0.07845781 -0.9424622 0.027080575

fc1.bias f4 [48]
00000000: f4fd 15bf 1ce2 623e 8b6e d23c 5592 0d3f
00000010: 6edb d73e 3517 ac3d 99ce 863e 8db1 b5bd
00000020: e1cb da3e 56c0 2fbf c458 cb3e 3a5b 943e
00000030: b30e cf3e f353 a93d ef95 20bc 3c0e 1dbf
00000040: b77d 37bf b7a0 1c3f 87ee dcbe ca9b be3e
00000050: d744 8e3e 197f 9d3e 7aba 04bf 8724 8e3e
00000060: 2348 743e 0a57 163f d7dd ecbe 1ab7 f03e
00000070: 5917 80be ee56 1a3f e706 f83e 805d 26bf
00000080: ebf5 3cbf 7f9e 923e b495 383e 7f45 403e
00000090: 660d cbbe c8f2 053f a52c f93d d364 b33e
000000a0: abc8 a63e f763 423d ab27 073f c53e 42be
000000b0: 99b2 4dbe 575b 10bf 787e 1fbf 9394 bb3e
-0.58590627 0.22156566 0.025687477 0.5530141 0.421596 0.08402864 0.26329497 -0.08871756
0.42733672 -0.68652856 0.3971616 0.2897585 0.40440902 0.08267965 -0.009801372 -0.61349845
-0.716762 0.6118273 -0.43150732 0.37228233 0.27786896 0.3076103 -0.5184704 0.27762243
0.23855643 0.5872656 -0.46263 0.47014695 -0.25017813 0.60288894 0.48442766 -0.6498642
-0.7381274 0.28636548 0.18025857 0.1877651 -0.3965866 0.5232358 0.121667184 0.3503786
0.32574973 0.047458615 0.52794904 -0.18969257 -0.20087661 -0.56389374 -0.6230235 0.3663679

fc2.weight f4 [96, 48]
00000000: 8609 d03e 12b4 e6be 8138 55bf 46c9 01bf
00000010: 565f 9fbe 489e 5dbf d9c2 4cbf 18cc 24bf
00000020: 96de 70bf 86bc e63e 7ac7 15be 71b2 02c0
00000030: 67b1 0ebf df08 cebe 492c 12bf c3bd f83e
00000040: fd8a 133f 002f ebbe dfe0 e73e de64 b4be
00000050: 5f89 09c0 bd54 a0be d536 c13e e1ff 00c0
00000060: 3005 19c0 9231 f9be c2cc 9c3d 4ebd c5be
00000070: 29d3 ea3d c5e2 8cbe 9b8a 94be f66e bd3e
00000080: bb2d 223f ddab 07bf ece4 10bf 4660 e2bf
00000090: ae3c e43e 6a2b d2be 39e0 3cbf e47a 18bf
000000a0: c000 01bf 8bc6 4ebf 5889 2abf abcc bdbd
000000b0: 37e8 063e 77a0 203f dbfc 333f 382b 5cbf
000000c0: 88b9 a13e 6413 64bf 4eea 3fbf d789 65bf
000000d0: 68c9 39bf 6a1c 92bf b9e5 64bf d130 2ebf
000000e0: 3ef5 17bf 518c cd3e 21bb c3be 8995 a4bf
000000f0: 0c9d 42bf c2f0 37bf adc5 04bf 843a cd3e
00000100: 0df9 193f ce13 1dbf 55a4 bf3e ad74 11bf
00000110: 5dee b0bf e3c8 27bf 9b58 773e 39da a4bf
00000120: 94c0 b6bf a4f8 eebe 4a2f b43d 3052 f8be
00000130: 41f1 0a3e 4967 35bf f1d5 53bf 99a9 1c3f
00000140: eb1f ab3e 7366 63bf 0f38 7abf 26a5 a8bf
00000150: 7088 053e a55d 23bf 7acd 7ebf de39 88bf
00000160: d4bc 7fbf 653d e1be a71a 34bf a535 00be
00000170: 3c4f f6bd 0a80 cd3e 7ab0 9c3d 343e 46bf
00000180: 120d a53e 85e6 69bf fe0e 72bf 3971 05bf
00000190: 9635 e6be 54f0 9ebf 6373 1bbf cf9c 89bf
000001a0: e2b4 5dbf 207e fe3e f0c4 bbbe ecc4 e9bf
000001b0: 70ad 5cbf 3c7a e5be 39d4 25bf ac45 8e3e
000001c0: aa28 f63e 4f2a fabe 2307 083f d855 b0be
000001d0: 544a f9bf bcf2 a9be ce28 f63e 06b3 dfbf
000001e0: 23ea f2bf fc37 04bf 1caa 373e eff1 e4be
000001f0: 73e9 53bd ea5e 0abf 374c ffbe d12b 143f
00000200: 5546 1e3f 4c3a 4dbf 27af 4bbf c7ed d6bf
00000210: 3c2c 943e 15b9 2cbf 7e7e 80bf 19cb 21bf
00000220: 4d77 5dbf 9032 3ebf b618 47bf d596 92bd
00000230: 7f1a da3d 73a1 343f 1f84 e23e 2cc2 7cbf
00000240: 9f34 7c3e b2da 66bf 603b 31bf 7af3 4ebf
00000250: c3af 0dbf 459a 78bf 62d7 48bf 4f3a 13bf
00000260: b2b9 58bf a04a b33e ffca b4be 58d4 99bf
00000270: 985f 5dbf d142 53bf df41 d5be 8739 843e
00000280: 3ab6 e43e 4fce 3ebf 829e 213e bd8b b8be
00000290: 409e a3bf 6835 20bf 0b2b 1fbd 62d5 95bf
000002a0: 8942 a3bf 137e 59bf 5427 f23d 2fb0 e4be
000002b0: 6e22 113e f6bf 71bf a2fb 21bf a3fd 093f
000002c0: 9b35 193f daa3 8abf c301 81bf 4e7b 98bf
000002d0: 57f5 ec3c 2154 2abf 4504 86bf 7bc5 44bf
000002e0: 4cd7 5bbf 4f31 c1be ae8d 79bf d591 263d
000002f0: d8f9 eb3c d8ca df3e d244 4f3e a0c0 67bf
00000300: 3a70 a8bd 0356 403f 6b18 0e3f fbc8 123f
00000310: e0fe 2d3f 1c00 503f fc93 be3e b0d0 be3e
00000320: 18e6 493e 46ed a2bc 05ee f73e e943 413f
00000330: 70a9 333f d163 f03e e45c 523e c058 67bd
00000340: af7e 15bd ba3c 7a3f 7137 e53b 2401 2b3f
00000350: c7a2 2d3f 4969 433f 45fb 5bbd 195f 273f
00000360: 666b 213f 0a6d 543f 395c 5dbc 7288 5c3f
00000370: 4551 0dbe 7efb 333f 9180 333f e483 12bd
00000380: 598f 3ebd b484 213f 0127 4b3f b987 3e3f
00000390: cbba 4cbd 4592 1e3f 02c8 343f 5e72 503f
000003a0: e4f3 6e3f 7579 d93e ef98 cd3e 11ff c03d
000003b0: faf4 0d3e 2350 89bd 3c19 9abd 4782 f63e
000003c0: feff 11bb 127b 293f d53d f23e 0a5b e23e
000003d0: 2636 3a3f 13db 3b3f 5a93 d83e bc79 0c3f
000003e0: 809e 5d3f 9f44 30bb e6a4 ad3e bbd8 c23f
000003f0: d239 2b3f 95e2 c93e 130c d93e e401 a23c
0.40632266 -0.45059258 -0.83289343 -0.50697744 -0.31127423 -0.86569643 -0.79984814 -0.6437392
-0.9408964 0.45065707 -0.14626876 -2.0421412 -0.55739444 -0.40241143 -0.57098824 0.48582277
0.57633954 -0.45934296 0.4528875 -0.35233206 -2.1490095 -0.3131465 0.37737146 -2.0156176
-2.3909416 -0.48670632 0.07656242 -0.3862099 0.11466057 -0.2751676 -0.29011998 0.3699872
0.6335103 -0.5299662 -0.5659931 -1.768563 0.44577545 -0.41048747 -0.73779637 -0.59562516
-0.5039177 -0.807717 -0.6661582 -0.09267553 0.1317452 0.6274485 0.703077 -0.86003447
0.31586862 -0.8909209 -0.74966896 -0.8966345 -0.72572947 -1.1414921 -0.8941303 -0.6804324
-0.59358585 0.40146115 -0.38228706 -1.2858135 -0.76020885 -0.7185174 -0.5186413 0.40083706
0.60145646 -0.61358345 0.37430063 -0.5681866 -1.3822743 -0.65540904 0.24154894 -1.2879096
-1.427752 -0.46674073 0.08798082 -0.48500204 0.13568594 -0.70860726 -0.82748324 0.61196285
0.3342279 -0.888282 -0.9774179 -1.3175399 0.13040328 -0.63814765 -0.9953228 -1.064266
-0.99897504 -0.43992153 -0.7035317 -0.12520464 -0.120268315 0.4013675 0.07650848 -0.77438664
0.32236534 -0.9136737 -0.94554126 -0.5212589 -0.44962758 -1.2417092 -0.6072294 -1.0750979
-0.8660413 0.497056 -0.3667369 -1.8263221 -0.86202145 -0.4481982 -0.6477695 0.2778753
0.480779 -0.48860404 0.5313589 -0.34440494 -1.9475808 -0.33193004 0.48078007 -1.7476509
-1.8977703 -0.51647925 0.17935985 -0.4471583 -0.051736306 -0.5405108 -0.49862835 0.5787936
0.6182607 -0.8016708 -0.79564136 -1.6791314 0.28939998 -0.6746991 -1.0038602 -0.6320053
-0.86510164 -0.742959 -0.7777208 -0.07157675 0.10649585 0.7055885 0.44241425 -0.9873378
0.24629448 -0.9017745 -0.69231224 -0.80840266 -0.55346316 -0.97110397 -0.7845365 -0.57510847
-0.8465835 0.35017872 -0.35311124 -1.2017927 -0.8647399 -0.8252383 -0.41651818 0.2582514
0.44670278 -0.7453355 0.15783122 -0.36044112 -1.2782669 -0.6258149 -0.03885941 -1.1705744
-1.275468 -0.84958 0.118239075 -0.44665667 0.1417329 -0.94433534 -0.63274586 0.53902644
0.5984742 -1.0831254 -1.0078663 -1.191263 0.02892558 -0.6653462 -1.0470053 -0.7686383
-0.8587539 -0.37732932 -0.9748181 0.04066642 0.028805658 0.43709445 0.20241097 -0.905283
-0.082245305 0.75131243 0.5550601 0.5733792 0.67967033 0.81250167 0.37222278 0.3726859
0.1971668 -0.019888531 0.48423782 0.7549425 0.70180416 0.46951154 0.20543247 -0.056481123
-0.036497768 0.9774891 0.0069951345 0.66798615 0.67826504 0.7633253 -0.053706426 0.6537948
0.630545 0.8297888 -0.013510757 0.861457 -0.13800533 0.7030562 0.7011805 -0.035770312
-0.046523426 0.63093114 0.7935639 0.74425846 -0.049982827 0.6194194 0.7061769 0.8142451
0.933409 0.42475477 0.40155742 0.0942365 0.13862982 -0.06704738 -0.07524344 0.4814627
-0.0022277827 0.66203415 0.473128 0.44210082 0.72738874 0.73381156 0.4229992 0.5487325
0.86569977 -0.002689637 0.3391487 1.5222391 0.668851 0.3943068 0.42392024 0.019776292

fc2.bias f4 [96]
00000000: d015 343f 5ada ee3d 3ad2 9e3e c1f4 453e
00000010: a3cb 1f3e eb22 113d f338 0c3f e950 e73d
00000020: 9d76 ca3d 3d7d 043f 58d0 44bf b579 9b3d
00000030: 0b14 af3d f1ea 763e 24be 823d c8dc be3d
00000040: 8df9 49ba 86fe 943e 4030 263e fbc0 243e
00000050: 1df4 e1be 6b66 8dbf 61d4 15bf edb9 273e
00000060: 801a 323c 750f 8b3d 96a8 483f d79f d83e
00000070: de85 173e df0d 4f3e c701 9c3e 98f6 893d
00000080: 4f14 583f 1ee2 28be 7ff3 58bf 1293 f13d
00000090: dc22 113f b433 82be 6caa f03e a294 1ebf
000000a0: 263f e03e ab2e ad3d 1979 743e f41d 843d
000000b0: 350e 753e 039f a73d af73 a53d 1c9d 2ebd
000000c0: 89fc d43c 207e 673d 1b11 723d 5c3b e73d
000000d0: e9dd c53d 7b49 bbbf bb8f 88be 35f8 053d
000000e0: 66a4 a43d 22b3 103e 9854 4a3e d3d3 983d
000000f0: 40d8 583d 4439 c8be 4b31 6b3e fba2 463d
00000100: ce59 283e 40fc e53d 0391 c33d a84e 363e
00000110: f03a a8bf 267a 363f 0b38 973e 4c13 1f3e
00000120: fbfa 1c3f 54ea 3d3f 7eb9 793e 536a 883d
00000130: e436 373e 593d b93e 4524 973e 646b 113d
00000140: db51 0ebe 5d05 a33e 6e3b d43d c2fd b63d
00000150: 981c 1a3e bd93 a33e 7c83 4f3f eafe 523d
00000160: 7ddd bd3d ef07 3e3f a4b6 163d 5a1d 50bf
00000170: 7ac9 d23d bb89 053e 076d 9fbb 2e0c 3d3f
0.70345783 0.11662741 0.31019765 0.19331647 0.15605025 0.03543369 0.547744 0.11294729
0.09885905 0.517536 -0.7688041 0.07591573 0.08548745 0.2411306 0.06383923 0.093194544
-0.00077047275 0.29100436 0.16229343 0.16089241 -0.44131556 -1.104688 -0.5852719 0.16379519
0.010870576 0.067900576 0.7838224 0.42309448 0.1479716 0.20220135 0.30470106 0.06736487
0.8440599 -0.16492507 -0.84746546 0.117956296 0.56693816 -0.2543007 0.47005022 -0.61945546
0.43798178 0.08456167 0.2387432 0.064510256 0.23931201 0.08184626 0.080787055 -0.0426303
0.025999324 0.056516767 0.059098344 0.11290619 0.09661467 -1.46318 -0.26672158 0.03270741
0.08039169 0.14130834 0.19758832 0.07462277 0.052940607 -0.3910619 0.22968023 0.048495274
0.16440508 0.112297535 0.09549143 0.17803442 -1.3142986 0.71280134 0.29534945 0.15534705
0.61320466 0.7418568 0.24387166 0.06660905 0.17892033 0.36179617 0.2951986 0.035502806
-0.13898413 0.3184003 0.10362898 0.08935119 0.1504997 0.31948653 0.81060004 0.051512636
0.09270761 0.74230856 0.036795273 -0.81294787 0.10292335 0.13040821 -0.004865292 0.7384671

fc3.weight f4 [24, 96]
00000000: 1a2b e6be 719d 1cbf 5088 0cbf 0c1c 58bf
00000010: 38f2 0fbd 8ae1 2f3c 2e5f 41bf cf45 0e3d
00000020: 03c0 c8bb 6355 31bf a22d 363e 288d 15bd
00000030: caa0 27bd 7ead a6bc f5c8 7e3d 3b38 933c
00000040: 173a 6c3d 42c2 3cbd dd16 04bd 236d 85bc
00000050: e0b1 1f3e e7ed ad3e 6fe8 a13d 3f21 3dbf
00000060: 2ca7 88bf 83ed 97bb 6961 1abf cf74 17bf
00000070: 4106 86bc 05e1 16bf 543c e7be eb89 38bf
00000080: 0358 89bc 85ac 7c3d 4982 7a3e 3227 0c3d
00000090: 3af3 10bf 8d45 2a3d 04fa 02bf de8c 253e
000000a0: a99d c6be c97a 29bd 1b14 0fbe 631d 013c
000000b0: 2b6f 23bf bcc5 adbd 7971 913c e69d 32bd
000000c0: c372 6fbf 363a b73d a5f4 efbc 6f82 94bc
000000d0: 8f6b 3cbf 8917 813f 0bf3 1f3e a544 983d
000000e0: 8b4c 053d 494c bf3b b877 a93d d7d2 27bf
000000f0: 4176 833d d28c 4b3e 6d63 2cbf ea22 a53c
00000100: 7545 14bd 1891 823c d93d 7dbd 18b3 1cbf
00000110: 9385 303f 368f 1bbf ba2d 263c 340a 3ebf
00000120: 0e45 1cbf 7940 15bf 62be 2cbf 40cc 6ab7
00000130: 9669 1abf 73fb 08bf fead 16bf f75d 373c
00000140: aba3 9a3d 0792 30bf 9031 b23d 961d 923c
00000150: 9a46 c13b beb6 54bf 6ef6 21be 248c e03c
00000160: b324 dc3d 03eb 35bf 6a6d d5bc 9f4d 303e
00000170: 0691 9a3d bde7 203c ec98 0cbd 2a8e 2bbf
00000180: 1d3d 78bd 6655 96be 8e00 66bd 5bfa ccbe
00000190: 95bd 773e dd49 8b3e 28e2 3bbd 9f01 7e3c
000001a0: e18d 853e f8c5 6ebd 3244 ee3e cc8a 5e3e
000001b0: 2cdd 713e 8c6e 683e 7a1b 353e f94f a93c
000001c0: 0399 d43e e33b fe3d c3b1 d93c 832c b93e
000001d0: ee55 f53d 5412 213f 77a9 0e3f a2a9 2cbe
000001e0: 640d efbe 7e44 053e 3b07 f0bd cc2a 43be
000001f0: a76d 5e3e b4b2 99be 9ec8 49be c4d5 6ebe
00000200: f6c5 f3bd 7d4f 3c3e 0509 c03e 9365 893e
00000210: 6d8c 78bd dbe8 883e ee07 b7bd 48a4 923e
00000220: c8dc 26be 4cee ab3d 320a f93c 3f08 1a3e
00000230: 09c4 68be 7cfa 2e3e b3e6 013e ee67 b63e
00000240: 2cb2 c2be b3a0 a83e 91cb 033e de99 913e
00000250: 3f8e 90be 7c3f be3e b756 f63d a205 8a3e
00000260: aaf5 943e 9795 803e b155 d4bc 6b06 0ebf
00000270: d85b 433d 6760 7fbc 9cb0 45be 9d16 d53e
00000280: 1482 3d3e 4283 d73d e770 9d3e 3c97 51be
00000290: fd07 3f3f 03c9 29bd 23bc 703d 0756 13be
000002a0: d083 7abd b6bc e3bd 8069 4dbe 2ca2 ab3e
000002b0: af39 72be 40e4 4dbe f444 1dbe 7df8 033e
000002c0: 0b7d d93d b3c9 28be 0f54 553e bed5 633e
000002d0: a9f3 d73d c2e3 84be 3252 7dbe 7673 843e
000002e0: 944d 2d3e 48cb e3bd 88cb a03e 7338 123f
000002f0: 1704 6a3e 9083 9d3d 9d06 473e e899 1bbe
00000300: e648 a03c 1f44 f6bd d378 6bbd b80c a5be
00000310: 1abe 373f b562 0e3f e43b 8dbd f715 f83e
00000320: 76dc 253f dcd7 14be f112 a63e ed5c e23e
00000330: f3cd 1a3f b1ed 0c3f 7209 e43e daab cb3e
00000340: 93b5 313f 2fa4 523e 85d4 793e bd38 0c3f
00000350: 62fe a43e 72e2 ad3e c55f 2b3f bd14 dbbc
00000360: 391e 67be e020 153f 8405 4cbd b274 8ebd
00000370: 3ee0 293f 6564 1fbe c210 95be 8c0b 1ebe
00000380: 5f0e 1ebe d86a db3e eb4e 9a3e 54ed 263f
00000390: be22 96bd 799b bf3e 3fc8 e5bd 06c0 993e
000003a0: 0fe6 79bd 895a 073f 5b89 023e b8fc 093f
000003b0: 416a 26be 210a 1a3f 03f2 e23e 87dd da3e
000003c0: d3c1 9bbe af11 af3e 624a b13e 0692 0b3f
000003d0: 2fc0 88be 461f e53c d4ea d3bd 371a 053f
000003e0: de35 243f fb7b 3f3f 6532 9d3e bfd0 4cbe
000003f0: de7b 0c3f 7f84 673e 15ec 7abd 4307 023f
-0.4495476 -0.61177737 -0.54895496 -0.84417796 -0.035143107 0.010734925 -0.7553586 0.034734543
-0.006126405 -0.69270915 0.17790845 -0.03651157 -0.040924825 -0.0203464 0.062203366 0.017971149
0.057672586 -0.046083696 -0.032248367 -0.016287392 0.15595198 0.33970568 0.07905661 -0.73878855
-1.0676017 -0.004636468 -0.60304886 -0.5916261 -0.016360404 -0.589371 -0.45163214 -0.72085446
-0.0167656 0.061687965 0.24463762 0.034217067 -0.56621134 0.041570235 -0.51162744 0.16167018
-0.3879216 -0.041376863 -0.13972513 0.0078805415 -0.63841504 -0.084849805 0.017754303 -0.043607615
-0.9353449 0.0894665 -0.02929146 -0.018128602 -0.7360162 1.0085307 0.15620057 0.07434968
0.0325437 0.0058379513 0.08274788 -0.6555609 0.064190395 0.19877937 -0.6733921 0.02015825
-0.036199052 0.015938327 -0.06182656 -0.61210775 0.6895382 -0.607654 0.010142738 -0.7423432
-0.6104287 -0.583015 -0.67478 -1.39950425e-05 -0.6031736 -0.5350868 -0.5885924 0.011191837
0.075507484 -0.6897282 0.087008595 0.017836373 0.005898309 -0.8309134 -0.15816662 0.027410574
0.10749187 -0.71061724 -0.02605315 0.1721711 0.07547192 0.009820876 -0.034325525 -0.670138
-0.060605157 -0.2936203 -0.056152873 -0.40034756 0.24193414 0.2720479 -0.045869976 0.015503316
0.26084808 -0.058294266 0.46536404 0.21732634 0.23619527 0.2269842 0.17686263 0.020668017
0.4152299 0.12413766 0.026574021 0.36166772 0.119792804 0.6291859 0.5572733 -0.16861585
-0.46689904 0.13014409 -0.11720129 -0.19059294 0.21721517 -0.30019152 -0.19705436 -0.23323733
-0.119029924 0.18389697 0.3750688 0.26835307 -0.060680795 0.26740155 -0.08937059 0.28640962
-0.16295159 0.08395061 0.03040037 0.15042208 -0.22731031 0.1708774 0.12685661 0.35626167
-0.3802656 0.32935104 0.12870623 0.28437704 -0.28233525 0.3715781 0.12028258 0.26957422
0.29093677 0.25114128 -0.025919767 -0.55478543 0.04769501 -0.015586949 -0.19305652 0.41618815
0.18506652 0.10523082 0.307502 -0.20467848 0.74621564 -0.041451465 0.05877317 -0.14388286
-0.061160862 -0.11119978 -0.20059776 0.33522165 -0.23654817 -0.20106602 -0.15358335 0.1288776
0.10619553 -0.16483192 0.20832847 0.22249505 0.10544521 -0.25955015 -0.24738386 0.2586934
0.16924125 -0.11122757 0.31405282 0.57117385 0.22853123 0.07691109 0.19436117 -0.1519543
0.01956601 -0.12024712 -0.057488274 -0.32236266 0.71774447 0.55619365 -0.06896189 0.48454258
0.6478952 -0.14535469 0.32436326 0.44211522 0.60470504 0.5505019 0.44538456 0.3977955
0.69417685 0.20570444 0.24397476 0.54774076 0.3222533 0.33961827 0.6694301 -0.026743287
-0.22570123 0.5825329 -0.049809948 -0.069558516 0.6635779 -0.15565641 -0.29114348 -0.15434092
-0.1543517 0.42854953 0.30138335 0.65205884 -0.07330845 0.37423304 -0.112198345 0.30029315
-0.061010417 0.5287252 0.1274771 0.53901243 -0.1625147 0.60171705 0.44325265 0.42747137
-0.30421314 0.3419318 0.34627062 0.5451969 -0.26709124 0.027969014 -0.10347524 0.51993126
0.64144695 0.74798554 0.3070251 -0.20001505 0.54876506 0.22609137 -0.0612603 0.5079233

fc3.bias f4 [24]
00000000: 88bb e9bf f86b 34bf 35b5 3abf ea1c 82bf
00000010: 5d15 b9bf baa4 b4bf d91b 45bf ac20 87bf
00000020: abd8 b0bf 9d9f 32bf c5d0 59bf 55f2 54bf
00000030: b11a 38bf 1690 62bf 3f6e 84bf 0261 b0bf
00000040: 441f 62bf 2a20 dfbf 3ee3 b4bf ca83 cbbf
00000050: c864 ecbf 9314 57bf 492f dcbf 52de 46bf
-1.8260355 -0.7047725 -0.7293275 -1.0165074 -1.4459645 -1.411277 -0.7699562 -1.0556846
-1.3816122 -0.697748 -0.8508418 -0.8318227 -0.7191573 -0.8850111 -1.0346144 -1.3779604
-0.8832896 -1.7431691 -1.4131849 -1.5899594 -1.8468256 -0.8401577 -1.720193 -0.77682984

fc4.weight f4 [2, 24]
00000000: 4e22 97bf 3323 2ebb 2188 ffbc 84c1 99be
00000010: 2fbe 35bf d106 61bf 146b 603d b991 5bbe
00000020: 73b8 45bf 38ba ac3f ac85 eebc 5f57 90bd
00000030: 3351 853d 9fd4 e1be bd6d 15be 3a9f 22bf
00000040: 23fa 5dbd f26f 8ebf b27f 33bf 1c9b 79bf
00000050: a195 8dbf 3c55 fcbc 7818 75bf 60d1 a13f
00000060: c07a 6f40 0e8b 0d3f 905b a83e 90de 2e40
00000070: d1cb 7340 00d6 8740 ac66 c23e 3434 0840
00000080: 3531 5640 1c75 b1bf d934 3f3f aa11 7d3f
00000090: 30da b83e 1268 7b3f 9a74 2540 9c53 6840
000000a0: 8ff3 803f 46a1 6040 87e1 7040 bd31 7940
000000b0: 0567 8440 b522 b83e 98ca 8140 87cd a1bf
-1.1807344 -0.0026571273 -0.031192841 -0.30030453 -0.7099332 -0.87901026 0.054789618 -0.21442308
-0.7723457 1.349433 -0.029116474 -0.07047915 0.06509628 -0.4410753 -0.14592643 -0.6352421
-0.054193627 -1.1127913 -0.7011672 -0.97502303 -1.1061288 -0.030802362 -0.9574046 1.2642021
3.741867 0.55290306 0.32882357 2.7323341 3.809315 4.244873 0.37968957 2.1281862
3.3467534 -1.3863864 0.74690014 0.9885508 0.36103964 0.98205674 2.5852418 3.630103
1.0074328 3.5098433 3.763765 3.8936608 4.1375756 0.3596398 4.0559807 -1.2640847

fc4.bias f4 [2]
00000000: 9e25 e83f c269 26bf
1.813648 -0.65005124

fc5.weight f4 [1, 2]
00000000: 4c66 6840 24a4 53c0
3.6312437 -3.3068933
