T3-2024/Federated_Learning/Improved_FL/SRC/FL_parameters/client0.pth (torch, 34104 bytes, 9 tensors)

fc1.weight f4 [48, 12]
0	0x3d973327	0.073828034
1	0xbb26afe3	-0.0025434426
2	0x3f172210	0.5903635
3	0xbd27eeb1	-0.04099912
4	0x3cb3fae6	0.021970224
5	0x3e5ee6a3	0.21767668
6	0x3e2262a0	0.15857935
7	0x3e17ae96	0.14812693
8	0xbe9d2a26	-0.3069622
9	0x3dd64cc5	0.104638614
10	0x3ec4d39c	0.38442695
11	0x3d94d02a	0.07266267
12	0x3cb13c71	0.021635266
13	0xbeb3f7d3	-0.35150012
14	0xbeed730a	-0.4637683
15	0x3de020e8	0.10943776
16	0x3ed9f915	0.42572847
17	0xbedf966d	-0.43669453
18	0xbeb2bf28	-0.34911466
19	0x3ce0e46c	0.02745267
20	0xbd24f027	-0.04026809
21	0x3db28790	0.08717263
22	0xbe1848d4	-0.14871532
23	0xbd6899f2	-0.05678744
24	0xbd85a2c1	-0.065251835
25	0xbd37f0cd	-0.04490738
26	0xbf634e3e	-0.88791263
27	0x3d189c94	0.0372587
28	0x3e9fd19e	0.31214613
29	0xbefdef28	-0.49596524
30	0x3e66271f	0.22475861
31	0x3e510026	0.20410213
32	0xbdf9c745	-0.12196211
33	0x3e379a17	0.17929874
34	0xbd35863f	-0.04431748
35	0xbd48dec7	-0.049040582
36	0xbe05e87e	-0.1307697
37	0xbd16d823	-0.036827218
38	0xbf58a165	-0.8462127
39	0xbc9e3007	-0.01931001
40	0xbd407561	-0.04698694
41	0xbe5a35b5	-0.2130955
42	0xbe17784a	-0.1479198
43	0xbd6383bb	-0.05554555
44	0xbbfead7b	-0.0077721453
45	0xbab53e17	-0.0013827708
46	0xbbcd0f60	-0.0062579364
47	0x3ca90d52	0.020636234
48	0xbd499423	-0.04921354
49	0x3d205c6d	0.039150644
50	0xbf63d6c0	-0.8899956
51	0x3d0e1789	0.034690414
52	0x3c5f48c5	0.013628189
53	0xbe9b1a15	-0.30293337
54	0x3d6ffa5f	0.05858838
55	0xbdac2638	-0.08405727
56	0x3bc18cb0	0.005906664
57	0xbcc1422d	-0.023591125
58	0xbcfef4da	-0.031122614
59	0x3d65d2b7	0.056109156
60	0x3d6934a6	0.056934975
61	0x3e169dcf	0.14708637
62	0xbebf6ebf	-0.3738918
63	0xbbb0a6b0	-0.0053909644
64	0xbe759a40	-0.23984623
65	0x3eb097ca	0.34490806
66	0xbf678a90	-0.90445805
67	0xbdaf4331	-0.085577376
68	0x3de6eca8	0.11275607
69	0x3d512ebb	0.051069956
70	0xbeb37f7d	-0.35058203
71	0x3e685d63	0.22691874
72	0x3c227c44	0.009917323
73	0x3e2e6736	0.1703156
74	0xbf4e60ea	-0.8061663
75	0xbdac5181	-0.08413983
76	0x3d438cb9	0.047741625
77	0xbe9392f5	-0.28823057
78	0x3e306806	0.17227182
79	0xbd0a2752	-0.033728905
80	0x3d828c7e	0.06374453
81	0xbceddcd0	-0.029035956
82	0xbdb37695	-0.08762852
83	0x3c6cccc5	0.014453118
84	0x3e6c8132	0.23096159
85	0x3d82b6dc	0.06382534
86	0xbe215efe	-0.15758893
87	0xbe19d3de	-0.15022227
88	0xbd8faddd	-0.07015584
89	0xbf20ea72	-0.62857735
90	0xbf11736b	-0.5681674
91	0x3d5c529b	0.053789716
92	0x3d0168da	0.031594135
93	0x3df88967	0.121355824
94	0x3c6b1884	0.014349107
95	0x3a60058e	0.00085457496
96	0xbd1c94a5	-0.038227696
97	0xbcb9c31f	-0.022676049
98	0xbf839e56	-1.0282695
99	0x3df1ee27	0.11813002
100	0x3d9dce50	0.077053666
101	0x3c06e885	0.008234148
102	0xbe1d9b8d	-0.15391369
103	0xbd69311a	-0.056931593
104	0x3c6f119b	0.0145916
105	0xbd16d7a5	-0.03682675
106	0x3d0e9ad7	0.034815636
107	0x3d3ef3ba	0.046619155
108	0x3d4495fd	0.047994602
109	0xbd68c20d	-0.056825686
110	0x3f3051e8	0.6887498
111	0x3e26eec7	0.16302024
112	0x3db52497	0.088448696
113	0xbb31e784	-0.002714605
114	0x3e0c3311	0.13691355
115	0x3d0c1634	0.034200862
116	0xbd877a18	-0.066150844
117	0x3dfec1ee	0.12439333
118	0x3e39c5f2	0.18141916
119	0x3cb37bbd	0.021909589
120	0x3e084676	0.13308129
121	0xbe7cd426	-0.24690303
122	0xbf200cfd	-0.6251982
123	0xbb55af89	-0.0032605848
124	0x3d5d57ae	0.054038696
125	0xbe8d1372	-0.27553898
126	0x3e7a1282	0.24421123
127	0x3c819c7d	0.01582169
128	0xbd83ddd7	-0.06438797
129	0xbdd7fcb2	-0.10546245
130	0xbdb09645	-0.08622412
131	0xbd18c9ba	-0.037301756
132	0xbcebb66e	-0.028773513
133	0x3a3f71df	0.000730304
134	0x3e25530c	0.16144961
135	0xbd8ef58e	-0.069804296
136	0xbf37a19c	-0.7173097
137	0x3d87b134	0.06625596
138	0xbf9ae712	-1.2101767
139	0x3c6c9b74	0.01444136
140	0x3d9daa54	0.07698503
141	0x3dffad04	0.12484172
142	0xbe2ca057	-0.1685804
143	0x3ce83952	0.028347645
144	0xbc188669	-0.00930939
145	0xbcca4a75	-0.024693707
146	0xbe7cc84c	-0.24685782
147	0x3d6e4b0d	0.058177043
148	0xbda514bb	-0.08060595
149	0xbef40cf2	-0.47666126
150	0xbf0ae4fc	-0.5425565
151	0xbd70ad3d	-0.058758963
152	0x3db36c29	0.08760864
153	0x3baf75b5	0.005354608
154	0xbdcc1a64	-0.09965971
155	0x3d9de55d	0.07709763
156	0x3d2dc58c	0.042424724
157	0x3e6b8899	0.23001327
158	0xbf667ccf	-0.9003419
159	0x3ba3b641	0.0049960916
160	0xbd43d440	-0.04780984
161	0xbef0c02e	-0.4702162
162	0x3ec50b06	0.38484973
163	0xbccc3def	-0.024931876
164	0xbc00aed4	-0.007854182
165	0x3d9ee5ab	0.077586494
166	0xbd9fb7af	-0.07798707
167	0xbd225967	-0.039636042
168	0xbe10166b	-0.14071052
169	0x3c0ec1fe	0.0087132435
170	0xbf580a43	-0.8439066
171	0x3d879ada	0.066213325
172	0xbd7ddf49	-0.06198052
173	0xbe0502e9	-0.12989391
174	0x3e8e494f	0.27790305
175	0xbd005198	-0.031327814
176	0x3c72487c	0.014787789
177	0x3dcdf364	0.10056189
178	0xbca58b81	-0.020208122
179	0x3e38806e	0.18017742
180	0xbc7fe01b	-0.015617396
181	0x3d6d16fa	0.05788324
182	0x3f0f6bd1	0.5602389
183	0x3de51056	0.111847565
184	0x3e0d1084	0.13775831
185	0x3da3f024	0.080047876
186	0x3e050589	0.12990393
187	0xbd5ac88f	-0.053413924
188	0x3b809f47	0.0039252373
189	0x3d90dee4	0.07073763
190	0x3da35646	0.0797544
191	0x3d0f852b	0.03503911
192	0x3d9243e7	0.071418576
193	0xbd2642be	-0.040590994
194	0x3f27fe80	0.6562271
195	0x3dc70d2a	0.09719308
196	0x3e2da4f4	0.16957456
197	0x3db91957	0.09038036
198	0x3e123218	0.14276922
199	0xbc952fd3	-0.01821128
200	0x3d9a2adb	0.07527705
201	0x3da3199b	0.07963868
202	0x3e0948ea	0.13406721
203	0x3c5053b6	0.012715271
204	0xbe056ddd	-0.13030191
205	0x3d902071	0.07037438
206	0xbf51c447	-0.8194012
207	0xbd87edbc	-0.06637141
208	0xbca0b917	-0.019619508
209	0xbebb9c59	-0.3664272
210	0xbdd42a5f	-0.10359644
211	0xbbe792a5	-0.007067042
212	0xbd5a90b0	-0.05336064
213	0xbc9b7c0c	-0.018980049
214	0xbc872a47	-0.016499652
215	0x3d58d2d8	0.05293545
216	0x3de013f2	0.10941304
217	0xbe5a01f2	-0.21289805
218	0x3f2216ba	0.6331593
219	0x3d74154b	0.05959062
220	0x3de76ff7	0.113006525
221	0x3ca37072	0.019951079
222	0x3e3e9ce4	0.18614537
223	0xbfc37c38	-1.5272284
224	0xbdb879b6	-0.090075895
225	0x3e14f8e2	0.14548066
226	0x3e7d691e	0.2474713
227	0xbd1b1b73	-0.037867974
228	0x3defd9c9	0.11711461
229	0xbd082bae	-0.03324478
230	0xbf771406	-0.9651493
231	0xbd31b5f3	-0.04338641
232	0xbd83b0fa	-0.0643024
233	0xbe9f114c	-0.31067884
234	0x3df6d150	0.12051642
235	0xbb2c3012	-0.002627377
236	0x3d5d66d3	0.05405314
237	0x3d3385c8	0.043828756
238	0xbcdbf833	-0.026851749
239	0x3d290e5b	0.041273456
240	0xb9a65257	-0.00031723335
241	0x3d696c05	0.05698778
242	0x3e492aed	0.19645281
243	0xbd98e285	-0.0746508
244	0xbf41d951	-0.75722224
245	0x3d277ed4	0.040892437
246	0xbf9ba433	-1.2159485
247	0x3d40a701	0.047034267
248	0x3d3e5465	0.046467204
249	0x3d3ba682	0.04581309
250	0xbe31f94e	-0.17380258
251	0x3d4b1717	0.049582567
252	0x3dc78f72	0.09744157
253	0xbd4f9ddb	-0.050687652
254	0xbf78f14d	-0.97243196
255	0xbcf1f83d	-0.029537315

fc1.bias f4 [48]
0	0xbf16ef9a	-0.5895935
1	0x3e47869b	0.19484942
2	0xbbf9f918	-0.0076285712
3	0x3f11a8e9	0.5689836
4	0x3ed9836e	0.42483085
5	0x3da0ad8f	0.07845604
6	0x3e8d0633	0.27543792
7	0xbe48f804	-0.1962586
8	0x3ed9c0af	0.42529818
9	0xbf2bb563	-0.6707365
10	0x3edc89db	0.43073925
11	0x3e9af79a	0.3026703
12	0x3ecaba54	0.39595282
13	0x3dd3d4ca	0.10343321
14	0xbd9cf443	-0.07663777
15	0xbf2855af	-0.6575574
16	0xbf42c470	-0.7608099
17	0x3f15814d	0.5840042
18	0xbecfbe68	-0.40574956
19	0x3ed499fc	0.4152373
20	0x3e96e4cf	0.29471442
21	0x3e918d67	0.28428194
22	0xbeffc880	-0.49957657
23	0x3ea3f176	0.32020158
24	0x3e85c388	0.2612574
25	0x3f20662e	0.62655914
26	0xbeb75704	-0.35808575
27	0x3eeb4ad6	0.45955533
28	0xbe801759	-0.25017813
29	0x3f0aa572	0.541587
30	0x3efe49d5	0.49665704
31	0xbf2eeab0	-0.68326855
32	0xbf438c53	-0.7638599
33	0x3e9588ee	0.29206032
34	0x3e432b34	0.1905945
35	0x3e7a6be3	0.24455218
36	0xbec99526	-0.39371604
37	0x3f06609a	0.5249115
38	0x3de4c824	0.11170986
39	0x3ea85846	0.32879847
40	0x3ea9c838	0.33160567
41	0x3d17789a	0.03698025
42	0x3f097209	0.5368963
43	0xbe423ec5	-0.18969257
44	0xbe4db299	-0.20087661
45	0xbf045245	-0.51688033
46	0xbf1b62c8	-0.60697603
47	0x3ebc55e6	0.36784285

fc2.weight f4 [96, 48]
0	0x3ee6ada0	0.4505434
1	0xbf039f0d	-0.5141457
2	0xbf3fa425	-0.7485984
3	0xbef919da	-0.48652536
4	0xbea9ea08	-0.33186364
5	0xbf4ad7b6	-0.792354
6	0xbf33b73e	-0.7020148
7	0xbf174392	-0.5908748
8	0xbf5467f1	-0.829711
9	0x3eef9f6a	0.4680131
10	0xbe3fae8a	-0.18718925
11	0xc0048100	-2.0703735
12	0xbf1120e0	-0.5669079
13	0xbf06daf0	-0.5267782
14	0xbf16ad81	-0.58858496
15	0x3f06e09e	0.5268649
16	0x3f217704	0.6307223
17	0xbf089082	-0.533455
18	0x3ef81af9	0.48458079
19	0xbea79705	-0.32732406
20	0xc00b34a7	-2.1750886
21	0xbeb38b38	-0.35067153
22	0x3eb272cb	0.34853205
23	0xc008afae	-2.1357226
24	0xc015c724	-2.3402796
25	0xbed790fc	-0.42102802
26	0x3e470277	0.19434534
27	0xbe9ff7b4	-0.3124367
28	0x3dead329	0.11466057
29	0xbe961aa5	-0.29317203
30	0xbebce092	-0.36890084
31	0x3eb8c9fa	0.36091596
32	0x3f36e281	0.7143937
33	0xbeff04f4	-0.49808466
34	0xbf0036da	-0.50083697
35	0xbffc7573	-1.9723343
36	0x3ebdc870	0.37066984
37	0xbf02afab	-0.510493
38	0xbf3a8195	-0.72853976
39	0xbf2d5c20	-0.67718697
40	0xbef5cef9	-0.4800947
41	0xbf47fd21	-0.7812062
42	0xbf2d85f0	-0.677825
43	0xbdbdccab	-0.09267553
44	0x3e06e837	0.1317452
45	0x3f00a4f2	0.50251687
46	0x3f122421	0.5708638
47	0xbf501909	-0.812882
48	0x3e58d3b8	0.21174514
49	0xbf5d4e83	-0.86447924
50	0xbf2eac49	-0.68231636
51	0xbf50ed41	-0.8161202
52	0xbf1b13c4	-0.60577035
53	0xbf976c27	-1.182988
54	0xbf599adb	-0.85001916
55	0xbf2ad84f	-0.6673631
56	0xbf3442b4	-0.7041428
57	0x3ef359f0	0.47529554
58	0xbec65c79	-0.38742426
59	0xbfa3bcb9	-1.2791969
60	0xbf43bf98	-0.76464224
61	0xbf309b1a	-0.68986666
62	0xbf08394c	-0.5321243
63	0x3ed0b009	0.40759304
64	0x3f19f496	0.60138834
65	0xbf1968bc	-0.59925437
66	0x3ec9d9ac	0.39423883
67	0xbf0ab613	-0.54184073
68	0xbfb2c5ec	-1.3966651
69	0xbf1db017	-0.61596817
70	0x3e76fd3d	0.2412004
71	0xbfa27bd9	-1.2694045
72	0xbfbef3fb	-1.4918207
73	0xbecde4f5	-0.40213743
74	0x3e83962d	0.25700513
75	0xbef68758	-0.48150134
76	0x3e0af141	0.13568594
77	0xbf2c59c9	-0.673245
78	0xbf374fe8	-0.716063
79	0x3f18ce28	0.5968957
80	0x3ea0fe65	0.31444088
81	0xbf71e7c8	-0.94494295
82	0xbf64e0d8	-0.89405584
83	0xbf96c85b	-1.1779894
84	0x3e25ecb4	0.16203576
85	0xbf1afd2f	-0.6054258
86	0xbf81f0f7	-1.0151662
87	0xbf8677bf	-1.0505294
88	0xbf903e6e	-1.1269052
89	0xbee5affe	-0.44860834
90	0xbf3c434d	-0.7354019
91	0xbe0035a5	-0.12520464
92	0xbdf64f3c	-0.120268315
93	0x3e87fab8	0.2655847
94	0x3dbdaa8d	0.092610456
95	0xbf6d5763	-0.92711467
96	0x3df0cfa4	0.11758354
97	0xbf7c4da9	-0.98556
98	0xbf63bcaa	-0.88959754
99	0xbf22d0bf	-0.6359977
100	0xbee01e21	-0.43772987
101	0xbf9bb5a6	-1.216481
102	0xbf21dae2	-0.63224614
103	0xbf714746	-0.9424938
104	0xbf6fff1b	-0.93748635
105	0x3ee524b8	0.44754577
106	0xbe8f9c14	-0.28048766
107	0xbfe63a6c	-1.7986579
108	0xbf2c73fe	-0.6736449
109	0xbeeffcaf	-0.4687247
110	0xbf42561b	-0.75912637
111	0x3ed6c2b6	0.41945428
112	0x3f1599a4	0.5843756
113	0xbf0430d5	-0.5163701
114	0x3f16a990	0.5885248
115	0xbec28c21	-0.37997535
116	0xbff16056	-1.8857524
117	0xbe6b5669	-0.22982182
118	0x3f087c6e	0.53314865
119	0xbfe4483e	-1.7834547
120	0xc00182da	-2.0236115
121	0xbeb787af	-0.35845706
122	0x3e8d0511	0.27542928
123	0xbe565e9b	-0.20934527
124	0xbd53e973	-0.051736306
125	0xbf0d4752	-0.5518695
126	0xbefbaf73	-0.49157295
127	0x3f08a3d2	0.5337497
128	0x3f26a3e6	0.6509384
129	0xbf5c0fe8	-0.8596177
130	0xbf5f40d6	-0.87208307
131	0xbfd1daa1	-1.6394845
132	0x3e085970	0.13315368
133	0xbf147303	-0.57987994
134	0xbf81d01f	-1.0141639
135	0xbf242f86	-0.64135015
136	0xbf4a6700	-0.79063416
137	0xbf29f464	-0.66388535
138	0xbf351a4f	-0.7074327
139	0xbd9296d5	-0.07157675
140	0x3dda1a7f	0.10649585
141	0x3f0d0770	0.55089474
142	0x3ed47606	0.41496295
143	0xbf8207fa	-1.0158684
144	0x3e3684b9	0.17824067
145	0xbf4d77cf	-0.8026094
146	0xbf2ff390	-0.6873102
147	0xbf62d85e	-0.886114
148	0xbf1e3f3e	-0.6181525
149	0xbf80626f	-1.003004
150	0xbf4a2cee	-0.7897481
151	0xbf0a7ae2	-0.54093754
152	0xbf687680	-0.90805817
153	0x3eb69a9a	0.35664827
154	0xbeb8571e	-0.36003965
155	0xbfa25105	-1.2680975
156	0xbf47e5ec	-0.7808521
157	0xbf4ba6ce	-0.795514
158	0xbea9d1fb	-0.33168015
159	0x3e75c217	0.2399982
160	0x3f03c40d	0.51471025
161	0xbf3980df	-0.72462267
162	0x3de98593	0.114024304
163	0xbecc101a	-0.39856035
164	0xbfa36cb9	-1.2767555
165	0xbf31892f	-0.6934995
166	0xbe054d23	-0.13017707
167	0xbf9bb2dd	-1.216396
168	0xbfa44ae3	-1.2835354
169	0xbf528ff7	-0.8225092
170	0x3d85f12b	0.0654014
171	0xbe9c8cc4	-0.30576146
172	0x3e11226e	0.1417329
173	0xbf550f62	-0.832266
174	0xbf1d095a	-0.61342394
175	0x3ed8e205	0.4235994
176	0x3f0e162a	0.5550257
177	0xbf725219	-0.9465652
178	0xbf6269d7	-0.8844275
179	0xbf8a3686	-1.0797889
180	0x3d0a8712	0.03382022
181	0xbf329597	-0.69759506
182	0xbf85375b	-1.0407518
183	0xbf6f9401	-0.9358521
184	0xbf71e201	-0.9448548
185	0xbf026f8e	-0.5095147
186	0xbf69c23f	-0.9131202
187	0x3d2691d5	0.04066642
188	0x3cebf9d8	0.028805658
189	0x3eac606a	0.33667308
190	0x3e30f77d	0.1728191
191	0xbf6b1f81	-0.91844946
192	0xbe0c34ba	-0.13691989
193	0x3f177a06	0.5917057
194	0x3ed4d650	0.41569757
195	0x3f297322	0.66191304
196	0x3f3744c5	0.7158931
197	0x3f56363a	0.83676493
198	0x3ee76cd4	0.45200217
199	0x3e97dd43	0.29660997
200	0x3eb3ff42	0.35155684
201	0x39ec6296	0.0004508688
202	0x3f0e2ad6	0.5553411
203	0x3f5adb27	0.8549065
204	0x3f216548	0.6304517
205	0x3eef09a2	0.46687037
206	0x3e51506e	0.20440838
207	0xbd94458d	-0.07239828
208	0xbe2078e0	-0.1567111
209	0x3f782d2d	0.9694393
210	0xbcbbd2a1	-0.022927584
211	0x3f20814a	0.6269728
212	0x3f33b40d	0.7019661
213	0x3f471c05	0.7777713
214	0xbddf18ee	-0.10893427
215	0x3f24c3ff	0.64361566
216	0x3f28fdf8	0.66012526
217	0x3f74d48f	0.9563684
218	0xbd64ed6b	-0.055890482
219	0x3f5630de	0.83668315
220	0xbe0d5145	-0.13800533
221	0x3f29cd4e	0.66328895
222	0x3f24277c	0.6412275
223	0xbd9bc7b1	-0.076064475
224	0xbd815a9e	-0.06316112
225	0x3f31e459	0.69489056
226	0x3f37434e	0.71587074
227	0x3f4910f7	0.7854151
228	0xbd2f6eb8	-0.0428302
229	0x3f3ddc11	0.7416392
230	0x3f36bc03	0.71380633
231	0x3f590b28	0.8478265
232	0x3f506c51	0.8141528
233	0x3ef87c24	0.48532212
234	0x3ed7bd9c	0.42136848
235	0x3dc0ff11	0.0942365
236	0x3e0df4fa	0.13862982
237	0xbc6a00a2	-0.014282377
238	0xbd4b130a	-0.049578704
239	0x3ef995d4	0.48747122
240	0xbdb362cf	-0.087590806
241	0x3f0eed9b	0.5583131
242	0x3eda965c	0.4269284
243	0x3f066e65	0.525122
244	0x3f38e8af	0.72230047
245	0x3f24fb5e	0.64446056
246	0x3ed4074a	0.4141181
247	0x3ed12a3f	0.40852544
248	0x3f857741	1.0427018
249	0xbc75ae6f	-0.0149952015
250	0x3eb45b1b	0.35225758
251	0x3fbadb7b	1.459823
252	0x3f32df23	0.6987173
253	0x3ec856d4	0.39128745
254	0x3ec80a64	0.39070427
255	0xbd0c9a4f	-0.034326848

fc2.bias f4 [96]
0	0x3f3be7e0	0.7340069
1	0x3e683368	0.2267586
2	0x3eec53bb	0.4615763
3	0x3e1f0d2c	0.15532368
4	0x3de437e3	0.11143472
5	0x3d3aef65	0.04563846
6	0x3f18d0e8	0.59693766
7	0x3dfc5a9e	0.12321971
8	0x3cd0289d	0.02540999
9	0x3f199966	0.5999969
10	0xbf415114	-0.7551434
11	0x3d08cd70	0.033399045
12	0x3da1a43d	0.07892654
13	0x3e12b27b	0.14325897
14	0x3dcc5f67	0.09979134
15	0x3e2df1b9	0.16986741
16	0xbcf6f1b8	-0.030144557
17	0x3e7377f7	0.23776232
18	0x3dc41fa4	0.095763475
19	0x3dec7458	0.11545628
20	0xbeb99110	-0.36243486
21	0xbf79e560	-0.97615623
22	0xbf1c2b7c	-0.6100385
23	0x3e43e71d	0.19131131
24	0x3dbac282	0.09119131
25	0x3da45019	0.0802309
26	0x3f51c61b	0.8194291
27	0x3ee5a35a	0.4485119
28	0x3dccc49d	0.099984385
29	0x3e504f46	0.2034274
30	0x3e54dcb2	0.20787314
31	0x3e274cf5	0.1633795
32	0x3f515e0c	0.8178413
33	0xbe225a14	-0.15854675
34	0xbf552551	-0.83260065
35	0x3e11548a	0.14192405
36	0x3f2bc737	0.6710085
37	0xbe812a5f	-0.2522764
38	0x3f1c0b08	0.6095433
39	0xbf274304	-0.6533663
40	0x3f03784e	0.51355445
41	0x3c9ab8dc	0.018886976
42	0x3e72c357	0.23707329
43	0x3e219865	0.1578079
44	0x3e784bdf	0.24247693
45	0x3e23c9c9	0.15994944
46	0x3de31efc	0.11089894
47	0xbdc777a1	-0.09739614
48	0x3ce2bbe6	0.027677488
49	0x3da5c752	0.08094658
50	0x3d96818f	0.0734893
51	0x3dbee4e9	0.09321005
52	0x3de50fca	0.11184652
53	0xbfaeb6c7	-1.3649529
54	0xbe57dba6	-0.21079883
55	0x3dfd4bd9	0.123679824
56	0x3ddd290c	0.10798845
57	0x3d2b3a39	0.041803572
58	0x3e2d16f4	0.16903287
59	0x3d55236a	0.052035727
60	0x3d4f2af9	0.05057809
61	0xbee6f9ec	-0.4511255
62	0x3ea84313	0.32863674
63	0x3ddbc786	0.107314155
64	0x3d390a84	0.045176044
65	0x3d8baf16	0.06820504
66	0x3d040763	0.032233607
67	0x3e42364e	0.18966028
68	0xbfb1c4b6	-1.3888156
69	0x3f3888cc	0.72083735
70	0x3e8cc5c9	0.27494648
71	0x3e159acf	0.14609836
72	0x3f17ca3d	0.59292966
73	0x3f4318a9	0.76209503
74	0x3e708013	0.23486356
75	0x3c35f546	0.011105841
76	0x3e591257	0.21198402
77	0x3eb8859a	0.3603943
78	0x3ed2710e	0.4110188
79	0x3e0b249c	0.13588184
80	0xbdc59bfe	-0.09648894
81	0x3eac339e	0.3363313
82	0x3d8b74a4	0.06809357
83	0x3df210f3	0.11819639
84	0x3de91bd5	0.11382262
85	0x3ea77f9a	0.3271454
86	0x3f4cad41	0.79951864
87	0x3de5e483	0.11225226
88	0x3d32609c	0.043549165
89	0x3f3ca243	0.7368509
90	0x3d1e1120	0.03859055
91	0xbf36b11d	-0.71364003
92	0x3ddf7184	0.10910323
93	0x3d12c4e9	0.03583232
94	0x3d89e954	0.06733957
95	0x3f36fb2a	0.71476996

fc3.weight f4 [24, 96]
0	0xbee9521f	-0.45570466
1	0xbf2a29c8	-0.66470003
2	0xbf2f3d2e	-0.6845273
3	0xbf3b1961	-0.730856
4	0xbd7b7bb0	-0.061397254
5	0x3d2bd90a	0.04195503
6	0xbf4b0cda	-0.79316485
7	0xbd0f0825	-0.034919877
8	0xbd0619d5	-0.03273948
9	0xbf3c7e86	-0.7363056
10	0x3e25b98e	0.16184065
11	0xbc8f87e3	-0.01752085
12	0xbd0d7372	-0.034533925
13	0xbd962522	-0.07331301
14	0x3c256a44	0.0100961365
15	0x3c4acffa	0.012378687
16	0x3d2c8fe1	0.0421294
17	0xbd7739cb	-0.06035785
18	0x3bd1b5c1	0.0063998406
19	0xbd7b5191	-0.061357085
20	0x3e11b329	0.142285
21	0x3e864a14	0.26228392
22	0x3e0ac0d3	0.13550119
23	0xbf2500bb	-0.6445424
24	0xbf8abb7b	-1.0838464
25	0xbc958e5a	-0.018256355
26	0xbf1f75f9	-0.62289387
27	0xbf218eaf	-0.6310834
28	0x3c3e516a	0.01161609
29	0xbf0d7c89	-0.5526815
30	0xbedf46ff	-0.43608853
31	0xbf4dab40	-0.8033943
32	0xbddbf4ca	-0.10740049
33	0x3e054553	0.13014726
34	0x3e8283f0	0.25491285
35	0x3c8ec221	0.017426552
36	0xbf0dc3b6	-0.55376756
37	0x3dc5b322	0.096533075
38	0xbf2ad78c	-0.6673515
39	0x3ddedb36	0.10881655
40	0xbec84a36	-0.39119118
41	0xbc07ded0	-0.008292869
42	0xbe6f6b4d	-0.23380776
43	0xbc0df420	-0.008664161
44	0xbf18b8ea	-0.59657156
45	0xbd04668c	-0.03232436
46	0xbd548aa1	-0.05189002
47	0x3cd8f750	0.026485115
48	0xbf6eabb0	-0.93230724
49	0x3d27ed0d	0.040997554
50	0xbbcc2ece	-0.0062311655
51	0x3d4ed7a3	0.050498616
52	0xbf4a1b64	-0.78948045
53	0x3f6f456e	0.93465316
54	0x3e2a0756	0.16604361
55	0x3cb22d92	0.021750245
56	0x3d7aeb0f	0.061259326
57	0x3c382899	0.011240148
58	0x3d64867e	0.055792324
59	0xbf40c9e4	-0.7530806
60	0x3d1d3947	0.038384702
61	0x3e81fcb2	0.25388104
62	0xbf2d7acd	-0.67765504
63	0xbdb33983	-0.08751204
64	0xbcf0a1bd	-0.029373998
65	0x3a9fc5dd	0.0012189705
66	0xbcb909d2	-0.02258769
67	0xbf16b2e2	-0.58866704
68	0x3efc7573	0.49308357
69	0xbf18dccc	-0.5971191
70	0xbd5cbb6c	-0.053889677
71	0xbf29315c	-0.6609094
72	0xbf1fe8cc	-0.62464595
73	0xbf0fe6fc	-0.5621183
74	0xbf2f37ad	-0.6844433
75	0xbd8f733f	-0.07004403
76	0xbf00ccf2	-0.5031272
77	0xbef23f8c	-0.47314107
78	0xbf21f676	-0.63266695
79	0xbbb90af8	-0.0056470595
80	0x3dfd7686	0.12376122
81	0xbf324b68	-0.6964631
82	0x3d9ceb92	0.07662119
83	0x3c6039c1	0.013685645
84	0x3be89af5	0.0070985504
85	0xbf4d3bc8	-0.80169344
86	0xbe02604d	-0.12732048
87	0xbd2f4ecf	-0.042799767
88	0xbc8fbbc6	-0.017545592
89	0xbf2ba5a2	-0.6704961
90	0xbd578ceb	-0.052624624
91	0x3e421768	0.18954241
92	0x3d117d29	0.035519753
93	0x3c4bfe1a	0.012450719
94	0xbd38cc57	-0.04511675
95	0xbf20a412	-0.6275035
96	0xbbeb0339	-0.007172015
97	0xbe69b514	-0.22822982
98	0xbcf0e64a	-0.029406685
99	0xbeb4880d	-0.35260049
100	0x3e85b30a	0.26113158
101	0x3e95dfac	0.2927221
102	0xbcb82883	-0.022480255
103	0x3dbe04d6	0.09278266
104	0x3e6af8bd	0.22946449
105	0xbd3610f4	-0.04444976
106	0x3efbf4e3	0.4921027
107	0x3e6975f0	0.22798896
108	0x3e6f93f6	0.23396286
109	0x3e2020b1	0.15637471
110	0x3e4cbcbc	0.19993871
111	0x3d84970d	0.06474123
112	0x3ec11861	0.37713912
113	0x3e1462b5	0.14490779
114	0x3dfe2380	0.12409115
115	0x3e8e3c48	0.27780366
116	0x3e7f2b78	0.24918926
117	0x3f2ca9ac	0.674464
118	0x3f16db8c	0.5892875
119	0xbddcacf0	-0.10775173
120	0xbefddb20	-0.49581242
121	0x3e71db94	0.23618919
122	0xbdc46f52	-0.09591545
123	0xbdc1f33c	-0.094702214
124	0x3e891997	0.26777336
125	0xbe89abd0	-0.26888895
126	0xbc405c43	-0.011740747
127	0xbe6f672b	-0.23379199
128	0xbd70001f	-0.058593865
129	0x3e63b96e	0.22238705
130	0x3ebb338c	0.36562765
131	0x3eb385f9	0.3506315
132	0x3d4cedee	0.050031595
133	0x3eb07ab1	0.34468606
134	0x3c05ea6f	0.008173569
135	0x3ec3a03b	0.38208184
136	0xbded4dd6	-0.11587112
137	0x3e177898	0.14792097
138	0x3c3e6c3c	0.011622485
139	0x3e8b0042	0.27148634
140	0xbe674551	-0.22585036
141	0x3e79702a	0.24359193
142	0x3e847cf6	0.25876588
143	0x3ea4218c	0.32056844
144	0xbec47321	-0.38369086
145	0x3ea1aac0	0.31575584
146	0x3ddd8cbe	0.1081786
147	0x3ea22ac2	0.31673247
148	0xbe900e0e	-0.28135723
149	0x3eb4e056	0.35327405
150	0x3e100a48	0.14066422
151	0x3ea7bc37	0.32760784
152	0x3eb1782b	0.34661993
153	0x3eb9876c	0.3623613
154	0xbc9c4e9b	-0.01908045
155	0xbf03e99c	-0.51528335
156	0x3dc05517	0.093912296
157	0x3e4e0327	0.2011839
158	0xbe33739c	-0.1752457
159	0x3ee2ac28	0.4427197
160	0x3e28a660	0.16469717
161	0x3e27a75d	0.16372438
162	0x3ea0b216	0.3138587
163	0xbe48e5df	-0.19618939
164	0x3f297082	0.661873
165	0xbc94c6ed	-0.018161261
166	0x3e13425c	0.14380783
167	0xbd301e6a	-0.042997755
168	0x3c7484f4	0.014924277
169	0xbccb2f63	-0.02480287
170	0xbe40b158	-0.18817651
171	0x3ea138d8	0.3148868
172	0xbe66c2f4	-0.22535306
173	0xbe081739	-0.13290109
174	0xbe16468a	-0.14675346
175	0x3e56a5a6	0.20961627
176	0x3dc90eaa	0.0981725
177	0xbe12af48	-0.14324677
178	0x3e940ab4	0.28914416
179	0x3e0a481b	0.13504069
180	0x3d7461ef	0.05966371
181	0xbe33e3ea	-0.17567411
182	0xbe58e3c2	-0.21180633
183	0x3eb692d6	0.35658902
184	0x3e7268f6	0.23672852
185	0xbd70063f	-0.058599707
186	0x3e9283b8	0.28616118
187	0x3f0162ca	0.50541365
188	0x3e8935b5	0.26798788
189	0x3de119ab	0.10991224
190	0x3e559782	0.20858577
191	0xbd25ccab	-0.04047839
192	0xbbca317b	-0.0061704493
193	0xbdeba800	-0.11506653
194	0xbd36c550	-0.044621766
195	0xbe830b30	-0.25594473
196	0x3f3dc3a1	0.7412663
197	0x3ef2e651	0.47441342
198	0xbde80ec7	-0.113309436
199	0x3f1220df	0.5708141
200	0x3f1bcc23	0.6085836
201	0xbd85cf63	-0.065336965
202	0x3ea60b88	0.32430673
203	0x3ecff15c	0.4061383
204	0x3f1aa161	0.60402495
205	0x3eeb7d3a	0.45993978
206	0x3edae276	0.427509
207	0x3ecef750	0.4042306
208	0x3f3fdf8f	0.749505
209	0x3e6a0c84	0.22856337
210	0x3decabc6	0.11556201
211	0x3f000648	0.50009584
212	0x3ea332a8	0.31874585
213	0x3ec0c5e2	0.37650973
214	0x3f2c0a1e	0.6720294
215	0xbdc579e4	-0.096423894
216	0xbe7574db	-0.23970358
217	0x3f1204c5	0.5703853
218	0xbd73e187	-0.05954125
219	0xbd9ec5e9	-0.07752592
220	0x3f1ac926	0.6046318
221	0xbe313098	-0.17303693
222	0xbe0d92df	-0.13825558
223	0xbe463d63	-0.19359355
224	0xbe2c1377	-0.168043
225	0x3ee357cf	0.4440293
226	0x3e9a0e21	0.30088905
227	0x3f12a4d6	0.5728277
228	0xbe319a32	-0.17343977
229	0x3eb882fe	0.3603744
230	0xbd74b5c8	-0.059743673
231	0x3e99ada6	0.30015296
232	0xbe31f073	-0.1737688
233	0x3ee5969c	0.44841468
234	0x3cad9003	0.021186834
235	0x3f2293a0	0.6350651
236	0xbdd24e3c	-0.10268828
237	0x3f207e24	0.62692475
238	0x3ebb506c	0.36584795
239	0x3ee02c7f	0.43783948
240	0xbe53ec66	-0.20695648
241	0x3ec472cf	0.38368842
242	0x3e9cb311	0.30605367
243	0x3ee2528c	0.44203603
244	0xbe67ff8d	-0.22656079
245	0x3ce8e144	0.028427728
246	0xbe03ee8e	-0.1288397
247	0x3f174e27	0.59103626
248	0x3f0c660c	0.5484321
249	0x3f3a2506	0.72712743
250	0x3ed1bf8f	0.4096646
251	0xbe519ae3	-0.20469241
252	0x3f113420	0.5672016
253	0x3e66bc2e	0.22532722
254	0xbdd9e880	-0.10640049
255	0x3edf52f4	0.43617976

fc3.bias f4 [24]
0	0xbfedd1b2	-1.8579619
1	0xbf246f58	-0.642324
2	0xbf3cbba2	-0.73723805
3	0xbf86704c	-1.050302
4	0xbfbd01e4	-1.4766202
5	0xbfbdaacb	-1.4817747
6	0xbf483dbe	-0.7821921
7	0xbf8ebd5d	-1.1151539
8	0xbfb30922	-1.3987162
9	0xbf30a445	-0.69000655
10	0xbf5d21a2	-0.86379445
11	0xbf570600	-0.8399353
12	0xbf2f358c	-0.6844108
13	0xbf46753b	-0.7752263
14	0xbf8d0385	-1.1016699
15	0xbfb9b3fc	-1.4508052
16	0xbf5ee68d	-0.8707054
17	0xbfdf65fb	-1.7452997
18	0xbfbb2fcd	-1.4623963
19	0xbfcba7e4	-1.5910611
20	0xbfec3bff	-1.8455809
21	0xbf54e359	-0.83159405
22	0xbfe189ca	-1.7620175
23	0xbf3d1743	-0.7386362

fc4.weight f4 [2, 24]
0	0xbf8a555e	-1.0807302
1	0x3baf1ca9	0.0053439927
2	0x3d08de2b	0.033415
3	0xbec18558	-0.37797046
4	0xbf5f5202	-0.8723451
5	0xbf617149	-0.88063484
6	0x3d37bdef	0.04485887
7	0xbe813988	-0.25239205
8	0xbf587810	-0.845582
9	0x3faeb4e0	1.3648949
10	0xbd4e2e53	-0.050337147
11	0xbdb8a742	-0.09016277
12	0x3d66f285	0.05638363
13	0xbdeddabb	-0.11613985
14	0xbeae5b7c	-0.34054172
15	0xbf4d556d	-0.80208474
16	0xbc74a0e5	-0.014930938
17	0xbf8dcdae	-1.1078393
18	0xbf519dd5	-0.8188146
19	0xbf87004b	-1.0546964
20	0xbf966a2a	-1.1751149
21	0x3d604213	0.054750513
22	0xbf7c8506	-0.9864048
23	0x3faa1fe9	1.3290988
24	0x4081623e	4.0432425
25	0x3f3755ae	0.7161511
26	0x3ea6a71c	0.3254937
27	0x401d794f	2.460529
28	0x405890c8	3.3838367
29	0x404c736e	3.1945453
30	0x3eb08ef9	0.3448408
31	0x3ff58eaa	1.9184163
32	0x40466ea7	3.1005037
33	0xbfb4cc33	-1.4124817
34	0x3f2fb2ad	0.6863201
35	0x3f5881f5	0.845733
36	0x3eda9b43	0.4269658
37	0x3f71ffc4	0.9453089
38	0x400ad3a2	2.169167
39	0x404a966a	3.1654305
40	0x3f3d4b4e	0.7394303
41	0x4072cce4	3.7937555
42	0x40622cc5	3.5339825
43	0x4068aff7	3.63574
44	0x407a1737	3.907667
45	0x3ed20a66	0.41023558
46	0x4073129e	3.7980113
47	0xbfa9ee3d	-1.327583

fc4.bias f4 [2]
0	0x3fe401db	1.7813066
1	0xbf1a805e	-0.6035212

fc5.weight f4 [1, 2]
0	0x40712266	3.7677245
1	0xc054f7b6	-3.327619
