T3-2024/Federated_Learning/Improved_FL/SRC/FL_parameters/client4.pth (torch, 34104 bytes, 9 tensors)

fc1.weight f4 [48, 12]
0	0x3c2e0f06	0.010623699
1	0xbd235037	-0.03987142
2	0x3f130198	0.57424307
3	0xbdbd958d	-0.0925704
4	0x3d68f888	0.056877643
5	0x3e27200a	0.16320816
6	0x3e47e775	0.19521888
7	0x3e5a2030	0.21301341
8	0xbe939119	-0.28821638
9	0x3e1e0a34	0.1543358
10	0x3ebfe439	0.37478808
11	0x3da1ccdd	0.07900403
12	0x3d701464	0.058613196
13	0xbea82da9	-0.32847336
14	0xbef13f56	-0.47118634
15	0x3d9fe45a	0.078072265
16	0x3eccd40b	0.40005526
17	0xbecddd9c	-0.40208137
18	0xbeca8a14	-0.3955847
19	0x3db62276	0.08893292
20	0x3b9fdbe8	0.00487851
21	0x3e08d0fb	0.1336097
22	0xbae6c522	-0.0017606358
23	0x3d340d95	0.043958265
24	0xbc4b2d70	-0.01240097
25	0xbca868d8	-0.020557806
26	0xbf5e5f7c	-0.8686445
27	0x3db044b8	0.08606857
28	0x3ea56c85	0.32309356
29	0xbee8a4cf	-0.4543824
30	0x3e8e6557	0.2781169
31	0x3df409d4	0.11915937
32	0xbd46b28b	-0.048510116
33	0x3d86950f	0.065713994
34	0xbca93747	-0.020656241
35	0xbda61edc	-0.08111355
36	0xbdfe5276	-0.12418072
37	0xbd212dec	-0.039350435
38	0xbf5277ff	-0.8221435
39	0x3cc15e6d	0.023604596
40	0x3aa6594f	0.0012691411
41	0xbe13a9ca	-0.14420238
42	0xbdcf36fd	-0.1011791
43	0xbd92e6b7	-0.071729116
44	0xbcbae689	-0.022815006
45	0x3d68f8f5	0.05687805
46	0xbd7c1ff8	-0.061553925
47	0x3cbbb7c9	0.022914784
48	0xbd40d17d	-0.047074784
49	0x3cf6db27	0.030133797
50	0xbf5fb0ea	-0.87379324
51	0x3d25dcf0	0.040493906
52	0xbcaf6d9e	-0.021414574
53	0xbe983697	-0.2972915
54	0x3d62658b	0.05527262
55	0xbc3fdbad	-0.01171009
56	0x3cf8f6a2	0.030391041
57	0x3d33dc53	0.04391129
58	0xbdfb3ffd	-0.12268064
59	0xbc964db5	-0.0183476
60	0x3d809f6f	0.062804095
61	0x3dfc2eb2	0.12313594
62	0xbeaf0827	-0.34185907
63	0xbc6958c9	-0.014242359
64	0xbe119efd	-0.14220805
65	0x3eb225ef	0.34794566
66	0xbf660990	-0.8985834
67	0xbdecc15f	-0.1156032
68	0x3dcee46e	0.10102163
69	0xbd3e54f9	-0.046467755
70	0xbec78507	-0.3896868
71	0x3e568b8e	0.20951673
72	0x3b759214	0.0037471103
73	0x3e07ed89	0.13274206
74	0xbf547614	-0.8299267
75	0xb94b078c	-0.000193624
76	0x3c27a547	0.010232276
77	0xbea9e26b	-0.33180556
78	0x3e176a81	0.14786722
79	0xbd5332b4	-0.051562026
80	0xbc025dd9	-0.007956945
81	0x3de253fa	0.110511735
82	0xbdf49d90	-0.11944115
83	0xbd3ec06e	-0.046570234
84	0x3ea9a3b3	0.33132705
85	0x3e2e01a1	0.16992809
86	0xbca949e2	-0.020665113
87	0xbe34d8c4	-0.17660815
88	0x3d5fced7	0.054640617
89	0xbf071022	-0.5275899
90	0xbf37265c	-0.71542907
91	0x3e0d4e60	0.13799429
92	0x3d1501ee	0.036378793
93	0x3dbce4fa	0.09223361
94	0x3ac24372	0.0014821126
95	0x3db39b1a	0.08769818
96	0xbd886f99	-0.066619106
97	0xbd48ca55	-0.049021084
98	0xbf7893f1	-0.9710074
99	0x3dbe57ae	0.09294067
100	0x3dee8ee7	0.1164835
101	0x3d82a10e	0.06378375
102	0xbe3b987e	-0.1831989
103	0xbcd6e172	-0.026230548
104	0x3d082e3a	0.03324721
105	0xbdf5f32f	-0.12009274
106	0xbe0abdcf	-0.13548969
107	0x3d0f53d3	0.03499205
108	0x3dacd24c	0.084385484
109	0x3d110830	0.0354082
110	0x3f356f05	0.7087253
111	0x3e10711f	0.14105652
112	0x3dfdf14c	0.12399539
113	0x3c3bfc9d	0.011473802
114	0x3e47efc7	0.19525062
115	0x3d840dd2	0.064479485
116	0x3d4a33e4	0.049365893
117	0x3d06748e	0.032826
118	0x3e4f643f	0.20253085
119	0x3ae7489c	0.0017645541
120	0x3de67f14	0.11254707
121	0xbeab1ce1	-0.3342047
122	0xbf257691	-0.6463404
123	0xbcba40ca	-0.022735972
124	0x3d74229b	0.059603315
125	0xbec467c8	-0.3836043
126	0x3e427897	0.18991314
127	0xbd2d9af0	-0.042384088
128	0xbcebc451	-0.028780134
129	0xbb7f8096	-0.0038986555
130	0xbdf112ca	-0.11771162
131	0xbced25f4	-0.028948762
132	0x3ccb8f29	0.024848538
133	0x3d55a287	0.05215695
134	0x3e06f5a3	0.1317964
135	0xbd857f5a	-0.06518431
136	0xbf37ae60	-0.7175045
137	0x3d5d593b	0.054040175
138	0xbfa12852	-1.259043
139	0x3d39a822	0.04532636
140	0x3d34eb33	0.044169616
141	0x3d4e44d8	0.050358623
142	0xbdb7798a	-0.089587286
143	0x3d75aa02	0.059976585
144	0x3d0310b9	0.03199837
145	0x3ce8fa4f	0.028439669
146	0xbe827528	-0.25480008
147	0xbd5224d0	-0.05130464
148	0xbd24e2ee	-0.04025548
149	0xbf0723e1	-0.5278912
150	0xbf174466	-0.5908874
151	0x3cbb0617	0.022830052
152	0x3d10379f	0.035209294
153	0x3d70df52	0.058806725
154	0xbd848d8e	-0.06472312
155	0x3c0bdc37	0.00853639
156	0x3d17f9df	0.03710353
157	0x3e4e44c5	0.20143421
158	0xbf66a052	-0.9008838
159	0x3d89ea78	0.067341745
160	0xbd60be95	-0.054869253
161	0xbef1ba94	-0.4721266
162	0x3ebffd46	0.3749792
163	0xbdcb5014	-0.09927383
164	0x3d3e8f5d	0.04652344
165	0x3d8df289	0.069310255
166	0xbd4c2b0a	-0.049845733
167	0xbd6ca623	-0.057775628
168	0xbe1e08e1	-0.15433075
169	0x3c2a09b7	0.010378293
170	0xbf56effe	-0.8395995
171	0x3d99dc15	0.075126804
172	0xbe1957c6	-0.14974889
173	0xbd934d59	-0.07192487
174	0x3e855b98	0.26046443
175	0xbc2d99fb	-0.010595794
176	0x3d4d22e5	0.050082106
177	0x3de65a82	0.11247732
178	0xbcf8fd96	-0.030394357
179	0x3e136432	0.1439369
180	0x3abbf10e	0.0014338808
181	0x3da97351	0.08273948
182	0x3f16a585	0.5884631
183	0x3de518a4	0.111863405
184	0x3df856d1	0.12125934
185	0x3ded364c	0.11582622
186	0x3e2fd251	0.17170073
187	0x3de3256b	0.11091121
188	0x3dab67cf	0.08369409
189	0x3dada4fb	0.08478733
190	0x3dcb8bb1	0.099387534
191	0x3d06a44e	0.032871537
192	0x3db8d1a2	0.09024359
193	0xbccbf506	-0.02489711
194	0x3f3201d6	0.6953405
195	0x3dd01ff3	0.10162344
196	0x3e016783	0.12637143
197	0x3e076792	0.13223103
198	0x3e4532fa	0.19257727
199	0xbc352d3a	-0.011058146
200	0x3d721bff	0.05910873
201	0x3d93ad4b	0.072107874
202	0x3d94e89a	0.07270928
203	0xbce389e9	-0.027775722
204	0xbdd83248	-0.105564654
205	0x3d705a76	0.05868002
206	0xbf4895b7	-0.78353447
207	0xbd2fcd1a	-0.04292021
208	0x3d4d2095	0.0500799
209	0xbece68ca	-0.40314323
210	0xbde9376e	-0.113875255
211	0xbd0396b2	-0.032126136
212	0xbd32f101	-0.04368687
213	0x3c992273	0.018693184
214	0xbe202812	-0.15640286
215	0x3d30e863	0.04319037
216	0x3dab4d3c	0.08364341
217	0xbe4ea4d4	-0.20180064
218	0x3f2597f7	0.64685005
219	0x3da3a1c8	0.07989842
220	0x3dc87278	0.09787458
221	0x3cc5e3f8	0.024156556
222	0x3e470f75	0.1943949
223	0xbfb9738b	-1.4488386
224	0x3ccd67fb	0.025073996
225	0x3d38756e	0.045033865
226	0x3e3c3d16	0.18382677
227	0xbe0535ff	-0.13008879
228	0x3e09a365	0.13441236
229	0xbd61766e	-0.055044584
230	0xbf6f3498	-0.93439627
231	0xbd0fbfd4	-0.03509505
232	0xbdb7780b	-0.08958443
233	0xbe9564b9	-0.29178408
234	0x3e21965e	0.15780017
235	0xbd972dfa	-0.07381816
236	0x3ce94cc7	0.028478993
237	0x3c957ca4	0.01824791
238	0xbe12990d	-0.14316197
239	0xbbe09db7	-0.0068547386
240	0xbae2bebf	-0.0017299278
241	0x3da63263	0.08115079
242	0x3e274687	0.16335498
243	0xbd995290	-0.07486451
244	0xbf3f179c	-0.746454
245	0xbcafa1ca	-0.021439452
246	0xbf9c9528	-1.2233019
247	0x3dc9e8ca	0.09858854
248	0x3d566dcb	0.0523508
249	0x3d3e721c	0.046495542
250	0xbe82483e	-0.2544574
251	0xbc030d43	-0.007998767
252	0x3df69aa5	0.12041215
253	0xbd10f252	-0.035387345
254	0xbf711c06	-0.94183385
255	0x3dc3192e	0.09526287

fc1.bias f4 [48]
0	0xbf1b2290	-0.60599613
1	0x3e552341	0.2081423
2	0x3ce2d4a6	0.02768929
3	0x3f1a07cc	0.6016815
4	0x3edd3501	0.432045
5	0x3de7ceb1	0.1131872
6	0x3e870088	0.26367593
7	0xbd9098e1	-0.07060409
8	0x3ee89965	0.4542953
9	0xbf2539ba	-0.6454121
10	0x3ec7b8f0	0.39008284
11	0x3e966122	0.2937098
12	0x3ecebdb8	0.4037912
13	0x3d9af9d9	0.07567186
14	0xbd9fb8e4	-0.07798937
15	0xbf229f2e	-0.6352414
16	0xbf3a571a	-0.72789156
17	0x3f19be37	0.6005587
18	0xbed1fe5c	-0.41014373
19	0x3edd952c	0.43277872
20	0x3e89f1d6	0.2694232
21	0x3ea1fd67	0.31638643
22	0xbf0bb108	-0.54567003
23	0x3e9de215	0.3083655
24	0x3e8561b4	0.26051104
25	0x3f20a6ac	0.6275432
26	0xbed3f8f5	-0.41400877
27	0x3eec323c	0.46132076
28	0xbe801759	-0.25017813
29	0x3f0c0946	0.5470165
30	0x3f02d0b8	0.5109973
31	0xbf32a1a1	-0.69777876
32	0xbf3565c0	-0.70858383
33	0x3e955b22	0.2917109
34	0x3e31c6c4	0.1736098
35	0x3e6892e5	0.22712286
36	0xbeb9a24d	-0.36256638
37	0x3f0bd518	0.5462203
38	0x3e062a5c	0.13102096
39	0x3eabf90a	0.3358844
40	0x3e9fee36	0.31236428
41	0x3c837f92	0.016052041
42	0x3f069b83	0.5258104
43	0xbe423ec5	-0.18969257
44	0xbe4db299	-0.20087661
45	0xbf039d07	-0.5141148
46	0xbf1363c4	-0.57574105
47	0x3ebe4278	0.37160087

fc2.weight f4 [96, 48]
0	0x3e9a7b4a	0.30172187
1	0xbed944db	-0.42435345
2	0xbf442fef	-0.7663564
3	0xbf08b400	-0.5339966
4	0xbeadc0df	-0.3393621
5	0xbf32ea02	-0.6988832
6	0xbf4b97f9	-0.79528767
7	0xbf371d2b	-0.7152888
8	0xbf6503dc	-0.89459014
9	0x3eca822f	0.39552447
10	0xbea53fb1	-0.32275155
11	0xc003aeb1	-2.0575373
12	0xbf1fa40c	-0.6235969
13	0xbefbeef7	-0.49205753
14	0xbf14e315	-0.58159
15	0x3f098697	0.5372099
16	0x3f0adbeb	0.5424182
17	0xbee85f97	-0.4538543
18	0x3ee96399	0.455838
19	0xbeb02387	-0.34402105
20	0xc00cb9f3	-2.1988494
21	0xbec03e4a	-0.37547523
22	0x3eb1cd0c	0.3472675
23	0xc0096da9	-2.1473181
24	0xc0177de7	-2.3670595
25	0xbee904c1	-0.4551144
26	0x3de6c1c8	0.112674296
27	0xbecfb2b6	-0.40566033
28	0x3dead329	0.11466057
29	0xbeaf3a7b	-0.34224305
30	0xbe9c984c	-0.30584943
31	0x3ebe04cf	0.37113044
32	0x3f30de28	0.69088984
33	0xbef7b238	-0.48378158
34	0xbf0c5517	-0.54817337
35	0xbff5c785	-1.9201514
36	0x3eb5eec9	0.3553374
37	0xbf01d858	-0.5072074
38	0xbf505db7	-0.81393
39	0xbef992fd	-0.48744956
40	0xbf071e84	-0.5278094
41	0xbf751fe9	-0.95751816
42	0xbf1a0c69	-0.60175186
43	0xbdbdccab	-0.09267553
44	0x3e06e837	0.1317452
45	0x3ec7699c	0.3894776
46	0x3f28cb67	0.6593537
47	0xbf53ef9e	-0.827875
48	0x3ea35bd2	0.3190599
49	0xbf46e02a	-0.776858
50	0xbf303ab3	-0.6883957
51	0xbf4395a2	-0.76400197
52	0xbf13461d	-0.5752886
53	0xbf9ec085	-1.2402502
54	0xbf50c1a0	-0.8154545
55	0xbf3f918b	-0.74831456
56	0xbf46a166	-0.77590024
57	0x3ebb2f4b	0.3655952
58	0xbeaba068	-0.33520818
59	0xbfaa181c	-1.3288608
60	0xbf42fe34	-0.76169133
61	0xbf30dc52	-0.6908618
62	0xbefdd8b6	-0.495794
63	0x3ed80bbd	0.42196456
64	0x3f11d414	0.5696423
65	0xbf0053a0	-0.501276
66	0x3effe93a	0.49982625
67	0xbef6fb23	-0.48238477
68	0xbfa5cabe	-1.2952497
69	0xbf164fb2	-0.58715355
70	0x3e34e643	0.17665963
71	0xbfadfa8e	-1.3592088
72	0xbfba10de	-1.4536397
73	0xbef24d0d	-0.4732441
74	0x3e89d39d	0.2691926
75	0xbefabc63	-0.48971853
76	0x3e0af141	0.13568594
77	0xbf24d931	-0.6439391
78	0xbf56b238	-0.8386569
79	0x3f1f366a	0.62192404
80	0x3eabc443	0.33548173
81	0xbf5ccc0c	-0.8624885
82	0xbf65fef4	-0.8984215
83	0xbf992a07	-1.1965951
84	0x3e1134b9	0.14180268
85	0xbf14f5ae	-0.5818738
86	0xbf79c50a	-0.9756628
87	0xbf66683e	-0.9000281
88	0xbf7da7d7	-0.9908423
89	0xbee2357e	-0.44181436
90	0xbf4d060d	-0.8008736
91	0xbe0035a5	-0.12520464
92	0xbdf64f3c	-0.120268315
93	0x3ec84b8a	0.39120132
94	0x3e22427e	0.15845677
95	0xbf5045ab	-0.81356305
96	0x3e9a3521	0.3011866
97	0xbf76f588	-0.964684
98	0xbf737504	-0.95100427
99	0xbf0af2b3	-0.5427658
100	0xbef764c4	-0.48319066
101	0xbf8efe63	-1.1171383
102	0xbf1b187c	-0.60584235
103	0xbf951f73	-1.1650223
104	0xbf6b52c3	-0.9192316
105	0x3f012b0b	0.50456303
106	0xbed1a1e0	-0.40943813
107	0xbfe53a94	-1.7908502
108	0xbf556883	-0.833626
109	0xbedc885c	-0.43072784
110	0xbf31e9b0	-0.69497204
111	0x3ec9a75b	0.39385495
112	0x3efaba10	0.4897008
113	0xbef3587b	-0.47528443
114	0x3ef78706	0.48345202
115	0xbed2ed8f	-0.41196868
116	0xbff3c609	-1.904481
117	0xbeabcc2e	-0.33554214
118	0x3ef35906	0.47528857
119	0xbfdce656	-1.7257793
120	0xbff296c2	-1.8952258
121	0xbf06c33d	-0.5264166
122	0x3e30a7d8	0.17251527
123	0xbeddccf2	-0.43320423
124	0xbd53e973	-0.051736306
125	0xbf098675	-0.5372079
126	0xbef5a356	-0.47976178
127	0x3f1192aa	0.56864417
128	0x3f2572c8	0.6462827
129	0xbf4f69cf	-0.81020826
130	0xbf77cb24	-0.96794343
131	0xbfd9480e	-1.6975114
132	0x3e6b6ace	0.22989962
133	0xbf22a7e1	-0.6353741
134	0xbf8da792	-1.1066763
135	0xbf0daae7	-0.553389
136	0xbf691903	-0.9105379
137	0xbf48aa76	-0.783851
138	0xbf272795	-0.6529477
139	0xbd9296d5	-0.07157675
140	0x3dda1a7f	0.10649585
141	0x3f0c2223	0.5473959
142	0x3ec4c61c	0.38432395
143	0xbf856aad	-1.042318
144	0x3ea67cf6	0.32517213
145	0xbf52fd2e	-0.8241757
146	0xbf2d03c4	-0.6758387
147	0xbf57c851	-0.84290034
148	0xbf10d861	-0.5658017
149	0xbf884f8f	-1.0649279
150	0xbf377de6	-0.7167648
151	0xbf150362	-0.58208287
152	0xbf63624a	-0.8882185
153	0x3e87cb16	0.2652213
154	0xbeeaabce	-0.45834202
155	0xbfa70859	-1.3049423
156	0xbf43461c	-0.76278853
157	0xbf5cd736	-0.86265886
158	0xbebb7f8d	-0.3662075
159	0x3e5a1e27	0.21300565
160	0x3ec38150	0.38184595
161	0xbf4d4ca0	-0.80195045
162	0x3dff01cc	0.124515146
163	0xbed3e353	-0.41384372
164	0xbf9ddc48	-1.233285
165	0xbf2ccc37	-0.6749911
166	0xbddf2636	-0.1089596
167	0xbf91bfd3	-1.1386665
168	0xbfa7e0be	-1.3115461
169	0xbf6d71db	-0.92751855
170	0x3d96a9e3	0.07356622
171	0xbeece2ab	-0.46266684
172	0x3e11226e	0.1417329
173	0xbf5e7fe2	-0.86913884
174	0xbf3d8394	-0.740289
175	0x3f012b27	0.5045647
176	0x3f0af44e	0.5427903
177	0xbf6362bf	-0.8882255
178	0xbf6f154b	-0.93391865
179	0xbf950aa9	-1.1643878
180	0xbc85611e	-0.01628166
181	0xbf2ffe6f	-0.6874761
182	0xbf7481b1	-0.95510393
183	0xbf5df3b1	-0.8669997
184	0xbf602f79	-0.8757244
185	0xbee3f19c	-0.4452027
186	0xbf66f815	-0.90222293
187	0x3d2691d5	0.04066642
188	0x3cebf9d8	0.028805658
189	0x3e983036	0.29724282
190	0x3e1627dc	0.14663643
191	0xbf79fa1e	-0.97647274
192	0xbe397e04	-0.18114477
193	0x3f0a898b	0.54116124
194	0x3ea9eb8d	0.33187523
195	0x3f10d5ba	0.5657612
196	0x3f2c212a	0.67238104
197	0x3f4da779	0.8033367
198	0x3ea7b8d3	0.32758197
199	0x3e91a527	0.28446314
200	0x3e3d8a6d	0.18509836
201	0xbd5a62d0	-0.05331689
202	0x3f02f2a6	0.511515
203	0x3f5e6d5a	0.8688561
204	0x3f1da626	0.6158165
205	0x3efdb25d	0.49550143
206	0x3e5ddf40	0.21667194
207	0xbd97c153	-0.074099205
208	0xbe1eb26c	-0.1549775
209	0x3f797db4	0.9745743
210	0xbd9af94d	-0.075670816
211	0x3f3859c0	0.7201195
212	0x3f1f5f7a	0.6225506
213	0x3f3864cd	0.7202881
214	0xbc91268a	-0.017718572
215	0x3f2817d2	0.65661347
216	0x3f01f54e	0.5076493
217	0x3f5b0e18	0.8556838
218	0xbdc5419e	-0.09631656
219	0x3f61b93e	0.8817328
220	0xbe0d5145	-0.13800533
221	0x3f1c7e4a	0.611302
222	0x3f1992a6	0.5998939
223	0xbdccc30f	-0.09998142
224	0xbdf38f66	-0.118925855
225	0x3f10c541	0.56550986
226	0x3f4169f2	0.75552285
227	0x3f2c94b3	0.67414397
228	0xbd1fd9b7	-0.03902599
229	0x3f003888	0.5008626
230	0x3f261c6f	0.64887136
231	0x3f65b7d4	0.89733624
232	0x3f4e37f5	0.80554134
233	0x3eb13f5d	0.34618655
234	0x3ec30568	0.38090062
235	0x3dc0ff11	0.0942365
236	0x3e0df4fa	0.13862982
237	0xbcfd6576	-0.03093217
238	0xbd26ceac	-0.04072444
239	0x3eb4454f	0.35209128
240	0xbde361ee	-0.11102663
241	0x3f103c0f	0.5634164
242	0x3efce1d7	0.49391052
243	0x3f16299a	0.5865723
244	0x3f34c5f3	0.70614547
245	0x3f434ccf	0.76289076
246	0x3eda256c	0.42606676
247	0x3f11a819	0.5689712
248	0x3f7b5d83	0.9818956
249	0x3cb115b3	0.021616792
250	0x3ec184f7	0.37796757
251	0x3fc66e5c	1.5502429
252	0x3f4e3faa	0.80565894
253	0x3ef9807b	0.48730835
254	0x3edf260c	0.43583715
255	0x3cb314e7	0.021860553

fc2.bias f4 [96]
0	0x3f2ef668	0.68344736
1	0x3e5af76b	0.21383445
2	0x3eb0fb70	0.34566832
3	0x3e09d2d8	0.13459337
4	0x3dc4934c	0.09598407
5	0x3d8e4942	0.069475666
6	0x3f1a4c65	0.6027282
7	0x3e0295d0	0.12752461
8	0x3df4a517	0.11945551
9	0x3f1b578d	0.60680467
10	0xbf2786d9	-0.65440136
11	0x3b9b3d53	0.004737535
12	0x3da385a5	0.07984475
13	0x3e60045e	0.21876666
14	0x3d9d3e19	0.0767786
15	0x3de49306	0.11160855
16	0xba4ed201	-0.00078895694
17	0x3e73f426	0.23823604
18	0x3d414b65	0.047191042
19	0x3dfd7ee0	0.12377715
20	0xbea8bb81	-0.32955554
21	0xbf8d890a	-1.1057446
22	0xbf0e936e	-0.5569371
23	0x3e38d218	0.18048894
24	0x3db079ca	0.086169794
25	0x3e09d6fb	0.13460915
26	0x3f3ddff7	0.7416987
27	0x3ee8a869	0.45440987
28	0x3d098974	0.03357835
29	0x3e47191f	0.19443177
30	0x3e7d405f	0.24731587
31	0x3e523a1f	0.20529984
32	0x3f4f004e	0.8085984
33	0xbe683200	-0.22675323
34	0xbf7172e4	-0.94315934
35	0x3dbb2565	0.09137992
36	0x3f0b6dde	0.5446452
37	0xbe4d45e1	-0.20046188
38	0x3f13768c	0.57602763
39	0xbf15a32a	-0.58452094
40	0x3ee4affb	0.44665512
41	0x3c903ebc	0.01760804
42	0x3e57a086	0.21057329
43	0x3e031cde	0.1280398
44	0x3e98fe49	0.29881504
45	0x3dcdaae2	0.10042359
46	0x3d9d1d3d	0.076715924
47	0xbd96dae9	-0.073659725
48	0x3d355b9d	0.044276822
49	0x3d934ed7	0.07192772
50	0xbc66a1dc	-0.014076676
51	0x3d846b86	0.06465821
52	0x3e35ce47	0.1775447
53	0xbfbd4b1f	-1.478855
54	0xbe804593	-0.2505308
55	0x3db5b136	0.08871691
56	0x3d2cd7c4	0.042197958
57	0x3d351b97	0.044215765
58	0x3e5b65de	0.21425578
59	0x3dfd3e18	0.12365359
60	0x3dd19e90	0.102353215
61	0xbeeae898	-0.4588058
62	0x3e9c8cb7	0.30576107
63	0xbc774cb8	-0.015093975
64	0xbcd91d7a	-0.026503313
65	0x3dd6bfc0	0.10485792
66	0x3d638354	0.055545166
67	0x3e4b1fce	0.19836351
68	0xbfb5cd5e	-1.4203298
69	0x3f2c15e0	0.6722088
70	0x3e8cb051	0.2747827
71	0x3e8e4c90	0.27792788
72	0x3f23d562	0.6399747
73	0x3f2af112	0.66774094
74	0x3e88194c	0.265818
75	0xbc1483cc	-0.009064626
76	0x3e6994cd	0.22810669
77	0x3ecea768	0.40362096
78	0x3ec192af	0.37807223
79	0x3e0e3fa3	0.13891463
80	0xbdf01839	-0.1172337
81	0x3ec78ceb	0.389747
82	0x3daefe1f	0.085445635
83	0x3d8f5388	0.06998354
84	0x3e12f429	0.14350952
85	0x3eb71fa4	0.35766327
86	0x3f61eb9a	0.88250124
87	0x3da0892b	0.07838663
88	0x3db97804	0.09056094
89	0x3f462019	0.7739273
90	0xbca32db0	-0.019919246
91	0xbf525e43	-0.8217508
92	0x3d09dc93	0.03365762
93	0x3d401e93	0.046904158
94	0xbd0760ff	-0.033051487
95	0x3f4204a0	0.7578831

fc3.weight f4 [24, 96]
0	0xbeceda5c	-0.4040097
1	0xbf307ac6	-0.6893734
2	0xbf1dded0	-0.6166811
3	0xbf5e07f8	-0.8673091
4	0xbd80724f	-0.06271803
5	0xbc298af4	-0.01034807
6	0xbf555592	-0.83333695
7	0x3c868906	0.01642276
8	0xbd03c8a9	-0.032173786
9	0xbf382a7b	-0.7193982
10	0x3e28bd45	0.1647845
11	0xbd88552e	-0.06656872
12	0xbcdee637	-0.027209384
13	0xbdd07808	-0.10179144
14	0x3d62a6c4	0.05533482
15	0x3cf19b9c	0.029493146
16	0x3d99d36a	0.07511027
17	0xbc8061f9	-0.015671717
18	0x3d25418e	0.04034572
19	0xbd1c197e	-0.03811025
20	0x3e0774cc	0.13228148
21	0x3e6cf78b	0.23141305
22	0x3df32eab	0.118741356
23	0xbf4c5d65	-0.7983001
24	0xbf91e01d	-1.1396519
25	0xbd16177c	-0.03664349
26	0xbf21a798	-0.6314635
27	0xbf1a071f	-0.60167116
28	0xbd52da89	-0.051477943
29	0xbf1ce9bf	-0.6129417
30	0xbf12bd0d	-0.5731972
31	0xbf5fc497	-0.8740935
32	0xbdde65f0	-0.10859287
33	0x3c05afa3	0.008159551
34	0x3e02e215	0.12781556
35	0xbd7b0367	-0.06128254
36	0xbeea71c0	-0.4578991
37	0x3d7eb577	0.062184777
38	0xbf2567a2	-0.64611256
39	0x3e09ebc4	0.13468844
40	0xbec324b9	-0.38113955
41	0x3cc73f1a	0.024322081
42	0xbe03f5d5	-0.12886746
43	0xbce9fe46	-0.02856363
44	0xbf37ad9d	-0.7174929
45	0xbcb6be8c	-0.022307657
46	0xbcec2b78	-0.028829321
47	0x3d594b2a	0.053050198
48	0xbf78b1db	-0.97146386
49	0x3bf1f460	0.007383868
50	0x3d507d4e	0.05090075
51	0xbcacf1b7	-0.021111352
52	0xbf4cb3ce	-0.7996186
53	0x3f722d7e	0.94600666
54	0x3d1673ae	0.036731414
55	0xbd9c56d4	-0.07633749
56	0xbafb51e2	-0.0019174183
57	0xbceb6653	-0.028735315
58	0xbd31039b	-0.04321633
59	0xbf44785f	-0.7674617
60	0x3c733cf0	0.014846072
61	0x3e27f5c4	0.16402346
62	0xbf38ef6d	-0.72240335
63	0xbbebd6f2	-0.0071972543
64	0xbdb469d7	-0.0880925
65	0xbd27b7ff	-0.040946957
66	0xbd00e1a7	-0.0314652
67	0xbf0e4a0b	-0.5558173
68	0x3f144409	0.57916313
69	0xbf02d2c3	-0.51102847
70	0xbcc9bd12	-0.024626289
71	0xbf3cd33a	-0.73759806
72	0xbf20db5c	-0.62834716
73	0xbeed88d3	-0.4639345
74	0xbf321f87	-0.69579357
75	0xbd4e1c09	-0.050319705
76	0xbf19e076	-0.60108125
77	0xbeeeb456	-0.4662196
78	0xbf240c8c	-0.64081645
79	0x3d304118	0.04303083
80	0x3d353325	0.04423823
81	0xbf40452d	-0.75105554
82	0xbd0f02dd	-0.03491484
83	0xbdb0c774	-0.08631793
84	0xbd97ca8e	-0.07411681
85	0xbf54c93e	-0.8311957
86	0xbdb38709	-0.0876599
87	0xbd5d88b1	-0.054085437
88	0xbce7883f	-0.02826321
89	0xbf48678e	-0.7828301
90	0x3cbe2c5c	0.023214512
91	0x3e6dc44d	0.23219414
92	0xbc4216c0	-0.011846244
93	0xbd1966e3	-0.037451636
94	0xbd43d405	-0.04780962
95	0xbf2ab35a	-0.6667992
96	0x3cb3640b	0.02189829
97	0xbe5a7db8	-0.2133702
98	0xbd637cc6	-0.055538915
99	0xbe96455f	-0.293498
100	0x3e5116c3	0.20418839
101	0x3e98b3cf	0.29824683
102	0x3c438abf	0.011934935
103	0x3ded3494	0.11582294
104	0x3e802ad2	0.2503267
105	0xbc2ec4b9	-0.0106670195
106	0x3f1e0796	0.61730325
107	0x3e67f16d	0.2265069
108	0x3e901c6b	0.2814668
109	0x3e0c65b1	0.13710667
110	0x3e375e07	0.17906962
111	0x3d93c360	0.07214999
112	0x3ed00659	0.40629843
113	0x3e112622	0.14174703
114	0x3cae0774	0.021243788
115	0x3e96a075	0.29419294
116	0x3e7b34bd	0.24531837
117	0x3f349da8	0.70553064
118	0x3f28a5b4	0.6587784
119	0xbe5087e6	-0.20364341
120	0xbed8c918	-0.42340922
121	0x3e54d351	0.20783736
122	0xbc914019	-0.01773076
123	0xbd1ea108	-0.03872779
124	0x3e809054	0.25110114
125	0xbeb8381a	-0.35980302
126	0xbce953be	-0.028482314
127	0xbe8e88f0	-0.2783885
128	0xbe1b26e8	-0.1515156
129	0x3e9b99e1	0.30390838
130	0x3ec78a6f	0.38972804
131	0x3e923c4f	0.28561637
132	0x3e02c463	0.12770228
133	0x3ef17b5a	0.47164422
134	0xbd1a7f50	-0.03771907
135	0x3ef20595	0.47269884
136	0xbe077147	-0.13226806
137	0x3e256be6	0.16154441
138	0xbdb72051	-0.08941711
139	0x3e7973dc	0.24360603
140	0xbd3291b3	-0.04359598
141	0x3e1e34e1	0.15449859
142	0x3e555e11	0.20836665
143	0x3edaf715	0.42766634
144	0xbee7c87d	-0.45270148
145	0x3ed26697	0.41093895
146	0x3e88ecdb	0.26743206
147	0x3ec1a7cb	0.37823328
148	0xbe7712e2	-0.24128297
149	0x3eb86a46	0.3601858
150	0x3e81c9f7	0.253494
151	0x3e93dc95	0.28879228
152	0x3eacde0b	0.33763155
153	0x3eaba768	0.33526158
154	0xbe1141d8	-0.14185274
155	0xbf12c191	-0.5732661
156	0x3e4b7cf0	0.19871879
157	0x3e63b145	0.22235592
158	0xbe45fb44	-0.19334131
159	0x3ec1db03	0.37862405
160	0x3e047938	0.12936866
161	0x3e19ba98	0.15012586
162	0x3ea30d78	0.31846213
163	0xbe5b4edd	-0.21416803
164	0x3f406265	0.7515014
165	0xbaff5197	-0.0019479272
166	0x3dcc95fd	0.099895455
167	0xbd8fa0c7	-0.07013088
168	0xbd39feca	-0.045409
169	0x3bee737f	0.007276952
170	0xbe2ad0b8	-0.16681182
171	0x3ebfb3b1	0.3744178
172	0xbe6ac110	-0.2292521
173	0xbe5ffb53	-0.21873216
174	0xbd6f3dc6	-0.05840852
175	0x3e47fd79	0.19530286
176	0x3e171b66	0.14756545
177	0xbe15345a	-0.14570752
178	0x3ea7fb88	0.3280909
179	0x3e5c831a	0.21534386
180	0x3e1f4c5f	0.15556477
181	0xbdaa2bd6	-0.08309142
182	0xbe9acb5f	-0.30233285
183	0x3e8997c0	0.2687359
184	0x3e2ada6d	0.16684885
185	0xbe095f53	-0.1341527
186	0x3e60f375	0.21967871
187	0x3f0d0673	0.55087966
188	0x3e4d9eb7	0.20080076
189	0x3d308155	0.04309209
190	0x3e8812fb	0.2657698
191	0xbdba3d76	-0.09093754
192	0x3c007dfd	0.007842538
193	0xbe35c198	-0.17749631
194	0xbd741c6b	-0.059597414
195	0xbe996e39	-0.29966906
196	0x3f45fbc9	0.7733732
197	0x3f1a464a	0.602635
198	0xbd993855	-0.074814476
199	0x3f14cdc6	0.58126485
200	0x3f1f6f93	0.62279624
201	0xbe034ce5	-0.12822302
202	0x3ea547c4	0.32281315
203	0x3eb4c269	0.35304573
204	0x3f1aa002	0.604004
205	0x3f0753c5	0.528622
206	0x3eec5ea0	0.46165943
207	0x3eba9489	0.36441448
208	0x3f387537	0.72053856
209	0x3e63c8c0	0.22244549
210	0x3dc3bfda	0.09558077
211	0x3f0395cd	0.5140045
212	0x3ea4e314	0.32204497
213	0x3ebd5af3	0.3698345
214	0x3f2b53ba	0.6692463
215	0x3b8cd53d	0.004297881
216	0xbe4817fa	-0.19540396
217	0x3f197ac9	0.5995298
218	0x3c4549e3	0.012041542
219	0xbdb3259c	-0.08747408
220	0x3f14da36	0.58145463
221	0xbdf7bac5	-0.1209617
222	0xbde13c3c	-0.10997817
223	0xbe194a41	-0.14969732
224	0xbe6ca271	-0.23108841
225	0x3ecaa35b	0.39577755
226	0x3e9a18a5	0.30096927
227	0x3f0d4aca	0.55192244
228	0xbdd232a3	-0.102635644
229	0x3eb21ca7	0.34787485
230	0xbdbf2584	-0.093333274
231	0x3e997134	0.2996918
232	0xbd84dbca	-0.06487234
233	0x3ef319aa	0.47480518
234	0x3c8e28df	0.017353473
235	0x3f12725b	0.5720574
236	0xbd614363	-0.054995906
237	0x3f165978	0.5873027
238	0x3efb8c20	0.49130344
239	0x3ede6276	0.43434495
240	0xbe849c72	-0.25900608
241	0x3eb502b2	0.3535362
242	0x3e3006fa	0.17190161
243	0x3eea8e2a	0.45811588
244	0xbe6261e1	-0.2210765
245	0x3ceaba18	0.02865319
246	0xbdfe680c	-0.12422189
247	0x3f16d5b8	0.5891986
248	0x3f1a1878	0.60193586
249	0x3f44d9bd	0.7689474
250	0x3ec4be1a	0.38426286
251	0xbe89d7fe	-0.269226
252	0x3f1e29e5	0.61782676
253	0x3e68c664	0.2273193
254	0xbd23c354	-0.0399812
255	0x3ee0c912	0.43903404

fc3.bias f4 [24]
0	0xbff11b42	-1.8836443
1	0xbf3247b0	-0.69640636
2	0xbf398b7d	-0.7247847
3	0xbf80a5ef	-1.0050639
4	0xbfbf31cc	-1.4937072
5	0xbfbc292a	-1.4700062
6	0xbf5c62a6	-0.86088026
7	0xbf889d54	-1.0673013
8	0xbfb250e3	-1.3930935
9	0xbf33e3ac	-0.70269275
10	0xbf583e7c	-0.84470344
11	0xbf6386b2	-0.88877404
12	0xbf30ff98	-0.69140005
13	0xbf637683	-0.8885271
14	0xbf8e3e56	-1.1112773
15	0xbfb61dfa	-1.4227898
16	0xbf5a588c	-0.8529136
17	0xbfdefc5e	-1.7420766
18	0xbfb63e58	-1.4237776
19	0xbfcf347e	-1.6187894
20	0xbfee5c4b	-1.8621916
21	0xbf67c87d	-0.90540296
22	0xbfdea328	-1.7393541
23	0xbf3ca7dd	-0.7369364

fc4.weight f4 [2, 24]
0	0xbf817e3f	-1.0116652
1	0xbc6e6de1	-0.014552564
2	0x3d0f1129	0.034928475
3	0xbec41aa4	-0.38301575
4	0xbf33fa5f	-0.7030391
5	0xbf36e172	-0.7143775
6	0x3be44ac1	0.006966919
7	0xbe117048	-0.14202988
8	0xbf3713b0	-0.71514416
9	0x3fb9e024	1.4521527
10	0xbd9edc40	-0.07756853
11	0xbd4bd536	-0.04976388
12	0x3c3c6083	0.01149762
13	0xbf07deca	-0.53074324
14	0xbe793254	-0.24335605
15	0xbf2d67c3	-0.6773645
16	0xbdcb58bf	-0.09929036
17	0xbf6f020c	-0.933625
18	0xbf199a64	-0.60001206
19	0xbf5ac3ae	-0.85454834
20	0xbf7df64f	-0.9920396
21	0xbcdcf4f9	-0.02697228
22	0xbf64a155	-0.89308673
23	0x3fb8cc65	1.4437376
24	0x4086deb7	4.214687
25	0x3f1695cb	0.58822316
26	0x3eb4075a	0.3516186
27	0x40162226	2.3458343
28	0x405b4da8	3.4266148
29	0x4055f21a	3.3429017
30	0x3eb5415a	0.35401422
31	0x4005be9a	2.0897584
32	0x405e6b51	3.4753
33	0xbfbf0946	-1.4924705
34	0x3f413e8b	0.7548606
35	0x3f63d951	0.89003474
36	0x3eb580ff	0.3544998
37	0x3ffb3119	1.9624358
38	0x4005c8c1	2.090378
39	0x40492504	3.1428843
40	0x3f442991	0.76625925
41	0x407aabd5	3.9167378
42	0x4068164c	3.626361
43	0x4061d2df	3.5284956
44	0x40832d07	4.0992465
45	0x3eced2eb	0.40395293
46	0x407a68ad	3.912639
47	0xbfb8cda2	-1.4437754

fc4.bias f4 [2]
0	0x3fe4f1b6	1.7886264
1	0xbf41735a	-0.7556664

fc5.weight f4 [1, 2]
0	0x40690024	3.6406336
1	0xc0465e6e	-3.0995135
