T3-2024/Federated_Learning/Improved_FL/SRC/FL_parameters/client3.pth (torch, 34104 bytes, 9 tensors)

fc1.weight f4 [48, 12]
000000 77 d9 54 3d 34 7e 20 bb 7c a2 19 3f 6f e6 c8 bd
       0.051965203 -0.0024489285 0.60013556 -0.09809577
000010 2b 8a 4d 3d 39 7b 63 3e f0 3c 24 3e 09 e1 4a 3e
       0.050180595 0.22214974 0.16038871 0.19812407
000020 6b 17 a2 be d9 36 f0 3c 95 4c af 3e 40 7c 9c 3d
       -0.31658491 0.029323028 0.34238115 0.07640886
000030 07 79 8a 3c ec f2 9f be 1a 96 01 bf 30 b5 7d 3d
       0.016903413 -0.31240022 -0.5061966 0.061940372
000040 ca d1 b7 3e 73 c2 04 bf 61 70 ba be d8 8f 13 bd
       0.35902244 -0.51859206 -0.36413863 -0.036025852
000050 2e 48 1b be 37 c8 be 3d 5c 9f 0c be c5 85 96 bb
       -0.15164253 0.09315532 -0.13732666 -0.0045935833
000060 d7 2e 15 bd 82 71 a5 bc 8e 3d 5c bf 6e 20 14 3e
       -0.036421623 -0.020195726 -0.86031425 0.14465496
000070 e8 d6 a5 3e 8c 0e f7 be 56 d2 75 3e da f7 98 3e
       0.32390523 -0.48253286 0.24006018 0.29876596
000080 f9 84 0c bd f2 db ac 3d ae e0 41 bd b2 3d 8e bd
       -0.0343065 0.08440389 -0.047333412 -0.06945361
000090 9d f9 ed bd 82 88 ac bb 56 01 53 bf 1f 12 38 3d
       -0.116198756 -0.0052652964 -0.82423913 0.044939157
0000a0 08 12 86 bd ca 0a 45 be 6e b5 92 bd 8e de 18 3d
       -0.06546408 -0.19242397 -0.07163511 0.03732162
0000b0 eb f2 56 bd 9f 13 37 3d bb d4 7e bd 25 4f 19 3c
       -0.05247776 0.044696447 -0.062214594 0.009357248
0000c0 c4 99 f7 bc 04 25 80 3d 61 bb 65 bf f1 d5 71 3d
       -0.030224688 0.0625706 -0.8973904 0.05904192
0000d0 59 67 91 3c 15 ab 78 be b8 2c ac 3d 9b 3b 9c 3d
       0.017749475 -0.24284013 0.08406967 0.07628556
0000e0 c4 74 c6 3c 88 ae c8 3b 23 13 d5 bd 74 2d 91 bb
       0.0242256 0.0061243214 -0.10404041 -0.0044304673
0000f0 ac 8f 33 3d 7b 7d c2 3d bf 67 ca be ca 72 b2 ba
       0.043838188 0.0949659 -0.39532277 -0.0013614532
000100 e5 3a 48 be 1f b8 b7 3e ba 94 73 bf 7d 48 11 be
       -0.19553716 0.3588266 -0.95148814 -0.14187808
000110 e6 0c 02 bd f2 d8 d6 bc ac 63 ca be 58 1c 2b 3e
       -0.031750582 -0.026226494 -0.3952917 0.16710031
000120 6c 9c 28 3c e1 f9 1f 3e 96 32 4c bf bd 61 f2 ba
       0.0102912 0.15622665 -0.7976469 -0.0018492263
000130 a6 26 e7 3c fb 46 90 be 27 3b 43 3e 33 47 32 bd
       0.028216671 -0.28179154 0.19065534 -0.043524932
000140 45 14 21 3d d0 88 3e bd 72 36 35 be f6 f8 a9 bd
       0.03932597 -0.046517193 -0.1769655 -0.08299439
000150 8b c1 aa 3e 5a 6f 2b 3e ac ba 10 bd 5e 94 85 bc
       0.33350787 0.16741696 -0.035334274 -0.016306099
000160 22 c8 ad 3d 6b ea 10 bf 3e 7f 1d bf fc 83 94 3d
       0.08485438 -0.56607693 -0.6152228 0.072517365
000170 6e f6 9c bc 8e 68 83 3d 4e c7 11 be 52 3b ae bb
       -0.019160476 0.064164266 -0.14236185 -0.00531713
000180 68 a0 c2 3c 1a b5 55 3d 5f fb 81 bf d5 ff fc 3d
       0.023758128 0.052174665 -1.0154837 0.123534836
000190 84 ec 9f 39 ff b0 87 bc f4 f3 02 be d4 0f 37 bd
       0.0003050306 -0.01656389 -0.12788373 -0.04469283
0001a0 e2 43 5f 3d ee 13 87 3a e6 69 1d bb c1 c2 76 3d
       0.054508097 0.0010305622 -0.002401942 0.060244326
0001b0 b7 2e 86 3d 2b 9a 6b 3b 65 f0 39 3f f9 61 16 3e
       0.06551879 0.0035950046 0.7263244 0.14685811
0001c0 fd 41 4f 3d 41 3f b0 3d bd 91 4e 3e ae bc 21 3d
       0.05060004 0.08605815 0.20172782 0.03948658
0001d0 09 98 56 bd 2f 01 64 3c 9d ad 12 3e 7b 7e ad bb
       -0.052391086 0.013916298 0.1432404 -0.0052946187
0001e0 6b cb e7 3d 08 ee 64 be 58 fc 2c bf 3a 6a 9d bd
       0.11318096 -0.22356427 -0.67572546 -0.07686277
0001f0 8e 30 49 3d b3 9b b0 be a6 33 4c 3e a1 b9 ff 3c
       0.04911857 -0.3449379 0.19941577 0.031216444
000200 dc 2a a0 bd 35 81 33 3d 9c a2 f9 ba 58 08 28 3b
       -0.07820675 0.043824393 -0.0019045654 0.002563974
000210 c6 b9 1c 3b 02 82 e9 3c 11 a4 fc 3d 24 0b 6f bd
       0.002391444 0.028504375 0.12335981 -0.058360234
000220 81 53 36 bf fa 0b 2d 3d a7 06 9f bf 31 6e aa bd
       -0.71221167 0.04224775 -1.2423905 -0.083217986
000230 26 1d 7c 3d 07 75 16 3e 63 9e cd bd 72 45 19 3d
       0.061551236 0.1469308 -0.100399755 0.037419744
000240 4b 59 60 3d 60 25 cb 3c 11 18 7e be 11 1c 85 3c
       0.054772656 0.024798095 -0.24813868 0.016248735
000250 20 db 99 bd c4 ac 0c bf 8a 4b 0d bf a6 95 87 bd
       -0.07512498 -0.5495112 -0.5519339 -0.0662034
000260 b2 93 d8 bd d7 13 01 3e d4 85 12 be 74 21 2c 3d
       -0.10575046 0.12605225 -0.14308864 0.04202409
000270 7d b4 79 3d 92 39 69 3e d2 03 68 bf 70 5b 32 3d
       0.060963143 0.22775868 -0.9063083 0.043544233
000280 e0 6c a2 3d ba 12 ca be 75 1a c4 3e 31 63 2e bd
       0.079309225 -0.39467412 0.38301435 -0.042575065
000290 57 dd c4 3d 07 29 1c 3c 98 fc 9f bd 39 53 d8 3b
       0.0961253 0.009531266 -0.0781185 0.006601718
0002a0 34 f9 bb bd c8 a1 6a 3d f2 16 4f bf a1 f0 09 3e
       -0.09178391 0.057283193 -0.80894387 0.13470699
0002b0 f8 e8 90 bd c2 09 b7 bd cb 37 a6 3e 87 8e a9 3c
       -0.07075685 -0.08937408 0.32464442 0.020697845
0002c0 db 0c 3d 3d 4a eb 18 3e 29 59 33 3d f3 cd 26 3e
       0.046154838 0.14933506 0.0437862 0.16289501
0002d0 c2 1b 8e bc bc 79 c0 3c a8 19 0d 3f 4d 43 ca 3c
       -0.01734722 0.023495547 0.55117273 0.024690295
0002e0 d1 6d 17 3e 94 b0 8d 3d a8 d6 cc 3d ef 5a 05 3e
       0.14787985 0.06918445 0.1000188 0.1302297
0002f0 01 ea 8c 3d ea f0 9e bb 8c d9 aa 3d e3 1a d5 3c
       0.0688057 -0.0048504965 0.08342275 0.026013797
000300 18 a6 e2 3d cd 50 72 bc 1e 92 2f 3f 47 0b 40 3d
       0.11066836 -0.014789772 0.6858233 0.046885755
000310 54 9f 13 3e 06 37 29 3e f9 bc 5f 3e f6 64 69 3c
       0.14416248 0.16524896 0.21849431 0.014245262
000320 e8 88 9d 3d 2d 18 31 3e f6 6e 9d 3d 64 f2 d8 3c
       0.076921284 0.17294379 0.0768718 0.026482768
000330 80 73 8e bd 68 4a ce 3d ba 75 51 bf f0 c2 78 bd
       -0.069556236 0.100727856 -0.8182026 -0.060732782
000340 7b 14 1b 3d 07 b4 c7 be b8 e8 de bd 16 f2 19 3c
       0.03786133 -0.39004537 -0.10884231 0.009396097
000350 b5 11 46 3c ff 19 0a 3c b5 e5 25 be 26 79 61 3c
       0.012089183 0.0084290495 -0.16200908 0.013761794
000360 38 22 47 3d 66 5c 8a be 2d 66 1d 3f 5d 1d 1c 3d
       0.048616618 -0.2702362 0.6148403 0.03811394
000370 62 09 07 3e 78 52 17 bd 69 ab 53 3e a9 12 a4 bf
       0.13187173 -0.036943883 0.20670857 -1.2818195
000380 84 8e b2 bd 05 ab ed 3c ca dc 24 3e 04 f6 a8 bd
       -0.08718589 0.029012213 0.1609985 -0.08250049
000390 c3 15 23 3e 9d 82 a1 3b a6 63 6b bf 6e 62 93 3b
       0.1592627 0.0049289004 -0.91948926 0.0044978177
0003a0 e2 29 cc 3c 09 9e 6f be 3b b7 45 3e 8c 80 14 bd
       0.024922315 -0.2340013 0.19308178 -0.036255404
0003b0 87 a6 47 3d 59 8b ff bd a6 b7 2f be 62 dc bd 3c
       0.048742797 -0.1247775 -0.171599 0.023176376
0003c0 27 6d 16 bd 19 b5 3a 3d 96 f6 3e 3e 79 6f 28 bd
       -0.03672519 0.045582864 0.18648753 -0.041121934
0003d0 4f 95 39 bf fc 02 69 3c 6c 58 9a bf 62 13 ee bc
       -0.7249345 0.014221903 -1.2058234 -0.029061977
0003e0 66 1e 04 3d ca ba 15 3e 2b 49 02 be 66 17 83 3c
       0.032255553 0.14622036 -0.12723224 0.016002368
0003f0 16 ca f5 3d 7e f1 23 bd 67 f7 7c bf eb cb 6d 3c
       0.120014355 -0.040025227 -0.98815006 0.01451395

fc1.bias f4 [48]
000000 6f 73 14 bf a2 4e 16 3e 15 9f d5 3c 02 1c 18 3f
       -0.5798864 0.14678434 0.026076833 0.59417737
000010 d8 50 df 3e 98 c9 72 3d c6 9b 92 3e d5 20 92 bd
       0.43616366 0.059274286 0.2863447 -0.071351685
000020 74 d2 d7 3e b5 aa 22 bf b3 1e c8 3e a2 fc 8f 3e
       0.4215275 -0.6354173 0.39085922 0.2812243
000030 fd 1f c3 3e 7d 8f de 3d 90 2b c0 bc f1 40 2c bf
       0.38110343 0.10867212 -0.023458272 -0.6728659
000040 83 b6 38 bf a0 a8 13 3f 26 51 cd be a1 57 ea 3e
       -0.7215349 0.57679176 -0.40100974 0.4576998
000050 40 3a 98 3e 27 f0 8f 3e d7 90 f9 be 42 8e 9f 3e
       0.2973194 0.2811291 -0.48743317 0.31163222
000060 a9 c1 8e 3e ea 79 17 3f 07 9b d8 be 10 9f e1 3e
       0.27882126 0.591704 -0.42305776 0.44066668
000070 59 17 80 be fe 3c 06 3f 79 92 ff 3e bf be 22 bf
       -0.25017813 0.52436817 0.49916437 -0.63572305
000080 e0 9e 3c bf b1 67 a5 3e 43 c1 56 3e 74 23 82 3e
       -0.73679924 0.32305673 0.20972161 0.25417674
000090 96 6f c5 be fa f3 0a 3f 65 0b 12 3e 05 f2 a1 3e
       -0.38561696 0.5427853 0.14262159 0.3162996
0000a0 4c 80 b1 3e a6 1f 00 3c 75 5b 0b 3f c5 3e 42 be
       0.34668195 0.007820046 0.5443643 -0.18969257
0000b0 99 b2 4d be f1 a2 f3 be 99 b3 0e bf f6 25 bf 3e
       -0.20087661 -0.47585252 -0.55742794 0.3733365

fc2.weight f4 [96, 48]
000000 e7 d5 e7 3e 69 c3 fd be d2 a6 3c bf 19 69 04 bf
       0.45280382 -0.4956315 -0.7369205 -0.51722866
000010 28 10 d3 be 64 3d 34 bf 36 fc 47 bf 95 01 2c bf
       -0.41223264 -0.70406175 -0.7811922 -0.67189914
000020 37 0a 4d bf d4 1e e2 3e 03 61 41 be f6 2b fa bf
       -0.8009371 0.44164145 -0.18884663 -1.9544666
000030 15 70 14 bf a0 c0 f4 be 33 77 26 bf 51 c7 0d 3f
       -0.57983524 -0.4780321 -0.65025634 0.5538226
000040 32 8e 12 3f dd 42 e9 be f5 3f f5 3e 0a 4b ac be
       0.5724822 -0.45558825 0.47900358 -0.33651
000050 6b 50 0e c0 e1 70 cc be 1b cb b8 3e 91 3b 03 c0
       -2.2236583 -0.3992987 0.36092457 -2.0505106
000060 f5 f2 18 c0 e4 e6 03 bf 2a 82 49 3e 3f 96 c3 be
       -2.389829 -0.51524186 0.1967856 -0.38200566
000070 29 d3 ea 3d 6e 47 c6 be ce fe aa be 72 25 ad 3e
       0.11466057 -0.38726372 -0.33397526 0.3381763
000080 e7 ee 39 3f 55 b9 c1 be 56 fa 02 bf fe bf f3 bf
       0.7263016 -0.3783671 -0.5116323 -1.9042966
000090 79 bb cc 3e d3 0e 12 bf 83 4a 18 bf e2 ca 42 bf
       0.3998678 -0.5705387 -0.59488696 -0.76090825
0000a0 84 81 f7 be 20 dc 54 bf 8b 42 1e bf ab cc bd bd
       -0.48341 -0.83148384 -0.61820287 -0.09267553
0000b0 37 e8 06 3e 27 76 15 3f ea fd 1f 3f ad 3a 49 bf
       0.1317452 0.5838341 0.6249682 -0.7860516
0000c0 54 7f 48 3e 4c 2b 43 bf 6a b9 2e bf 10 75 55 bf
       0.19579822 -0.7623794 -0.6825167 -0.8338175
0000d0 9a 8b 1a bf a9 bb 92 bf 2a e7 70 bf 2c a6 26 bf
       -0.60369265 -1.1463519 -0.9410273 -0.6509731
0000e0 d5 f3 3f bf 23 70 a7 3e 3a 54 b7 be 0b d7 99 bf
       -0.74981433 0.3270274 -0.35806447 -1.2018751
0000f0 e3 44 3f bf 0d f9 3b bf fa 5c 13 bf 88 96 a7 3e
       -0.7471449 -0.73426896 -0.57563746 0.32732034
000100 e5 a1 02 3f 43 01 f9 be 25 99 97 3e 16 0f 23 bf
       0.5102828 -0.48633775 0.29609028 -0.63694894
000110 a4 45 a5 bf 4f dc 30 bf 39 0f 24 3e 6a 55 a4 bf
       -1.2911878 -0.69086164 0.16021432 -1.2838566
000120 76 2b b2 bf c6 55 da be 68 f3 28 3e ed ef 0d bf
       -1.3919513 -0.42643565 0.16499102 -0.5544422
000130 41 f1 0a 3e 03 e9 1b bf e7 95 2c bf be df 20 3f
       0.13568594 -0.6090242 -0.6741623 0.62841403
000140 42 3a 7a 3e 96 ae 73 bf 09 42 69 bf 31 1d a4 bf
       0.24436286 -0.9518827 -0.91116387 -1.2821409
000150 71 3a 59 3d 2a 96 21 bf a8 ca 88 bf 2c 1f 7f bf
       0.05303425 -0.6311976 -1.0686846 -0.9965694
000160 17 42 85 bf c4 bf b7 be 1e 2d 20 bf a5 35 00 be
       -1.0410794 -0.35888493 -0.62568843 -0.12520464
000170 3c 4f f6 bd 81 69 a4 3e 67 b3 b5 3d b6 1f 66 bf
       -0.120268315 0.32111743 0.08872109 -0.8989214
000180 a5 4d 8b 3e 6a ea 75 bf f8 97 69 bf a6 d0 11 bf
       0.27207676 -0.9606081 -0.9124751 -0.56959
000190 0f 94 01 bf 48 35 9d bf 1d 5b 31 bf 43 5c 88 bf
       -0.50616544 -1.2281885 -0.6927965 -1.0653156
0001a0 53 ec 48 bf c2 b3 d4 3e 47 95 dc be eb 4a df bf
       -0.784856 0.41543394 -0.4308264 -1.7444738
0001b0 34 14 48 bf 47 d2 e0 be 2a 7a 22 bf 5e f0 cd 3e
       -0.7815583 -0.4391043 -0.6346766 0.40222448
0001c0 61 f5 f5 3e 5f 8f 02 bf eb da ed 3e 78 e5 b1 be
       0.48038772 -0.51000017 0.46456084 -0.34745383
0001d0 3f 47 f4 bf 88 97 bc be 1d e4 11 3f ac 5e db bf
       -1.9084243 -0.3683436 0.569887 -1.7138267
0001e0 88 59 ed bf bc 6e 08 bf 2d 98 39 3e dc b3 b7 be
       -1.8542948 -0.5329397 0.18124457 -0.3587941
0001f0 73 e9 53 bd 3a 6f 0f bf c4 eb 08 bf 30 93 03 3f
       -0.051736306 -0.56029093 -0.5348475 0.51396465
000200 37 5c 2c 3f 17 dd 46 bf a8 3d 5a bf 2a 9e c8 bf
       0.6732821 -0.77681106 -0.8525033 -1.5673268
000210 c8 65 9e 3e be 09 26 bf e2 75 81 bf 83 a5 21 bf
       0.30937028 -0.64858615 -1.01141 -0.63143176
000220 27 36 50 bf d9 53 19 bf ad 20 37 bf d5 96 92 bd
       -0.8133263 -0.59893566 -0.71534234 -0.07157675
000230 7f 1a da 3d cd af 20 3f 31 4c c1 3e 5b b9 7d bf
       0.10649585 0.6276825 0.37753442 -0.99110955
000240 5f 64 5a 3e cd 84 4a bf cc 99 29 bf 9d ab 6b bf
       0.21327351 -0.7910889 -0.662503 -0.92058736
000250 10 d4 1f bf 61 60 75 bf bb 7d 4a bf 99 20 15 bf
       -0.62432957 -0.9585019 -0.790981 -0.58252865
000260 33 13 5c bf d4 e0 9e 3e f8 44 b6 be 5f 3d 9d bf
       -0.85966796 0.31030905 -0.35599494 -1.2284354
000270 60 be 4e bf 48 c8 32 bf a6 c0 b8 be 1e 2b af 3e
       -0.8075924 -0.69836855 -0.3608448 0.34212583
000280 46 f6 f2 3e fc 40 2e bf 4b ce 27 3e 67 df c9 be
       0.47453517 -0.6806791 0.16387288 -0.39428255
000290 d0 6c 9d bf d6 f6 12 bf 29 8d b5 bb 37 6d 91 bf
       -1.2298832 -0.5740789 -0.0055405092 -1.1361455
0002a0 6d 8c 9d bf 2c 16 5d bf 19 2c 2c 3e 93 f9 cc be
       -1.230848 -0.86361957 0.16813697 -0.4003416
0002b0 6e 22 11 3e 40 64 52 bf 69 15 17 bf 4e a7 0b 3f
       0.1417329 -0.8218422 -0.59017044 0.5455216
0002c0 0a 61 08 3f a4 96 7d bf 13 3e 85 bf 66 4e 93 bf
       0.5327307 -0.99057984 -1.0409569 -1.15083
0002d0 d8 d8 06 3e 09 72 46 bf 16 93 75 bf 14 a8 58 bf
       0.13168657 -0.77517754 -0.9592756 -0.84631467
0002e0 b2 59 52 bf 6f 99 b8 be c0 2a 83 bf d5 91 26 3d
       -0.82168114 -0.3605456 -1.0247421 0.04066642
0002f0 d8 f9 eb 3c 9f 73 b0 3e 25 74 ae 3e cb 8f 70 bf
       0.028805658 0.34463212 0.34072986 -0.9396941
000300 ee 2c 18 bd 20 39 0f 3f 25 02 cd 3e df 71 17 3f
       -0.037152223 0.5594654 0.400407 0.5915813
000310 0f 06 11 3f 72 f6 61 3f a4 73 a8 3e f7 4d a3 3e
       0.5664987 0.8826667 0.32900727 0.3189542
000320 ff 60 88 3e bb 54 f3 bc 93 43 d5 3e 11 86 4f 3f
       0.26636502 -0.029703489 0.41653118 0.81063944
000330 19 51 19 3f 14 46 c2 3e 32 ce 47 3e 34 35 5d bc
       0.5988937 0.3794409 0.19512251 -0.013501454
000340 7d 6d 5f be 45 51 5d 3f 94 38 ad 3b f9 ef 48 3f
       -0.2181911 0.8645213 0.0052862857 0.7849117
000350 13 34 3e 3f 55 d8 46 3f 28 99 31 bd 71 02 46 3f
       0.7429821 0.77673846 -0.04335895 0.77347475
000360 28 17 18 3f 6a 8f 68 3f 94 ed 3c bd 54 8b 4d 3f
       0.59410334 0.9084383 -0.04612501 0.8029072
000370 45 51 0d be fa e7 24 3f 5a 0d 19 3f 22 ce ad bd
       -0.13800533 0.6441647 0.59786 -0.08486582
000380 dc ec cb bd be b9 50 3f 11 a9 46 3f ef b8 38 3f
       -0.09957287 0.8153342 0.77601725 0.72157186
000390 48 4a 12 bd dc 4a 17 3f c3 ac 4b 3f c2 2c 1b 3f
       -0.03571537 0.590986 0.7956049 0.6061517
0003a0 9f aa 66 3f 13 78 97 3e be 71 c9 3e 11 ff c0 3d
       0.901041 0.29583797 0.3934459 0.0942365
0003b0 fa f4 0d 3e 8f 53 20 bd 17 74 69 bd 79 cf 17 3f
       0.13862982 -0.039142188 -0.056995478 0.59300953
0003c0 11 f4 88 bc 67 3a 03 3f 04 f1 a2 3e 42 28 0d 3f
       -0.016717942 0.5126099 0.31824505 0.55139554
0003d0 b4 10 30 3f d3 0c 38 3f 07 1e a3 3e 14 cc e3 3e
       0.68775487 0.7189457 0.31858847 0.44491637
0003e0 18 35 74 3f 47 08 89 bc 9c 3b b1 3e ff 61 b3 3f
       0.95393515 -0.01672758 0.3461579 1.4014281
0003f0 75 ff 3a 3f 2b aa c9 3e fe 0a e0 3e 4c 1f 4c 3d
       0.73046046 0.3938764 0.43758386 0.049834535

fc2.bias f4 [96]
000000 2a ba 43 3f ce db 79 3e 36 d9 d1 3e 8f b7 88 3e
       0.7645594 0.24400255 0.4098603 0.26702544
000010 45 fb 14 3e e1 06 e8 3b 5d f3 18 3f 6f 76 16 3d
       0.14548977 0.007080898 0.5974634 0.03673404
000020 16 44 c2 3c 53 36 17 3f 7e 1f 1d bf 5e 90 9f 3d
       0.023714107 0.5906727 -0.6137618 0.07791208
000030 f0 06 9b 3d 33 10 25 3e 41 75 a4 3d 79 b8 c9 3d
       0.075696826 0.16119461 0.08030177 0.098496385
000040 82 1e af 3c f4 af 8f 3e 33 d0 c2 3d 8a 97 de 3d
       0.021376852 0.2806393 0.09512367 0.108687475
000050 cf 56 c4 be f3 0d 96 bf 33 3c 16 bf 56 04 4b 3e
       -0.3834748 -1.1723007 -0.58685607 0.19825873
000060 1e 9e f9 3d ee 8e f1 3d 3a 76 45 3f 22 91 02 3f
       0.121883616 0.1179484 0.77133524 0.51002705
000070 29 e6 2e 3d 2c a1 9d 3e e1 6e 96 3e 9f 6f b4 3e
       0.042699967 0.30787027 0.2938147 0.3524141
000080 c5 3b 5f 3f 7e c6 3a be c2 0d 65 bf 6f 65 13 3e
       0.87200576 -0.18239781 -0.8947412 0.14394163
000090 40 2a 30 3f c2 99 56 be ff bd 16 3f e5 ea 20 bf
       0.6881447 -0.20957091 0.5888366 -0.6285842
0000a0 a3 a6 ea 3e 56 6f 3a 3e 4c 46 99 3e 10 e9 e4 3d
       0.4583026 0.18206534 0.29936445 0.11177266
0000b0 bb 0a a4 3e 2b f3 f3 3d 64 7b ea 3d 2e c9 19 bd
       0.32039437 0.11911615 0.11449316 -0.037545376
0000c0 c4 f9 34 3d e8 6d 45 bd 7f 37 65 3d db f9 db 3d
       0.044183508 -0.048200518 0.05596113 0.107410155
0000d0 c7 3c 00 3e 1b 69 c4 bf 37 e4 5e be b4 2f 2a 3c
       0.12523185 -1.5344576 -0.21766745 0.01038735
0000e0 05 98 29 3d 78 f3 3a 3d 1d c6 72 3e 42 e0 fe 3d
       0.041404743 0.045642346 0.23708387 0.124451175
0000f0 a6 14 b4 3d 5d c2 e1 be 48 59 b0 3e 0c c4 a3 3c
       0.08793001 -0.440936 0.34443116 0.019990943
000100 6a 19 55 3d d7 81 f9 3c 5d ce 01 3d 49 a0 61 3e
       0.05202619 0.03045742 0.031690944 0.220338
000110 19 7f bc bf 04 b9 3e 3f be dc 34 3e a8 7f 58 3e
       -1.4726287 0.7450106 0.17662331 0.21142447
000120 00 ad 1c 3f c3 05 2e 3f 24 b9 8d 3e 75 6d c0 3d
       0.6120148 0.6797754 0.27680314 0.09395877
000130 70 68 6c 3e 80 b0 ca 3e 51 0b af 3e 2c b6 2f 3e
       0.23086715 0.39587784 0.3418832 0.17159337
000140 f3 ab 38 be 69 9d cc 3e dc 6b 23 3d f1 a5 21 3d
       -0.18034343 0.39963844 0.039897785 0.039464895
000150 c3 ab 1e 3d 3f 21 9f 3e 96 42 5c 3f 47 31 57 3d
       0.038738023 0.31080052 0.860391 0.05253723
000160 2a 88 70 3d 7b b7 2a 3f b2 2e 6d 3c 6c 53 2f bf
       0.058723606 0.6668622 0.014476465 -0.68486667
000170 b0 c6 86 3d 50 76 16 3d d8 1f 74 3d 4d 5e 42 3f
       0.065808654 0.036733925 0.05960068 0.7592514

fc3.weight f4 [24, 96]
000000 ac 89 da be d7 80 3d bf de 92 15 bf 1d 05 51 bf
       -0.4268316 -0.7402472 -0.58427227 -0.8164843
000010 07 ec 31 bc 9d 79 99 3c ab 7d 37 bf d5 f3 de 3b
       -0.010859496 0.018734748 -0.7167613 0.0068039694
000020 75 aa 3f bc 84 7a 1c bf 3e 38 a4 3e 10 d8 fc bd
       -0.011698355 -0.61124444 0.3207416 -0.12345898
000030 d5 6a 33 bc a9 97 c4 bc 8a 9b 1e bd 0c a8 21 3d
       -0.010950764 -0.023998098 -0.038722552 0.039466903
000040 97 6f 5a 3d cb 5c 84 bd 4f 57 16 3d 29 ea 39 bc
       0.053329077 -0.06463011 0.036704358 -0.011347332
000050 46 84 e3 3d c5 34 3a 3e 0d 47 c5 3d 60 62 3a bf
       0.111092135 0.18184192 0.096326925 -0.7280636
000060 75 b1 90 bf 64 fe a1 bd 22 a7 10 bf 52 2d 0e bf
       -1.1304156 -0.07909849 -0.56505024 -0.55537903
000070 b9 63 47 3d 10 24 33 bf 77 70 0f bf 44 80 56 bf
       0.048679087 -0.699769 -0.5603098 -0.8378947
000080 58 73 7f bd 5c 2e d3 3d 4a 79 61 3e 73 59 a1 bb
       -0.06236586 0.10311577 0.22018924 -0.0049239933
000090 b8 da 05 bf 5c 3b c0 3d b0 06 05 bf 6f bc 1a 3e
       -0.52286863 0.09386322 -0.5196333 0.15110944
0000a0 75 cd b4 be fe 76 8a 3d 1d 7f 97 be 90 1d 5f 3d
       -0.35313 0.06760977 -0.29589167 0.054471552
0000b0 3c cd 2c bf 97 ee 4c bd b4 35 da 3a 5f 32 ba bc
       -0.6750066 -0.050032225 0.0016648085 -0.022729097
0000c0 bb a9 6d bf 0a d1 5e 3c bb d8 2d 3c 43 15 37 3d
       -0.92837113 0.0135996435 0.010610755 0.04469801
0000d0 6b bb 54 bf 0a 0b 70 3f 1d 52 3a 3e e9 e8 a5 3c
       -0.8309848 0.93766844 0.18195386 0.020252662
0000e0 33 f6 0b 3d ad b4 c2 3c 1d 48 ff 3c a6 a6 43 bf
       0.03417034 0.023767794 0.031162316 -0.7642616
0000f0 5e c3 bf 3c 5a 4d 4b 3e 35 5c 37 bf 94 cf 92 bc
       0.023408588 0.19853726 -0.7162507 -0.017921247
000100 7b bd 09 bd ed 66 ee 3b de 4a 3d 3c e9 cf 20 bf
       -0.03362797 0.0072754533 0.011553494 -0.62817246
000110 4a 5b fa 3e b4 1f 1d bf c8 0b f1 3b 96 92 3b bf
       0.48897773 -0.613765 0.0073561408 -0.7327055
000120 27 f0 17 bf b4 0b df be c3 44 40 bf 37 01 66 3a
       -0.5935082 -0.43563616 -0.7510492 0.0008773985
000130 bf bb 18 bf aa f5 f7 be d3 31 0d bf 1b 31 8a bc
       -0.5966148 -0.48429614 -0.5515415 -0.016869118
000140 08 f8 30 bc de ca 31 bf 0c 31 0b 3d 43 b6 e6 bc
       -0.010801323 -0.69450176 0.03398232 -0.028163081
000150 ca 6a 7d bd 26 99 58 bf 4a 4f 0a be c7 b8 85 bc
       -0.06186942 -0.84608686 -0.13506809 -0.01632346
000160 fb c0 68 bd 9b e5 34 bf 46 7d 1a bd ec 73 01 3e
       -0.056824666 -0.7066285 -0.037717126 0.12641877
000170 64 ab 1a bc 4a a4 a3 bb 6d 77 84 bd 05 ab 25 bf
       -0.009440277 -0.00499395 -0.06468091 -0.6471408
000180 95 84 c3 bb ae 7b 5c be 77 af ef 3c f6 cd c0 be
       -0.0059667327 -0.21531555 0.029258473 -0.37657136
000190 ff f2 98 3e 73 c4 c1 3e 61 cc 6d bd df f2 b5 3d
       0.2987289 0.3784519 -0.05805624 0.088842146
0001a0 44 10 4f 3e 73 10 e6 bd ba 3f d6 3e 4a b9 4a 3e
       0.20221049 -0.11233606 0.41845495 0.19797245
0001b0 0e a2 a9 3e 11 ec 3c 3e 5a b8 51 3e ad 42 42 3d
       0.3313145 0.18449427 0.20480481 0.04742687
0001c0 ac d2 e9 3e 96 cc 13 3e 3b 43 76 3d 7d e7 b8 3e
       0.45668542 0.14433512 0.06012271 0.36114112
0001d0 91 5c 18 3e 32 76 2a 3f 9b f8 16 3f 7f fc 50 be
       0.14879061 0.665866 0.5897309 -0.2040882
0001e0 fd a8 04 bf e9 8b de 3d 7f e2 47 bd e1 be 53 bd
       -0.51820356 0.108665295 -0.048799988 -0.05169571
0001f0 4c 0e 7b 3e dd ee a1 be ab 0b ad bd a8 a3 9b be
       0.24517173 -0.3162755 -0.08449491 -0.30398297
000200 cf 8a 22 be d2 1e c4 3e 1e d1 c3 3e 21 cf d1 3e
       -0.15873264 0.38304764 0.3824548 0.4097834
000210 b9 51 e1 3b 5c b8 a2 3e 09 c7 53 3c d6 f5 9d 3e
       0.006876197 0.3178128 0.012925872 0.3085162
000220 21 5c f2 bd 09 16 73 3e d7 ef d8 3d 14 bf 5f 3e
       -0.118339784 0.23738874 0.10592621 0.21850234
000230 ac a4 3d be ab cf 85 3e a3 d4 29 3e 0e 11 dd 3e
       -0.18519849 0.26135 0.1658502 0.43177074
000240 79 be bf be ea d7 ad 3e e1 b6 80 3e 72 42 aa 3e
       -0.37450007 0.33953792 0.25139526 0.3325382
000250 84 f4 83 be ac 80 c1 3e b7 1a 68 3e f7 4a aa 3e
       -0.25772488 0.3779348 0.22666441 0.3326032
000260 01 cb b4 3e 72 ee 9e 3e ca 28 e1 bd 24 f7 07 bf
       0.3531113 0.31041294 -0.10994108 -0.5311148
000270 49 1f 0c 3e ac fe 23 3e 1d cd e2 bd 74 59 d3 3e
       0.1368381 0.16015118 -0.110742785 0.41279185
000280 2d 0e 72 3e 92 cf 51 3e a4 86 91 3e fa b1 3a be
       0.2363822 0.20489338 0.28423035 -0.18231955
000290 5d 0b 3b 3f 6a 20 ac bb 8c f3 9f 3d d3 58 78 bd
       0.73064214 -0.0052528875 0.07810125 -0.060631584
0002a0 03 68 50 3c 36 95 70 3c 14 5c d6 bd a2 26 cb 3e
       0.012720111 0.014684012 -0.10466781 0.39677912
0002b0 f0 5e a1 be 0e df 8e be 30 29 cc bd 1b 33 4d 3e
       -0.31517744 -0.27904552 -0.099687934 0.20039026
0002c0 4d 14 5b 3d 3e b3 e3 bd ca 26 73 3e 92 66 0a 3e
       0.053486157 -0.11118172 0.23745266 0.1351569
0002d0 80 09 8a 3d aa ea f7 bd 0a fc 96 be 7f b8 a6 3e
       0.06740093 -0.121053055 -0.29489166 0.32562634
0002e0 c0 46 1d 3e 53 da 00 bc 00 62 98 3e 79 a3 13 3f
       0.1535902 -0.007864553 0.29762268 0.57671314
0002f0 4c 48 6c 3e 38 d0 ff 3d 42 23 92 3e 4f 26 b8 bb
       0.23074454 0.124908864 0.28542525 -0.005619801
000300 80 73 22 37 80 d6 b8 bd 38 e0 d2 ba 92 41 a5 be
       9.682844e-06 -0.09025288 -0.0016088551 -0.3227659
000310 10 a8 48 3f 4c 44 11 3f 72 47 6a 3b 41 70 14 3f
       0.78381443 0.5674484 0.003574815 0.57983786
000320 a8 69 2f 3f 2b 96 04 be bb 1b a6 3e ca 8b dd 3e
       0.68520594 -0.1294791 0.32443032 0.43270713
000330 e0 6c 25 3f 8e 32 f8 3e be 7b ed 3e 96 43 bb 3e
       0.64619255 0.4847607 0.4638347 0.36575
000340 74 90 4a 3f 13 54 75 3e 9d 89 fd 3d 2a 23 11 3f
       0.7912667 0.23957853 0.12379763 0.5669428
000350 8f f6 a4 3e 77 26 b9 3e 4b a1 2b 3f 82 45 17 3d
       0.3221936 0.3616216 0.6704299 0.036931522
000360 30 46 25 be ee 0f 14 3f 6d a5 1b 3d 0c 08 33 3b
       -0.16140056 0.57836807 0.03799956 0.0027318029
000370 87 03 2c 3f 5e 24 ed bd c6 96 f3 bd 99 b4 3a be
       0.6719288 -0.11579202 -0.11893992 -0.18232955
000380 49 c2 82 be e6 41 d5 3e ed 1c 9a 3e f5 be 11 3f
       -0.25538853 0.4165184 0.30100194 0.56932
000390 16 52 b2 bd 61 30 be 3e ae 14 28 bc 73 6b 99 3e
       -0.08707063 0.37146285 -0.010258837 0.2996479
0003a0 30 f5 81 bc 03 b1 0c 3f e7 87 c0 3d 11 75 1b 3f
       -0.015863985 0.549576 0.09400921 0.60725504
0003b0 7d 18 f7 bc 04 45 27 3f d3 44 e6 3e f4 b6 c9 3e
       -0.030163044 0.65339684 0.44974384 0.39397395
0003c0 bc 19 60 be 38 5d a9 3e d9 58 b8 3e 55 d1 01 3f
       -0.21884817 0.33078933 0.36005285 0.5071004
0003d0 43 e3 5d be 71 96 ea 3c 54 94 dc bd 8a 05 1e 3f
       -0.21668725 0.02863619 -0.10770479 0.617272
0003e0 0f 7d 1b 3f b9 ed 56 3f c7 b0 c6 3e 2b c2 4e be
       0.607377 0.83956486 0.38806745 -0.20191257
0003f0 74 21 20 3f 79 74 67 3e 7a 90 7b bd 63 f0 f4 3e
       0.62551045 0.22603025 -0.06141708 0.4783965

fc3.bias f4 [24]
000000 15 16 e8 bf 2d 21 33 bf 81 c8 31 bf e1 15 83 bf
       -1.8131739 -0.699725 -0.6944657 -1.0241052
000010 38 b0 bd bf e1 8a bc bf 47 b2 44 bf dd cd 88 bf
       -1.4819403 -1.4729882 -0.7683453 -1.0687824
000020 af 9e b5 bf 98 62 3c bf cf 72 5c bf 00 a9 62 bf
       -1.4189051 -0.7358794 -0.86112684 -0.88539124
000030 02 33 42 bf 5e b5 76 bf 5e 61 93 bf 50 db b5 bf
       -0.7585908 -0.96370494 -1.1514089 -1.4207554
000040 c8 de 66 bf b6 00 e0 bf d2 2d b6 bf 66 28 d0 bf
       -0.9018369 -1.7500217 -1.4232733 -1.6262329
000050 6e 6a e6 bf b6 dd 5c bf 51 92 e1 bf 4a da 3c bf
       -1.800123 -0.86275804 -1.7622777 -0.7377058

fc4.weight f4 [2, 24]
000000 94 20 8d bf c6 f0 eb 3b 6a c9 fa bb b1 f7 c3 be
       -1.1025567 0.0072003333 -0.007653405 -0.3827491
000010 aa 55 49 bf 7a 61 55 bf 08 09 5b 3d cd 3a 33 be
       -0.7864634 -0.8335186 0.05347541 -0.175029
000020 2c 75 42 bf 70 13 a6 3f 9e f4 d2 3c b8 f8 ca 3a
       -0.7596004 1.2974682 0.025751408 0.0015485501
000030 b1 cc 87 3c b4 30 13 bf 52 fb 72 be 15 21 31 bf
       0.016577097 -0.5749619 -0.23728684 -0.69191104
000040 9a 16 a3 bd 24 3d 87 bf ab e7 42 bf aa 91 61 bf
       -0.07963295 -1.0565534 -0.7613475 -0.8811289
000050 6d 74 8d bf 64 cc 12 3c 33 ee 7b bf 9b 8c a6 3f
       -1.1051155 0.008959863 -0.9841034 1.3011659
000060 a0 3b 46 40 62 87 31 3f 25 e1 d9 3e 11 b1 00 40
       3.0973892 0.693472 0.42554584 2.0108073
000070 5a ad 2d 40 d2 59 2e 40 ab 7a da 3e 90 88 f3 3f
       2.7137055 2.7242322 0.42671713 1.902605
000080 05 4b 27 40 e0 0d ae bf 85 a9 3c 3f a1 6a 60 3f
       2.6139538 -1.3597984 0.73696166 0.876627
000090 be d2 e2 3e cd 95 bf 3f 2e 47 d0 3f 6f 54 24 40
       0.4430141 1.496759 1.6271722 2.5676534
0000a0 c7 2a 60 3f c8 5f 40 40 03 3a 2d 40 27 1f 48 40
       0.87565273 3.005846 2.7066658 3.1269014
0000b0 e6 4d 5e 40 85 eb f1 3e b9 e6 44 40 5e 39 a8 bf
       3.4735045 0.4725 3.0765822 -1.3142507

fc4.bias f4 [2]
000000 32 fb ec 3f 0b ca 49 bf
       1.8514159 -0.7882392

fc5.weight f4 [1, 2]
000000 37 67 66 40 4e 1a 45 c0
       3.6000497 -3.0797305
