T3-2024/Federated_Learning/Improved_FL/SRC/FL_parameters/server.pth (torch, 34090 bytes, 9 tensors)

fc1.weight f4 [48, 12]
000000 72 b6 94 3d 9c de cc 3b ec 7c 17 3f 66 e2 c1 bd
       0.07261361 0.006252123 0.5917499 -0.0946701
000010 11 65 ca 3d b5 96 53 3e 1f ed 3c 3e 72 fb 1c 3e
       0.09882558 0.20662959 0.1844983 0.15330294
000020 df f4 9c be a4 48 8a 3d ae c0 b7 3e fe 2e 82 3d
       -0.30655572 0.06752136 0.3588919 0.06356619
000030 53 70 12 3c 49 f3 b6 be 55 ab f0 be 32 ae 9b 3d
       0.008937913 -0.35732487 -0.47005716 0.076015845
000040 eb 1e d1 3e c0 f1 e0 be 14 1b b7 be e6 d1 a1 3c
       0.408439 -0.4393444 -0.35762846 0.019753408
000050 97 62 a7 bd f9 21 ee 3d 11 49 9e bd 08 a0 42 3c
       -0.081731014 0.116275735 -0.0772878 0.011878975
000060 67 dc 42 bd f7 55 00 bd 4d c2 5f bf 9f fe 83 3d
       -0.047573473 -0.031331982 -0.87405854 0.064450495
000070 3d c4 a2 3e fb 80 f3 be 62 d8 7f 3e 05 17 2d 3e
       0.31790343 -0.47559342 0.24984887 0.16903313
000080 f9 8a 43 bd 65 1e d0 3d ec 6f 52 bd 63 00 71 bd
       -0.047739957 0.10162047 -0.05137627 -0.05883826
000090 e1 e5 d7 bd a6 8d 4e bc 14 9b 55 bf 14 2c 1b 3c
       -0.10541893 -0.012607014 -0.83439755 0.009470958
0000a0 86 20 ec bc 22 97 4e be 90 e1 dd bd 61 49 d6 bc
       -0.028824102 -0.2017484 -0.10834038 -0.026158037
0000b0 d0 cb b0 bc 5f c9 4f 3d b5 8b 16 bd 78 87 43 3c
       -0.02158156 0.05072915 -0.03675433 0.011934154
0000c0 53 eb 59 bd af 79 59 3d db f7 61 bf 9c 7a 19 3d
       -0.05320294 0.053094562 -0.8826882 0.037470445
0000d0 af 74 47 bc 06 16 91 be 9a 0b 81 3d 4b e6 ef bc
       -0.012173816 -0.28337115 0.06301041 -0.029284617
0000e0 8e f7 c7 3c ca 78 db 3c 83 e2 c8 bd 69 6e 86 3b
       0.024410035 0.026790995 -0.09808829 0.0041025174
0000f0 60 55 8d 3d 0c 52 06 3e e7 bc bc be 13 44 9f 3c
       0.069010496 0.13117236 -0.3686287 0.01944164
000100 8d ce 37 be 71 cc b2 3e e8 9f 71 bf 40 96 f1 bd
       -0.17949887 0.349216 -0.9438462 -0.11796236
000110 a7 e0 b3 3d 85 9a 0f 3b 4a 21 b2 be d9 eb 54 3e
       0.087830834 0.002191217 -0.34791023 0.20793094
000120 30 ce 8b bb 94 f6 18 3e 54 d0 50 bf 16 0a 26 bc
       -0.004266523 0.14937812 -0.81567883 -0.010134241
000130 86 7c d6 3c 16 e9 99 be 0a 79 21 3e 9e c2 24 bd
       0.026182424 -0.30060643 0.15768829 -0.040224664
000140 03 ea 49 3d 48 7c 08 bc e0 29 b1 bd 8b 0f 84 bd
       0.049295437 -0.008330412 -0.08650565 -0.06448277
000150 5d b0 9e 3e 86 b1 13 3e 31 da 8f bd e4 fc d8 bd
       0.3099393 0.14423189 -0.070240386 -0.1059511
000160 ce 54 97 3c ae 21 14 bf 8d d3 17 bf bc 8b dd 3d
       0.018473055 -0.5786389 -0.59307176 0.10817668
000170 20 9d b8 3c 86 92 5d 3d 29 96 2e bd 1c 92 f3 3c
       0.02253586 0.054094814 -0.042623673 0.029732756
000180 76 af 58 bc 7a c3 71 3c 12 6a 81 bf f2 4c bb 3d
       -0.013225427 0.014756078 -1.0110495 0.091455355
000190 b6 06 5e 3d 38 e8 ae bb d3 7c 0a be 5a 94 50 bc
       0.05420562 -0.005337741 -0.13524179 -0.012730682
0001a0 d3 8e fc 3c 7e d7 00 bd 9c d5 6c bd f0 62 25 3d
       0.030829823 -0.03145551 -0.0578209 0.040377557
0001b0 25 1a 8f 3d 9a ba 21 bc 3e e2 32 3f 26 06 07 3e
       0.069874085 -0.009871149 0.6987647 0.13185939
0001c0 ba 71 d8 3d 71 48 63 3d 10 8a 33 3e 8f 41 82 3d
       0.105685666 0.055489007 0.17533135 0.063601606
0001d0 ed e9 c4 bc 9a c6 0a 3d 13 2a 25 3e f4 72 4f bb
       -0.024037326 0.033880807 0.16129331 -0.003165421
0001e0 0e 00 f3 3d a8 5b 86 be 01 85 29 bf 0f 6c 24 bd
       0.11865245 -0.26241803 -0.6621857 -0.040142115
0001f0 e1 27 33 3c 8d 9e b5 be c0 b0 53 3e 37 ca a3 3c
       0.010934801 -0.35472527 0.20672894 0.019993884
000200 a4 64 cd bc 24 d5 5a 3b 2e 46 5a bd 52 88 5f bc
       -0.025072403 0.0033391202 -0.053289585 -0.013643341
000210 eb 50 ad 3a 73 c2 2c 3d 8b c9 02 3e bc bd 80 bd
       0.0013222968 0.04217763 0.12772195 -0.06286189
000220 13 85 37 bf d2 02 72 3d ac d4 9d bf 9f 2a 92 3c
       -0.7168743 0.05908472 -1.2330527 0.017842589
000230 de ff 88 3d 60 bd ef 3d 9d 66 fd bd c3 74 e7 3c
       0.06689428 0.11706042 -0.123730876 0.028253919
000240 c7 34 ee 3b 49 f3 37 bb 19 f0 79 be 74 82 6d bc
       0.007269475 -0.0028068593 -0.24407996 -0.0144964345
000250 13 c3 80 bd 65 3c 05 bf 5f a5 05 bf 14 2e 72 bc
       -0.062872075 -0.5204528 -0.5220546 -0.014781494
000260 a0 6d e9 b9 44 b3 dc 3c 61 d1 03 be 98 94 58 3d
       -0.000445229 0.02694095 -0.1287284 0.052876085
000270 0c e1 ba 3c e7 dd 5a 3e ec dd 67 bf 3e 1a 2d 3d
       0.022812389 0.21373712 -0.90573 0.042261355
000280 a6 c3 76 bc d2 8b e7 be 9f 6b c1 3e 76 60 cd bd
       -0.015061295 -0.45223862 0.3777742 -0.10028164
000290 60 14 2b 3d f8 d1 48 3d 4c da 8d bd a7 13 04 bd
       0.041767478 0.049028367 -0.069264024 -0.032245304
0002a0 34 8e e5 bd 93 a9 43 3d 84 d6 51 bf 1e 26 d6 3d
       -0.11208764 0.04776914 -0.8196795 0.10456489
0002b0 47 83 be bd 79 ce b3 bd 30 6d 9a 3e a6 86 08 bc
       -0.09302383 -0.08779616 0.30161428 -0.008332884
0002c0 ac 9a 3f 3d 8f c8 e8 3d 04 3c b8 bc 20 cc 26 3e
       0.046778366 0.113663785 -0.022489555 0.16288805
0002d0 8c 9b 75 3b 7e 19 82 3d 57 3e 15 3f 54 2e d7 3d
       0.0037476746 0.063525185 0.5829825 0.10506883
0002e0 6e a7 24 3e 47 57 ea 3d 9a e5 24 3e f8 d4 73 3d
       0.16079494 0.11442428 0.16103211 0.059529275
0002f0 72 bd 4d 3d ac a7 97 3d 18 20 8a 3d 13 4d 82 3c
       0.050229497 0.07405028 0.06744403 0.015905892
000300 4c 0c c8 3d 3d 7e c5 bc c6 74 2f 3f 24 1d be 3d
       0.097679704 -0.024108047 0.6853756 0.09282902
000310 89 67 29 3e 2e 32 11 3e d7 d7 42 3e 46 f5 fc 3c
       0.16543402 0.14179298 0.19027649 0.030878674
000320 40 86 5e 3d 5f 85 c2 3d ae f5 77 3d 63 49 dd bc
       0.05432725 0.09498095 0.060537033 -0.027012533
000330 f8 23 ce bd 4f d8 b1 3d 9c 8f 4b bf c0 e0 33 bd
       -0.10065454 0.08683836 -0.79516006 -0.04391551
000340 ac 49 1c 3a 3e fa c3 be fa 9e f5 bd fa e0 7c 3c
       0.00059619057 -0.38276857 -0.11993213 0.015434498
000350 d4 8d e1 bc 3f cf 5a 3b 51 a9 d5 bd ca 7d a3 3c
       -0.02753345 0.0033387688 -0.10432685 0.019957442
000360 e9 09 f2 3d d9 56 56 be de ca 20 3f 44 dc 56 3d
       0.118182965 -0.20931567 0.6280955 0.052456155
000370 ab 29 0f 3e e2 27 d8 3c 9f dc 34 3e e6 c6 b8 bf
       0.13980739 0.026386205 0.17662285 -1.4435699
000380 ea ec 08 bd 37 54 81 3d 1b ef 27 3e 22 0c 9b bd
       -0.033429064 0.06314891 0.16399805 -0.075706735
000390 6a 6f f7 3d 10 4d e2 bc 0a 63 72 bf d2 01 02 3a
       0.120817974 -0.027624637 -0.9468237 0.00049593777
0003a0 fd b4 3e bd 1f 9c 91 be 16 ab 18 3e d4 70 2e bd
       -0.046559323 -0.28439423 0.14909014 -0.04258807
0003b0 b0 1a 6c 3d dd 8b 2d bd 70 5a f8 bd 62 1d b3 3b
       0.05764264 -0.042369712 -0.121266246 0.005466149
0003c0 c3 84 04 bc c3 31 a0 3d 04 d2 37 3e 9c dc 72 bd
       -0.0080882935 0.07821991 0.17951208 -0.05929242
0003d0 42 a1 40 bf 50 56 b7 3c ff 4c 9e bf bb 8a 18 3d
       -0.7524606 0.022380024 -1.2367247 0.03724168
0003e0 6f 58 93 3d 38 58 e2 3d e4 08 1f be 60 c6 15 3c
       0.07194602 0.11051983 -0.15530735 0.009141535
0003f0 08 fb ba 3d 52 4a 5c bd 17 dc 77 bf c4 15 14 3d
       0.09129912 -0.053781815 -0.96820205 0.03615357

fc1.bias f4 [48]
000000 72 d4 15 bf 86 33 44 3e ad 48 02 3c f8 89 15 3f
       -0.5852729 0.1916028 0.007951898 0.5841365
000010 ca 50 df 3e 35 43 b7 3d ea d9 8d 3e 2d 4f e1 bd
       0.43616325 0.089483656 0.27705318 -0.1100143
000020 93 81 dd 3e a4 91 28 bf fe 4f c9 3e bc 7f 90 3e
       0.4326292 -0.6584723 0.39318842 0.28222454
000030 a2 0d cd 3e 42 b9 c6 3d d0 c1 3d bd 02 c9 21 bf
       0.40049464 0.09703304 -0.046327412 -0.6319734
000040 b9 71 3a bf 14 61 18 3f 05 46 d2 be c3 f2 dc 3e
       -0.72829777 0.5952313 -0.41069046 0.43153962
000050 60 f8 93 3e 03 97 96 3e 3a 66 06 bf 6a 75 9a 3e
       0.28900433 0.29412088 -0.52499735 0.30167705
000060 c8 00 8b 3e ff 14 1e 3f 8b 79 d2 be 7c 1a eb 3e
       0.27149034 0.6175079 -0.41108355 0.45918643
000070 59 17 80 be 48 33 10 3f f2 dc 04 3f 4d ab 29 bf
       -0.25017813 0.5632825 0.51899636 -0.6627701
000080 bf ec 3c bf db 2a 9e 3e 5a ac 4e 3e 48 8f 72 3e
       -0.73798746 0.3089207 0.20182934 0.2368747
000090 11 66 c5 be 01 2a 09 3f 52 d5 03 3e 04 73 a7 3e
       -0.38554433 0.5357972 0.12874344 0.32704937
0000a0 ae 57 a8 3e c0 23 fe 3c b9 12 07 3f c5 3e 42 be
       0.32879394 0.031022906 0.52762944 -0.18969257
0000b0 99 b2 4d be 41 37 05 bf c1 f3 18 bf b1 48 bc 3e
       -0.20087661 -0.52037436 -0.5974694 0.3677421

fc2.weight f4 [96, 48]
000000 63 fa dd 3e 52 ad e0 be 58 f4 38 bf b1 73 06 bf
       0.43355092 -0.43882233 -0.7224784 -0.5252028
000010 d2 51 b2 be 8b 7c 3e bf 30 de 40 bf 8b 05 1f bf
       -0.3482805 -0.7440879 -0.7533903 -0.6211783
000020 9a 12 4e bf d8 45 e8 3e 89 9f 5c be 9c 02 02 c0
       -0.80497134 0.45365787 -0.21545233 -2.0314093
000030 fa 30 14 bf ee ba 00 bf d7 7d 1a bf d5 5b 08 3f
       -0.5788723 -0.5028523 -0.60348266 0.53265125
000040 bc 5b 16 3f ee 17 f4 be 2a e5 01 3f 84 d7 ab be
       0.58733726 -0.47674507 0.507403 -0.33562863
000050 82 3d 0c c0 e0 87 be be aa ca cb 3e 26 39 06 c0
       -2.1912541 -0.3721304 0.39803058 -2.097238
000060 07 46 19 c0 3a 84 e7 be ce 1a 08 3e 15 74 cb be
       -2.3948991 -0.45218068 0.13291475 -0.39737
000070 29 d3 ea 3d 9c 10 ad be 80 ff a5 be 22 4e b8 3e
       0.11466057 -0.33801734 -0.32421494 0.3599711
000080 a6 ad 34 3f 52 b9 ec be f5 bc 08 bf cb 50 ef bf
       0.70577466 -0.46235138 -0.53413326 -1.8696531
000090 14 a1 d2 3e 61 37 fa be 24 1a 39 bf 97 32 1b bf
       0.41138518 -0.48870376 -0.7230551 -0.6062407
0000a0 fe 97 00 bf 4d 02 4a bf 2f 41 26 bf ab cc bd bd
       -0.5023192 -0.7890976 -0.6494321 -0.09267553
0000b0 37 e8 06 3e 7d 33 0d 3f 42 29 30 3f 28 3d 5d bf
       0.1317452 0.5515669 0.68812954 -0.8642144
0000c0 e4 5f 81 3e ad 8a 4e bf 33 40 30 bf 10 8e 4f bf
       0.2526847 -0.8068035 -0.6884796 -0.81076145
0000d0 b7 ac 1d bf ff 62 96 bf ad 8c 65 bf d4 07 2d bf
       -0.61591667 -1.1748961 -0.8966778 -0.6759007
0000e0 98 ef 39 bf 5c 6e ba 3e 60 71 cb be aa 57 a4 bf
       -0.72631216 0.36412323 -0.39734936 -1.2839253
0000f0 3d b2 44 bf 57 98 37 bf ec f2 fc be 6f 7a cf 3e
       -0.7683447 -0.7171683 -0.49404085 0.40523097
000100 c4 a8 13 3f 88 dc 0b bf 20 30 ba 3e ae d8 13 bf
       0.5767939 -0.5463338 0.3636484 -0.577525
000110 55 fd ab bf a0 c2 27 bf 5a 05 3f 3e a0 2b a9 bf
       -1.3436686 -0.6553135 0.18654385 -1.3216438
000120 3d 3d bc bf b3 ff fb be 36 f2 40 3e ae b5 07 bf
       -1.4706188 -0.4921852 0.18842396 -0.53011596
000130 41 f1 0a 3e 74 d1 27 bf 22 5e 3f bf 0a 75 18 3f
       0.13568594 -0.65553975 -0.7475301 0.5955359
000140 68 df a4 3e f9 2d 6a bf e3 af 76 bf cb 4e 9f bf
       0.32201695 -0.914764 -0.9636213 -1.2445921
000150 c9 b6 d3 3d c8 15 20 bf fc e0 82 bf 62 33 7b bf
       0.10337598 -0.62533236 -1.022491 -0.9812528
000160 2f f6 86 bf 10 8b cb be 48 53 34 bf a5 35 00 be
       -1.0543879 -0.39754534 -0.7043958 -0.12520464
000170 3c 4f f6 bd da 05 b1 3e 3f db c3 3d 14 33 56 bf
       -0.120268315 0.34574777 0.09563302 -0.8367169
000180 10 b0 8a 3e b4 3d 70 bf 07 af 62 bf 53 6b 18 bf
       0.2708745 -0.9384415 -0.8854832 -0.59538764
000190 c0 df da be 75 95 9a bf b8 2e 26 bf 8e d6 85 bf
       -0.42748833 -1.2076861 -0.6491504 -1.0456102
0001a0 34 70 58 bf 5b 03 e1 3e da 6f b8 be e8 10 e6 bf
       -0.8454621 0.43947873 -0.36022836 -1.7973909
0001b0 2c 69 45 bf 10 0d f9 be 98 b9 2e bf e9 a4 be 3e
       -0.77113605 -0.48642778 -0.68251944 0.3723519
0001c0 9a 5e 04 3f 89 15 f5 be 9d 5f fb 3e 00 97 bb be
       0.5170685 -0.47867993 0.49096385 -0.3663864
0001d0 22 ef f8 bf 7e d9 a5 be 35 66 02 3f 05 7e e3 bf
       -1.9447978 -0.32392496 0.50937206 -1.7772833
0001e0 64 11 f6 bf c9 ff ef be 7e 14 54 3e 28 ec b5 be
       -1.9224057 -0.46874836 0.20710942 -0.35531735
0001f0 73 e9 53 bd 16 1b 0b bf f5 7f f8 be ca bd 0f 3f
       -0.051736306 -0.54338205 -0.48535123 0.5614897
000200 b2 7e 21 3f 7a 9d 5c bf 64 cd 57 bf ac 71 d7 bf
       0.63083947 -0.8617779 -0.84297776 -1.6831565
000210 8d 14 5b 3e 5b cf 1e bf d2 e4 85 bf 1a 9f 19 bf
       0.21394558 -0.6203515 -1.0460455 -0.60008395
000220 98 98 5a bf 06 a7 2d bf e9 0d 3a bf d5 96 92 bd
       -0.8538909 -0.6783298 -0.72677475 -0.07157675
000230 7f 1a da 3d ee af 1a 3f cd 95 dd 3e 9e 79 87 bf
       0.10649585 0.604247 0.4327835 -1.058399
000240 58 fd 64 3e 57 01 4e bf e6 35 2e bf 43 c7 60 bf
       0.22362268 -0.80470794 -0.6805099 -0.8780405
000250 19 57 1e bf dc 8b 7d bf 92 4d 44 bf fe 90 15 bf
       -0.6185165 -0.99041533 -0.7668086 -0.58424366
000260 0e 5c 5e bf 5d 4e 8f 3e 67 b2 d2 be a8 e5 a0 bf
       -0.86859214 0.27989474 -0.41151735 -1.2570086
000270 57 72 44 bf 24 51 4c bf 54 12 ad be ae 36 93 3e
       -0.7673697 -0.7981131 -0.33803046 0.28752655
000280 93 1b ef 3e 0e 67 38 bf 3b fa 07 3e c1 79 c9 be
       0.46700725 -0.7203225 0.13279049 -0.39350703
000290 51 f1 9f bf ff 97 23 bf a3 7b 63 bd a4 bb 98 bf
       -1.2495519 -0.639038 -0.05553783 -1.1932263
0002a0 68 d0 a5 bf ea 24 61 bf 8c 5d bc 3d 8a c1 e0 be
       -1.2954226 -0.8794695 0.0919753 -0.4389766
0002b0 6e 22 11 3e a4 6e 5a bf 55 75 2c bf 41 9b 02 3f
       0.1417329 -0.85325074 -0.67366534 0.5101815
0002c0 8d d9 0f 3f 78 f9 77 bf 18 fa 7a bf 6c 6e 92 bf
       0.5619133 -0.96865034 -0.9803786 -1.1439948
0002d0 6f 0e 4e 3d 33 47 2a bf 56 5e 82 bf ff de 58 bf
       0.050306734 -0.6651489 -1.0185039 -0.84715265
0002e0 72 a9 5b bf 54 a0 d0 be cc da 71 bf d5 91 26 3d
       -0.8580543 -0.4074732 -0.9447448 0.04066642
0002f0 d8 f9 eb 3c 09 bf a7 3e 4e 79 47 3e 14 9f 6e bf
       0.028805658 0.32762936 0.19479868 -0.93211484
000300 37 1b 9c bd c6 46 1b 3f df 8c db 3e f1 87 1c 3f
       -0.07622378 0.60654867 0.42880914 0.6114493
000310 a0 42 26 3f 02 2f 53 3f bd 06 b9 3e 3e 56 b1 3e
       0.6494541 0.82493603 0.36137953 0.3463611
000320 ca bc 80 3e c7 0f 14 bd de b6 f6 3e 60 b3 52 3f
       0.25144035 -0.03614786 0.48186392 0.82304955
000330 70 41 23 3f 2f f3 d5 3e 04 7f 48 3e e2 dd 55 bd
       0.63771725 0.41787097 0.19579703 -0.052213557
000340 b9 14 c6 bd 01 04 72 3f ac d7 ab 3b 93 ba 32 3f
       -0.09671921 0.9453736 0.005244216 0.6981594
000350 bb 8d 2c 3f a5 f5 3e 3f df 07 2a bd d4 3f 36 3f
       0.67403764 0.74593574 -0.041511413 0.71191144
000360 ea 51 19 3f 67 90 6c 3f b0 80 53 bd c6 5f 5b 3f
       0.59890616 0.9240784 -0.051636398 0.85693014
000370 45 51 0d be f2 a7 2c 3f ce 70 1e 3f 30 09 96 bd
       -0.13800533 0.67443764 0.61890876 -0.07325971
000380 b3 2d 4c bd 1b b0 39 3f d3 d7 41 3f 70 49 3c 3f
       -0.04984827 0.7253434 0.75719947 0.73549557
000390 0e f7 49 bd 1e 9d 26 3f 9a cd 37 3f 72 a2 41 3f
       -0.049307875 0.6508349 0.717981 0.75638497
0003a0 9d 3a 5d 3f 44 68 cd 3e 8b 62 ba 3e 11 ff c0 3d
       0.8641756 0.4011861 0.36403307 0.0942365
0003b0 fa f4 0d 3e ad c9 ed bc ca a6 38 bd 14 8b f1 3e
       0.13862982 -0.02902683 -0.045080937 0.4717642
0003c0 5c 6c 31 bd d4 65 0c 3f 84 5e ea 3e 13 9f 0a 3f
       -0.04331623 0.5484288 0.45775235 0.5414898
0003d0 a6 fb 35 3f 00 2d 38 3f df 16 be 3e 2a 8e 01 3f
       0.7108711 0.71943665 0.37126824 0.5060755
0003e0 fb 4e 72 3f 74 7a 2f bc 69 ab bf 3e 27 a6 c1 3f
       0.94651765 -0.010710347 0.37435463 1.5128831
0003f0 17 e6 33 3f 86 3c d1 3e eb 6a e6 3e e2 b2 f7 bb
       0.70272964 0.40866488 0.45003447 -0.0075591663

fc2.bias f4 [96]
000000 63 0c 3c 3f 02 af 38 3e 86 4c c6 3e 80 a9 2e 3e
       0.734564 0.1803551 0.38730258 0.17056847
000010 da a7 02 3e cd d9 bd 3c 66 9d 0c 3f 2e aa c7 3d
       0.12759343 0.023175145 0.5492767 0.09749256
000020 56 92 83 3d cf 3c 09 3f ee 12 2f bf c2 b4 87 3d
       0.06424396 0.5360841 -0.6838826 0.06626274
000030 c0 e5 8e 3d 8f fb 54 3e 9d 66 af 3d 54 8c e7 3d
       0.06977415 0.20799087 0.08564494 0.11306062
000040 58 6b b2 3c 31 7d 8a 3e 5c db c1 3d f8 61 08 3e
       0.021779701 0.27048638 0.094656676 0.13318622
000050 21 f7 bf be ec 5c 88 bf 0d e4 11 bf 64 21 41 3e
       -0.37493232 -1.0653358 -0.569886 0.18860394
000060 62 9e 9a 3d eb 4f da 3d e8 43 44 3f 40 50 ea 3e
       0.075497404 0.106597744 0.76666117 0.4576435
000070 92 31 9c 3d 89 f9 6a 3e f2 a7 81 3e 79 f7 3f 3e
       0.07626642 0.22946753 0.25323445 0.18746747
000080 28 24 50 3f 4e 32 41 be 09 d9 5f bf bb 75 b4 3d
       0.8130517 -0.18866846 -0.87440544 0.08811518
000090 f8 30 1f 3f c3 c9 77 be 50 8f 11 3f ae 18 1c bf
       0.62184095 -0.2419806 0.568593 -0.6097516
0000a0 d5 74 ee 3e 8a d3 a8 3d 9c 46 73 3e a4 79 ec 3d
       0.4657351 0.08243473 0.23757404 0.115466386
0000b0 ef 8e 92 3e 16 b5 e2 3d c6 78 d9 3d a4 31 52 bd
       0.28624675 0.11069696 0.10618739 -0.051316872
0000c0 b3 cf 95 3d 1e 3b 7f 3d a7 d9 30 3d e9 d5 97 3d
       0.07315006 0.062312238 0.04317632 0.07413847
0000d0 a0 32 07 3e ae 64 ba bf 73 95 58 be 89 02 53 3d
       0.13202906 -1.4561975 -0.2115076 0.05151609
0000e0 5b f2 9f 3d d8 00 7f 3d d3 86 3f 3e d4 92 b8 3d
       0.078098975 0.062256664 0.18703775 0.0901238
0000f0 a1 32 91 3d e2 a6 e2 be d0 1e a0 3e 6f d9 29 3d
       0.07089735 -0.44267946 0.31273508 0.041467126
000100 89 7a 9d 3d 7c 65 9d 3d 65 6a 83 3d dc a7 5c 3e
       0.07689387 0.07685372 0.064167775 0.21548408
000110 f3 9a b3 bf a5 dc 35 3f b2 94 7e 3e 5e 90 51 3e
       -1.4031662 0.710398 0.2486141 0.20465228
000120 4b 09 18 3f 6b 89 30 3f 1d b7 7e 3e 7c c5 c9 3c
       0.5938918 0.68959683 0.2487454 0.0246303
000130 ed 17 70 3e ce 30 c7 3e 79 4e b9 3e 93 ee cd 3d
       0.23446627 0.38904423 0.36192682 0.1005527
000140 53 4d 00 be f4 8a b3 3e 7f b8 c3 3d 68 b6 b2 3d
       -0.12529497 0.3506695 0.09556674 0.087261975
000150 d9 88 08 3e e3 5b a6 3e ca c1 55 3f 87 b8 9f 3d
       0.13333453 0.3249198 0.83498824 0.07798868
000160 c8 57 6d 3d cb 9f 33 3f c3 4e 36 3c 9f 04 41 bf
       0.057945043 0.701657 0.011127177 -0.75397676
000170 5c 04 e1 3d 56 40 52 3d 2e 03 d7 3c 78 c1 3a 3f
       0.109871596 0.051330887 0.026246633 0.7295146

fc3.weight f4 [24, 96]
000000 15 66 df be 53 57 2d bf 0d d8 1d bf 34 66 4f bf
       -0.4363257 -0.6771137 -0.6165779 -0.81015325
000010 2c e5 12 bd 71 56 bf 3b 15 bf 3d bf c3 dc b9 3c
       -0.035863087 0.005839162 -0.74119693 0.022688275
000020 fd fa 7f bc 14 a0 2c bf 86 27 51 3e 1c ba 60 bd
       -0.015623805 -0.6743176 0.20425233 -0.054864988
000030 70 69 ae bb f2 86 24 bd dc 4d 47 3c 45 ff 0a 3d
       -0.0053226277 -0.040167756 0.012164559 0.03393485
000040 22 41 e0 3c f8 f1 5b bd 6c 91 9f 3c 58 e1 d3 bb
       0.027374808 -0.053697556 0.019478522 -0.006466072
000050 82 6c 09 3e 78 d2 88 3e f1 08 ff 3d 64 cc 3b bf
       0.13420299 0.26723075 0.12452877 -0.7335875
000060 71 ad 8b bf a1 75 20 bd 66 ad 10 bf e2 1c 1d bf
       -1.0912305 -0.03917468 -0.56514585 -0.61372197
000070 26 cb 07 bc ce 9e 1e bf 9a c0 00 bf 9f 91 4e bf
       -0.00828818 -0.61961067 -0.50293887 -0.8069095
000080 02 61 b9 bd 9c c8 c5 3d c7 84 59 3e d4 04 92 bb
       -0.09051706 0.09657404 0.21242057 -0.004456142
000090 f0 01 0a bf cf b9 a9 3d 36 24 1d bf 36 f2 03 3e
       -0.53909206 0.08287393 -0.6138338 0.12885365
0000a0 be f7 b5 be ec 0b b4 3a d8 fb 1a be 61 7f 61 3b
       -0.35540575 0.0013736463 -0.15135133 0.00344082
0000b0 b5 8c 29 bf 5b 50 0b bd d4 2a ef bb 13 82 bc bc
       -0.66230327 -0.03401218 -0.0072988067 -0.023011243
0000c0 43 67 6c bf c2 0b 53 3c d3 ca 35 3c d7 66 81 3b
       -0.92345065 0.012881221 0.01109572 0.003949027
0000d0 95 89 50 bf 58 89 75 3f 14 14 15 3e 60 98 94 b9
       -0.81459934 0.95912695 0.1455844 -0.00028342288
0000e0 cd d2 14 3d 54 9a b2 bb c6 49 bd 3c ef 47 43 bf
       0.036333848 -0.0054505263 0.023106467 -0.76281637
0000f0 fc 87 1b 3d 56 b0 4a 3e 5a 03 37 bf db 73 b3 bc
       0.03797148 0.1979383 -0.7148949 -0.02190583
000100 bd 3e fd bc 22 56 0f ba cd d8 2a bb 56 7f 1c bf
       -0.030913705 -0.0005467852 -0.0026069165 -0.611318
000110 47 eb 15 3f 13 cf 13 bf c0 2d c4 bb 6a 4c 37 bf
       0.5856213 -0.57737845 -0.005986899 -0.71600974
000120 85 17 17 bf 9c 20 04 bf 2d 8d 30 bf af 0a 1d bd
       -0.5902026 -0.5161226 -0.6896542 -0.038340267
000130 fb 7e 10 bf 1b ef fc be c7 49 22 bf 95 46 95 ba
       -0.56443757 -0.49401173 -0.63393825 -0.0011388833
000140 ac e4 36 3d 02 cc 35 bf cb c5 83 3d a8 13 c6 bb
       0.044651672 -0.71014416 0.064342104 -0.0060448237
000150 5f dd ea bc b0 29 54 bf 86 95 f7 bd 64 e1 3e bb
       -0.028670011 -0.8287611 -0.12089066 -0.0029126043
000160 ec eb 52 3c 77 65 36 bf dc dc 8b bc 86 60 30 3e
       0.012873631 -0.71248573 -0.017073087 0.17224321
000170 b2 55 ed 3c 7d 88 01 3c 6e d9 2e bd fb 49 1f bf
       0.028971527 0.0079060765 -0.042687826 -0.6222226
000180 49 1e f4 bc 15 b7 88 be cf 06 42 bd 20 9f b4 be
       -0.029799597 -0.2670218 -0.047369774 -0.35277653
000190 15 ab 86 3e 9c 1c a8 3e 82 42 c9 bc 60 ae a1 3d
       0.263024 0.32834327 -0.024567846 0.078945875
0001a0 31 4b 82 3e ac a6 7a bd 87 84 05 3f 49 25 84 3e
       0.25447991 -0.061194107 0.52155346 0.25809696
0001b0 07 12 88 3e 60 e6 36 3e 7b ed 3b 3e 1a 83 5b 3d
       0.26576254 0.17861319 0.1835231 0.053591825
0001c0 06 4e c5 3e 53 5d 0d 3e 88 b4 a1 3d 2e b2 9e 3e
       0.3853609 0.13805132 0.07895762 0.30995315
0001d0 fc bd 48 3e f6 3c 2e 3f 4a 51 20 3f f9 ab 47 be
       0.19603723 0.6806177 0.6262404 -0.19499196
0001e0 3f 45 f9 be 4b 70 2d 3e 87 bd b3 bd a3 af f6 bd
       -0.48685643 0.16937368 -0.08776384 -0.12045219
0001f0 e7 0b 7c 3e 86 2f 99 be e0 02 a7 bd 14 b8 8a be
       0.24613915 -0.2991907 -0.08154845 -0.27093565
000200 87 0e c9 bd ec c1 96 3e d4 06 c3 3e 1e a8 a3 3e
       -0.09817224 0.29444826 0.38091147 0.319642
000210 40 bc 9b 3c 24 1b be 3e 99 5c 4b bd ad ed b7 3e
       0.019010663 0.37130082 -0.049648855 0.3592352
000220 44 35 fc bd f5 bf 06 3e 73 e2 ee 3c 14 26 66 3e
       -0.12314847 0.13159163 0.029160714 0.22475463
000230 c4 4a 54 be 0b ab 4e 3e 5c 0f 4a 3e e0 a1 bd 3e
       -0.20731646 0.20182435 0.19732422 0.37037563
000240 1c a0 c7 be f9 df b7 3e cf 80 4c 3e ce c7 a3 3e
       -0.3898934 0.35913065 0.19971012 0.31988376
000250 a0 97 93 be 41 0c c5 3e bc c7 67 3e 35 47 9c 3e
       -0.28826618 0.3848591 0.22634786 0.30523077
000260 41 e1 a2 3e 58 3a 9c 3e aa ea 8f bd c2 ff 08 bf
       0.3181248 0.30513263 -0.070271805 -0.53515255
000270 9a 7b 09 3e 9f 08 3d 3e 1f 19 39 be 0d 8b ca 3e
       0.13426057 0.1846032 -0.18075989 0.39559212
000280 ee 39 3c 3e 75 d7 20 3e 86 eb 9d 3e 52 e0 66 be
       0.18381473 0.1570719 0.30843753 -0.22546509
000290 bd a5 32 3f 35 e2 13 bd c6 0b d2 3d 7c bf 03 be
       0.69784147 -0.0361044 0.10256152 -0.12866014
0002a0 70 dd 3a bd da 41 fa bb 75 67 2c be 05 55 ac 3e
       -0.045621336 -0.0076372446 -0.1683634 0.33658615
0002b0 3d a2 88 be 2b b1 56 be 83 99 f1 bd b8 23 21 3e
       -0.26686278 -0.20966022 -0.11796858 0.15736282
0002c0 2a 7b d3 3d 38 82 04 be c9 cd 8e 3e 8e 80 3e 3e
       0.10326226 -0.129403 0.27891377 0.18603727
0002d0 1b 8e fe 3d 95 fe 2f be 43 f3 76 be 73 61 9d 3e
       0.12429448 -0.17186959 -0.24116234 0.3073841
0002e0 80 99 50 3e f4 ad 80 bd c2 75 98 3e ab 67 0e 3f
       0.20371056 -0.06283179 0.29777342 0.55626935
0002f0 86 71 75 3e 77 14 ac 3d 2a 4d 6f 3e 92 bb 82 bd
       0.23969087 0.08402341 0.2336928 -0.063834324
000300 e2 2f f7 3a ab bd 23 be 4c 7c 18 bd b2 94 98 be
       0.0018858875 -0.15990321 -0.037227914 -0.29800946
000310 6e 47 3d 3f e1 f5 08 3f 33 ae 96 bd 02 64 0e 3f
       0.7393712 0.5350018 -0.073574446 0.5562135
000320 97 9d 27 3f 07 97 d4 bd 70 bb a5 3e b6 f7 d8 3e
       0.6547484 -0.10380369 0.32369566 0.42376488
000330 8d 78 1a 3f f2 7a 05 3f b5 2d e4 3e 40 63 bf 3e
       0.60340196 0.52140725 0.44566122 0.3738041
000340 92 fb 3c 3f 53 54 6b 3e 1e 35 f9 3d 82 9f 04 3f
       0.73821366 0.22981386 0.121683344 0.5180589
000350 68 00 a4 3e e4 24 c0 3e ba a3 2d 3f b1 36 25 bd
       0.3203156 0.37528145 0.6782795 -0.04033536
000360 d1 0f 52 be 7f bd 16 3f 8b b6 f9 bc 40 f9 c0 bd
       -0.20513846 0.588829 -0.030482551 -0.09422541
000370 35 01 1d 3f 64 93 1e be e0 ce 2e be e2 38 21 be
       0.61329967 -0.15485913 -0.17071104 -0.15744355
000380 da cb 49 be 83 71 d6 3e da 21 9a 3e 46 a8 0e 3f
       -0.1970667 0.41883478 0.30103952 0.55725515
000390 86 c0 d8 bd 85 46 b8 3e 4e f3 ba bd 73 ff 98 3e
       -0.10583596 0.35991302 -0.09128438 0.29882392
0003a0 8e 2f bb bd 6c ad f9 3e 1b 27 2e 3d 38 4d 14 3f
       -0.0913993 0.48765123 0.042517763 0.57930326
0003b0 44 c0 df bd 32 ec 1a 3f 14 1f d9 3e d9 29 da 3e
       -0.10925344 0.60516655 0.42406523 0.42610052
0003c0 59 25 6e be b7 be b1 3e 8e fb 9d 3e fd 83 ee 3e
       -0.23256435 0.34715816 0.30855983 0.46585074
0003d0 72 ba 53 be 39 8f e9 3c 75 32 f9 bd e3 b4 15 3f
       -0.20676592 0.028510677 -0.12167827 0.58479136
0003e0 b1 22 1f 3f 52 02 45 3f c6 db ba 3e 74 08 6d be
       0.6216231 0.76956666 0.364958 -0.23147756
0003f0 46 27 10 3f b8 bc 65 3e e4 7a 6b bd 42 4a e6 3e
       0.56309927 0.22435272 -0.057490245 0.4497853

fc3.bias f4 [24]
000000 73 1a ec bf ee 42 2f bf d4 a4 3b bf 91 66 83 bf
       -1.8445572 -0.684615 -0.7329838 -1.0265676
000010 6b 1e bf bf b5 8c bb bf 66 7e 46 bf de bc 88 bf
       -1.4931158 -1.4652315 -0.7753662 -1.0682638
000020 07 ff b4 bf 4a 5e 34 bf 58 4c 59 bf 0a c9 59 bf
       -1.4140328 -0.70456374 -0.84882116 -0.85072386
000030 6e 8b 3a bf 8a ab 64 bf 60 ff 8b bf 43 5d b4 bf
       -0.72869 -0.8932425 -1.0937309 -1.4090961
000040 f3 77 5d bf 43 cd de bf 6e 4e b7 bf 5b fb cd bf
       -0.86511153 -1.7406391 -1.432081 -1.6092333
000050 70 4b eb bf 5f 30 5c bf 14 3d df bf fb 34 3f bf
       -1.8382397 -0.8601131 -1.7440515 -0.74690217

fc4.weight f4 [2, 24]
000000 22 6b 8c bf 1c 23 e0 b9 03 97 e6 3c 1d b2 c7 be
       -1.0970194 -0.00042750768 0.02814818 -0.39003077
000010 c3 84 4f bf ac ef 52 bf c1 b9 1d 3d d2 bd 69 be
       -0.81061953 -0.8239696 0.038507227 -0.22826317
000020 eb c6 4a bf da 15 a6 3f de 66 01 bd af b8 2d bd
       -0.79209775 1.2975419 -0.031592242 -0.042412456
000030 6f d8 e9 3c f0 c5 de be ef e1 83 be e6 ac 3d bf
       0.028545586 -0.4351039 -0.2575831 -0.7409195
000040 b2 17 82 bd 39 47 87 bf 1f ff 3d bf 83 14 77 bf
       -0.06352176 -1.056861 -0.7421741 -0.96515673
000050 d0 e6 90 bf 71 9d 0a 3d 47 8a 77 bf fe 96 a7 3f
       -1.1320438 0.033841554 -0.9669537 1.3092954
000060 b9 66 6c 40 1d ad 1b 3f c0 8e ce 3e c3 b6 11 40
       3.6937697 0.60811025 0.40343285 2.27678
000070 5a be 4d 40 c0 86 4f 40 6b f4 c7 3e 38 51 fb 3f
       3.2147431 3.2425995 0.39053664 1.9634161
000080 21 96 45 40 21 f7 a8 bf 0c a3 2f 3f 5e 5b 60 3f
       3.0872881 -1.3200418 0.68608165 0.87639415
000090 22 fe d0 3e 50 a1 a5 3f df d6 00 40 05 02 41 40
       0.40818888 1.2939854 2.0131147 3.0157483
0000a0 4b 21 60 3f e3 f0 69 40 9e d3 4f 40 4e bd 5d 40
       0.875508 3.6553276 3.247291 3.4646792
0000b0 7c ab 74 40 d9 4b d7 3e dd a8 66 40 b2 98 a4 bf
       3.8229666 0.42050055 3.6040566 -1.2859099

fc4.bias f4 [2]
000000 e6 78 ec 3f fe 3f 2f bf
       1.8474395 -0.6845702

fc5.weight f4 [1, 2]
000000 66 78 67 40 cd b6 49 c0
       3.6167235 -3.1517823
