T3-2024/Federated_Learning/Improved_FL/SRC/meta_parameters/client3.pth (torch, 34104 bytes, 9 tensors)

fc1.weight f4 [48, 12]
0.16249557 0.0040929075 -0.20719141 -0.13362534 0.12722446 0.23824665 0.035236344 0.14000873
-0.27619314 0.15924533 0.2736543 -0.10735093 0.20712255 -0.28861007 0.1412511 -0.006199213
0.19875802 -0.21952267 -0.11351883 -0.1237321 0.2803666 0.09317583 -0.061783895 -0.27641308
-0.17262432 -0.10159195 -0.123292215 -0.092254214 0.18263848 -0.030950971 0.16145796 0.26885796
0.12373289 0.101261 0.04059329 -0.15317157 -0.2211749 -0.23637195 -0.11787554 0.25318378
-0.28372562 0.14835069 0.10561861 -0.25995007 -0.11349581 -0.18684283 -0.2836545 -0.16325277
-0.1290812 0.05599138 -0.09245053 0.09774748 0.18353745 0.1762817 0.14443918 -0.15006164
-0.05839604 0.13055828 0.08310363 -0.17008078 0.17412506 0.14041306 -0.20308925 -0.022047466
-0.096230365 0.20823859 -0.1840713 0.14864264 0.18174452 0.16467848 -0.01630493 0.08641471
0.11497747 0.16078088 -0.18741034 -0.10723688 -0.04420325 0.018025912 -0.08670236 -0.08873217
-0.061736032 -0.12956905 0.020127803 -0.17694874 0.27818456 0.092791915 0.11348424 -0.07274099
0.015695052 -0.23955871 -0.07863304 -0.08295106 0.07438701 -0.26168856 0.24020341 -0.14843129
0.16864462 0.03794368 -0.2156976 0.2591056 0.11292341 0.07742646 -0.039010506 0.036628585
0.08378085 0.27604088 -0.18795545 0.10647832 0.19872239 0.04120169 0.2866883 0.28638852
0.04763558 -0.03272987 0.28159076 0.16161802 -0.017354827 -0.086859755 0.11484016 0.25343826
0.28518113 -0.20047472 0.06478236 0.12533683 -0.0437532 -0.23880684 0.18778919 -0.052470066
-0.27939817 -0.21369423 0.075225346 0.08980461 -0.20648222 -0.2220503 0.20743297 0.0609659
-0.19861086 0.013404368 -0.25425833 -0.12673058 -0.044265397 0.0010389563 -0.22364877 0.16497576
0.26628193 0.15535401 0.12596053 0.096167 -0.0623272 -0.19615644 0.011763536 0.25378007
0.033736464 0.053990707 -0.16674113 0.06830795 0.07050496 0.25844306 -7.882981e-05 0.1359947
0.27025425 -0.24120586 0.21383461 -0.16125765 0.0533557 0.0978303 0.08071257 -0.2775691
-0.25818944 0.012403241 -0.21810204 0.014214198 -0.009769098 0.17616934 0.099564455 0.28713077
-0.07887583 -0.23030205 -0.13049896 0.099524066 0.22425471 0.27893406 0.15883738 0.0812547
0.26185098 0.13979384 0.014393079 0.18254462 -0.17459589 0.21561466 -0.09327665 0.11886748
-0.0055989134 -0.19751889 0.0842597 0.0034241804 0.22809805 0.28263074 0.15791608 0.16175829
-0.09390393 -0.28164223 -0.2201044 -0.08634542 -0.16756888 0.107151374 -0.19961827 0.13492821
-0.22343978 -0.18870492 -0.07988355 -0.17220879 -0.043162312 0.10213052 -0.083131365 -0.22248903
0.026593348 -0.24100627 0.16625604 0.035654925 -0.009673468 0.04606972 0.28837842 -0.221278
-0.1034939 0.2688526 -0.03645048 -0.044256747 0.0659265 -0.16469601 -0.19951805 -0.26533645
0.07001249 -0.16412582 0.24707316 -0.20730194 0.06841679 0.110214114 0.20738171 0.0707164
-0.15843552 -0.092569366 0.26854652 -0.0396878 -0.24585791 -0.04057798 -0.23609439 -0.095718116
0.027804093 0.05356332 -0.27579188 -0.21141356 0.06109703 -0.1137564 -0.19441131 0.19110234
00000000: 3d65 263e cc1d 863b fc29 54be 15d5 08be
00000010: 2147 023e eef6 733e fc53 103d 735e 0f3e
00000020: 3069 8dbe 3511 233e 6b1c 8c3e ceda dbbd
00000030: ef17 543e b3c4 93be 21a4 103e c522 cbbb
00000040: 3987 4b3e 8dca 60be 8f7c e8bd 4167 fdbd
00000050: 368c 8f3e f8d2 be3d 1c11 7dbd 0486 8dbe
00000060: 6ec4 30be 710f d0bd a180 fcbd c7ef bcbd
00000070: 9505 3b3e e48c fdbc 3c55 253e c0a7 893e
00000080: ab67 fd3d ed61 cf3d 2645 263d 02d9 1cbe
00000090: ac7b 62be 7d0b 72be bb68 f1bd 4ea1 813e
000000a0: 7c44 91be 3ee9 173e 924e d83d 2d18 85be
000000b0: 7e70 e8bd ba53 3fbe 2a3b 91be bc2b 27be
000000c0: dd2d 04be 3857 653d b456 bdbd d52f c83d
000000d0: 3ef1 3b3e 3183 343e dde7 133e c2a9 19be
000000e0: b030 6fbd 12b1 053e 3c32 aa3d a829 2ebe
000000f0: d74d 323e 71c8 0f3e a1f6 4fbe e39c b4bc
00000100: 6d14 c5bd 7f3c 553e 307d 3cbe c735 183e
00000110: 3c1b 3a3e 7aa1 283e eb91 85bc 32fa b03d
00000120: 4f79 eb3d bea3 243e 7fe8 3fbe 029f dbbd
00000130: 780e 35bd 14ab 933c 0291 b1bd 36b9 b5bd
00000140: ecde 7cbd c0ad 04be 10e3 a43c 0d32 35be
00000150: 356e 8e3e b009 be3d 6d6a e83d 3af9 94bd
00000160: e992 803c e14e 75be 5c0a a1bd 3fe2 a9bd
00000170: 3758 983d 0bfc 85be e2f7 753e 5ffe 17be
00000180: 2db1 2c3e d56a 1b3d d5df 5cbe 7da9 843e
00000190: 6444 e73d c491 9e3d 7bc9 1fbd db07 163d
000001a0: 4b95 ab3d 3b55 8d3e 6577 40be 4e11 da3d
000001b0: e27d 4b3e 1ac3 283d cfc8 923e 84a1 923e
000001c0: 871d 433d c20f 06bd aa2c 903e 327f 253e
000001d0: b62b 8ebc 87e3 b1bd 5131 eb3d a9c2 813e
000001e0: 4303 923e 3f49 4dbe 9dac 843d 4c58 003e
000001f0: 8e36 33bd c889 74be cf4b 403e daea 56bd
00000200: 470d 8fbe a9d2 5abe bf0f 9a3d 7beb b73d
00000210: 1370 53be 2761 63be 4f69 543e 61b7 793d
00000220: a560 4bbe ff9d 5b3c 262e 82be a9c5 01be
00000230: a24f 35bd 972d 883a 2f04 65be 68ef 283e
00000240: 1b56 883e 1f15 1f3e ccfb 003e 34f3 c43d
00000250: ce4a 7fbd 3cdd 48be d9bb 403c 76ef 813e
00000260: 3f2f 0a3d 5c25 5d3d 30be 2abe 0ae5 8b3d
00000270: e864 903d a652 843e 6f51 a5b8 3242 0b3e
00000280: c45e 8a3e abfe 76be 76f7 5a3e ba20 25be
00000290: 828b 5a3d 415b c83d a24c a53d 891d 8ebe
000002a0: 6831 84be f736 4b3c 2456 5fbe abe2 683c
000002b0: 910e 20bc bc65 343e 73e8 cb3d ce02 933e
000002c0: a789 a1bd 4dd4 6bbe 85a1 05be 46d3 cb3d
000002d0: 07a3 653e 72d0 8e3e 44a6 223e dd68 a63d
000002e0: 5511 863e 1e26 0f3e f3d0 6b3c faec 3a3e
000002f0: 44c9 32be 17ca 5c3e d407 bfbd cb70 f33d
00000300: 1777 b7bb 6442 4abe 5990 ac3d 3768 603b
00000310: 8992 693e fab4 903e c1b4 213e f7a3 253e
00000320: b450 c0bd 6933 90be 0c63 61be ded5 b0bd
00000330: 2d97 2bbe 2e72 db3d bb68 4cbe 9f2a 0a3e
00000340: 66cd 64be dd3b 41be fd99 a3bd 8057 30be
00000350: f7ca 30bd ce29 d13d c740 aabd 2ad4 63be
00000360: 4bda d93c 59ca 76be 063f 2a3e e60a 123d
00000370: 777d 1ebc 9ab3 3c3d 56a6 933e b396 62be
00000380: 9cf4 d3bd 0ca7 893e 194d 15bd 9046 35bd
00000390: 7904 873d 12a6 28be 764e 4cbe 2eda 87be
000003a0: b562 8f3d 9910 28be bf00 7d3e f646 54be
000003b0: 1a1e 8c3d f0b7 e13d df5b 543e c3d3 903d
000003c0: ec3c 22be 0295 bdbd ee7e 893e ad8f 22bd
000003d0: 2dc2 7bbe 1935 26bd bac2 71be dc07 c4bd
000003e0: 69c5 e33c 3665 5b3d 9834 8dbe cc7c 58be
000003f0: e140 7a3d 1ef9 e8bd c213 47be 55b0 433e

fc1.bias f4 [48]
-0.19993336 -0.101466514 -0.25155324 0.27916238 0.13235797 -0.20651048 -0.18793792 -0.28078967
0.020194685 -0.040930953 0.13406 0.17288731 0.15423064 -0.2149611 -0.28616416 -0.16444665
-0.28628555 0.24788825 0.15048023 0.11378706 0.18944095 -0.091790035 0.08957298 0.089368336
0.15189564 0.16689977 0.24147232 -0.06980466 -0.25017813 0.24326763 0.07856381 -0.18862419
-0.21483602 0.11846201 -0.14835963 -0.11547126 0.16053201 0.15771957 -0.2648438 -0.113620766
0.1654014 -0.12981933 0.11480556 -0.18969259 -0.20087662 0.09772012 -0.022441579 -0.110839136
00000000: 55bb 4cbe adcd cfbd 96cb 80be 5fee 8e3e
00000010: d988 073e 7c77 53be cc72 40be aac3 8fbe
00000020: 536f a53c 37a7 27bd 0647 093e 5f09 313e
00000030: a3ee 1d3e c31e 5cbe 1c84 92be b464 28be
00000040: 0594 92be 6bd6 7d3e 7d17 1a3e 3109 e93d
00000050: cffc 413e 6afc bbbd 0a72 b73d bf06 b73d
00000060: 888a 1b3e c6e7 2a3e 8544 773e bff5 8ebd
00000070: 5917 80be 261b 793e 10e6 a03d b326 41be
00000080: f9fd 5bbe 369c f23d 96eb 17be 327c ecbd
00000090: 8162 243e 3d81 213e 9b99 87be 01b2 e8bd
000000a0: fc5e 293e 5cef 04be 2d1f eb3d c63e 42be
000000b0: 9ab2 4dbe 7c21 c83d 67d7 b7bc a1ff e2bd

fc2.weight f4 [96, 48]
-0.10339222 0.10202121 0.02556965 0.11643351 0.100077786 -0.0032398505 0.070014305 0.106563285
0.032012265 -0.04572128 0.1300383 0.11605634 6.851729e-05 0.029328728 0.01833098 -0.05941889
-0.039083157 -0.09792848 -0.05885369 0.040371608 -0.09225773 0.048106447 -0.13091527 -0.09808228
-0.1403257 -0.11117036 -0.06972458 -0.029198695 0.11466059 0.13810265 0.08772038 -0.08818638
0.0642384 0.11642256 -0.01282656 0.053799056 -0.022726584 0.08743453 -0.07813076 -0.07752322
0.06777348 -0.009213048 -0.10181133 -0.09267553 0.13174522 0.03889486 0.085278094 0.12898625
-0.13797316 -0.0015322512 0.04386276 -0.14247385 0.04817188 -0.10976605 0.052991733 -0.005319869
0.10770957 0.07592088 0.09678099 0.07555151 0.005127549 -0.022096187 0.10381315 0.008900575
0.11712328 -0.085987546 -0.04683548 -0.13280672 0.046537176 -0.14267428 0.106885955 -0.038994297
-0.059388787 0.10657305 -0.11765786 -0.050312016 0.13568592 -0.04496492 -0.10941417 0.11219908
-0.14380722 -0.06296032 0.0048163375 0.043263573 -0.07587769 0.066519715 0.005396605 -0.09839803
-0.07803007 0.08016036 0.04013462 -0.12520465 -0.120268315 -0.027419688 -0.09981409 0.10386757
-0.119508415 -0.13082655 -0.040618744 -0.07347456 0.020879816 -0.045515954 -0.00087413157 -0.13163114
0.062019788 0.026547518 -0.04455002 0.08071532 -0.07796697 0.101752475 0.046621446 -0.079200156
0.020840788 0.0465246 -0.042770244 0.13218369 -0.1382954 0.12455495 0.13936727 0.0017492565
-0.06416632 -0.123598106 -0.025945522 0.0866656 -0.051736295 0.01496097 0.052540936 0.11329691
0.105776876 0.09564471 -0.006565221 0.009923871 -0.13356093 0.07837597 -0.003916908 -0.09407468
0.011916869 -0.053567152 0.06946996 -0.071576744 0.10649586 0.086643234 0.033023242 0.09572726
-0.05109029 -0.12817922 0.028564231 -0.122423664 -0.03613657 0.105357036 0.03925693 -0.028822962
-0.14083233 0.010838958 0.0672051 -0.03450682 -0.08658271 -0.012546953 -0.02187697 0.012221354
0.025409296 -0.059948653 0.028163057 0.039754394 0.039693557 -0.13889189 -0.12721188 0.13306713
-0.111057006 -0.08068378 0.015511851 -0.057047013 0.1417329 -0.124568745 -0.071695104 0.12043318
0.13194494 -0.024627196 -0.11851754 0.06392153 -0.0044406047 -0.0053369678 0.05413656 -0.046832226
0.1417108 0.121070765 -0.02443837 0.04066642 0.028805658 0.13436486 -0.058657166 -0.119274
-0.04831885 -0.11352718 -0.049174733 -0.055772204 0.037317127 0.11847781 0.056201532 0.07697567
-0.098249845 -0.06471317 -0.11449286 0.117223114 -0.05553655 -0.09689784 0.025450088 0.1441988
0.058520492 0.1342103 -0.09436662 0.0027403804 -0.07053509 0.108342625 -0.104049526 0.0021153965
-0.021684188 -0.1401086 -0.13550134 -0.065593496 -0.13800533 0.039307464 -0.071119905 0.016177481
0.050202187 -0.024864059 0.07714762 0.09156529 -0.030862635 0.026203759 0.025130808 0.09364962
0.017698621 0.056276884 0.02147642 0.09423648 0.13862982 -0.13337275 0.053249422 0.1124567
-0.03251114 -0.09298708 -0.0639587 -0.13957709 0.09133781 -0.13459772 -0.08252317 -0.05406377
0.11625464 0.0927096 -0.10743494 0.13045436 0.1258652 -0.12365633 0.09848502 0.050422825
00000000: 4dbf d3bd 7ff0 d03d 7177 d13c b174 ee3d
00000010: 95f5 cc3d ac53 54bb a963 8f3d da3d da3d
00000020: 4b1f 033d 3d46 3bbd c328 053e f2ae ed3d
00000030: f1b0 8f38 cd42 f03c da2a 963c 3961 73bd
00000040: a915 20bd ba8e c8bd 9110 71bd b35c 253d
00000050: 9ff1 bcbd 440b 453d a70e 06be 5ddf c8bd
00000060: 8ab1 0fbe 49ad e3bd c3cb 8ebd 1a32 efbc
00000070: 2cd3 ea3d c86a 0d3e bea6 b33d 109b b4bd
00000080: 6c8f 833d f36e ee3d 7e26 52bc 665c 5c3d
00000090: 1a2d babc e010 b33d 0503 a0bd 7ec4 9ebd
000000a0: d3cc 8a3d 53f2 16bc 7582 d0bd abcc bdbd
000000b0: 38e8 063e 3750 1f3d 48a6 ae3d f914 043e
000000c0: d648 0dbe d2d5 c8ba 70a9 333d aae4 11be
000000d0: e14f 453d 06cd e0bd dc0d 593d 4c52 aebb
000000e0: d696 dc3d 687c 9b3d 1d35 c63d c0ba 9a3d
000000f0: 0005 a83b 1003 b5bc fd9b d43d b8d3 113c
00000100: 55de ef3d 3d1a b0bd 8fd6 3fbd 7cfe 07be
00000110: c49d 3e3d 3519 12be 06e7 da3d 7cb8 1fbd
00000120: a841 73bd f942 da3d 9bf6 f0bd f913 4ebd
00000130: 40f1 0a3e 232d 38bd 8914 e0bd a2c8 e53d
00000140: 3342 13be 57f1 80bd 5ed2 9d3b 2535 313d
00000150: c365 9bbd 7d3b 883d 01d6 b03b e884 c9bd
00000160: 3bce 9fbd 1d2b a43d 3364 243d a635 00be
00000170: 3c4f f6bd 419f e0bc 546b ccbd 85b8 d43d
00000180: d4c0 f4bd 65f7 05be d75f 26bd d579 96bd
00000190: 260c ab3c f06e 3abd fa25 65ba 50ca 06be
000001a0: 7608 7e3d 2e7a d93c 157a 36bd 134e a53d
000001b0: 26ad 9fbd 9a63 d03d 21f6 3e3d b133 a2bd
000001c0: 4dba aa3c 9490 3e3d da2f 2fbd 295b 073e
000001d0: 4f9d 0dbe aa16 ff3d 4bb6 0e3e 4f47 e53a
000001e0: a269 83bd 0121 fdbd b48b d4bc bc7d b13d
000001f0: 70e9 53bd db1e 753c 2a35 573d 3608 e83d
00000200: 8ca1 d83d 60e1 c33d 1121 d7bb bb97 223c
00000210: 32c4 08be 9583 a03d 6859 80bb 3aaa c0bd
00000220: f93e 433c 3b69 5bbd 4446 8e3d d496 92bd
00000230: 801a da3d 0272 b13d 6143 073d a70c c43d
00000240: 0d44 51bd 6a41 03be 89ff e93c 42b9 fabd
00000250: f103 14bd 6ec5 d73d e0cb 203d 221e ecbc
00000260: 5a36 10be e395 313c d4a2 893d 0657 0dbd
00000270: 4752 b1bd bc91 4dbc 5537 b3bc 133c 483c
00000280: 2827 d03c b88c 75bd 36b6 e63c 81d5 223d
00000290: b695 223d ad39 0ebe d543 02be c042 083e
000002a0: db71 e3bd 8a3d a5bd 6b25 7e3c 21aa 69bd
000002b0: 6e22 113e e61d ffbd e2d4 92bd aca5 f63d
000002c0: 931c 073e f9be c9bc 53b9 f2bd 4be9 823d
000002d0: 7e82 91bb bbe1 aebb 4cbe 5d3d 26d3 3fbd
000002e0: a31c 113e f3f3 f73d fa32 c8bc d591 263d
000002f0: d8f9 eb3c f196 093e 7f42 70bd ed45 f4bd
00000300: fde9 45bd f080 e8bd 726b 49bd 6571 64bd
00000310: d8d9 183d 7ea4 f23d 9433 663d 6ca5 9d3d
00000320: 3737 c9bd 5788 84bd 3c7b eabd ac12 f03d
00000330: 4b7a 63bd 6072 c6bd b47c d03c daa8 133e
00000340: 2fb3 6f3d 6d6e 093e 4943 c1bd f497 333b
00000350: b474 90bd bde2 dd3d eb17 d5bd 77a2 0a3b
00000360: 0aa3 b1bc a178 0fbe ddc0 0abe e255 86bd
00000370: 4551 0dbe dd00 213d 50a7 91bd a386 843c
00000380: cfa0 4d3d b6af cbbc 92ff 9d3d 9586 bb3d
00000390: a3d3 fcbc 44a9 d63c 20df cd3c 5fcb bf3d
000003a0: b3fc 903c 9782 663d 51ef af3c 0eff c03d
000003b0: faf4 0d3e de92 08be 111c 5a3d b34f e63d
000003c0: 672a 05bd 0370 bebd c7fc 82bd 4ced 0ebe
000003d0: 510f bb3d fcd3 09be e801 a9bd f971 5dbd
000003e0: ea16 ee3d 88de bd3d da06 dcbd d495 053e
000003f0: cfe2 003e 883f fdbd 84b2 c93d 2a88 4e3d

fc2.bias f4 [96]
0.13696471 -0.0614719 -0.104642965 0.02543747 -0.09535121 -0.079195395 -0.13735335 -0.11959889
-0.037448116 0.02625803 0.012061208 -0.06423231 0.08556399 -0.09686674 -0.08234916 0.01482787
-0.091223925 0.0502658 0.07865418 -0.07967598 0.08584024 -0.08576997 -0.12291163 0.028794391
-0.12413302 0.1307277 0.09202772 0.11563715 -0.14368033 0.12229701 -0.00051063945 -0.05510529
0.13639441 0.0057944227 -0.05569198 -0.014811273 0.13420452 0.114607826 0.0069223777 0.029673072
0.12938803 -0.010447745 -0.10359821 0.10421944 -0.004726954 -0.05820562 0.06140972 0.12757951
-0.0845806 -0.06001304 0.051372055 -0.03301599 -0.10862619 0.053459987 0.1431476 0.0682013
-0.050959434 -0.08163315 -0.041059256 -0.033838816 0.02804048 0.035578936 -0.08192008 -0.07277599
-0.06972626 -0.008604009 -0.097106464 0.013476459 -0.13654408 0.124732316 0.054973133 -0.08243038
0.07774546 0.094995186 0.105849065 -0.06393484 0.10490676 0.11691257 -0.02090466 -0.024293292
0.08483736 0.048239473 -0.115394734 0.0058163465 -0.02816599 0.0066353334 -0.030619167 -0.111635886
-0.08923536 -0.030977383 -0.049161445 0.0015862015 -0.0066049867 0.05587113 0.043428972 0.0066667474
00000000: 7a40 0c3e f6c9 7bbd 0d4f d6bd 3e62 d03c
00000010: 7f47 c3bd 3231 a2bd 5ba6 0cbe 43f0 f4bd
00000020: 3263 19bd 151b d73c 5f9c 453c 3b8c 83bd
00000030: 2c3c af3d 1262 c6bd ada6 a8bd 98f0 723c
00000040: 9cd3 babd 83e3 4d3d 7115 a13d 292d a3bd
00000050: 02cd af3d 2ba8 afbd 18b9 fbbd 37e2 eb3c
00000060: 7439 febd 7bdd 053e 0779 bc3d 2cd3 ec3d
00000070: f020 13be db76 fa3d 6fdc 05ba 16b6 61bd
00000080: faaa 0b3e 24df bd3b 461d 64bd fbaa 72bc
00000090: e96c 093e 82b7 ea3d 1dd5 e23b f114 f33c
000000a0: 4c7e 043e 052d 2bbc 4c2b d4bd 0071 d53d
000000b0: 90e4 9abb 0469 6ebd c288 7b3d 34a4 023e
000000c0: 9838 adbd 3cd0 75bd 816b 523d c63b 07bd
000000d0: 6877 debd dcf8 5a3d 4995 123e 20ad 8b3d
000000e0: d7ba 50bd 482f a7bd c02d 28bd 929a 0abd
000000f0: 26b5 e53c 38bb 113d b7c5 a7bd 940b 95bd
00000100: a4cc 8ebd d4f7 0cbc c1df c6bd 5ecc 5c3c
00000110: 36d2 0bbe a873 ff3d 822b 613d 42d1 a8bd
00000120: 0339 9f3d d68c c23d 65c7 d83d 45f0 82bd
00000130: 5bd9 d63d dc6f ef3d 4040 abbc ba02 c7bc
00000140: 36bf ad3d c196 453d 1354 ecbd 0d97 be3b
00000150: 5dbc e6bc 366d d93b 0cd5 fabc 5ba1 e4bd
00000160: 07c1 b6bd 48c4 fdbc 835d 49bd 17e8 cf3a
00000170: a56e d8bb 20d9 643d 94e2 313d bb74 da3b

fc3.weight f4 [24, 96]
0.020466289 0.016444439 -0.026334649 -0.09460226 -0.005635841 0.043353092 -0.044520624 0.053068094
-0.019182088 0.00478603 0.05433053 -0.075675674 -0.020717435 -0.030973192 -0.030174611 0.08908341
-0.034787823 0.024680167 0.05221918 -0.07308567 0.07461568 0.047759756 0.06507829 0.07431657
-0.006800529 -0.030519351 -0.099599175 -0.042471107 0.07828303 -0.09488729 0.054843675 -0.046078224
-0.0674272 0.05357799 -0.024874266 6.680785e-06 -0.03137172 0.09398141 -0.06809995 -0.020227786
-0.037420105 -0.049863797 -0.056364834 -0.05377732 -0.09243903 0.07518 -0.028150046 0.09269765
0.058269233 0.059920374 0.010710784 -0.04471261 0.06977433 0.017086307 0.020342194 -0.050729856
-0.038926944 -0.034993865 0.034395173 0.06883497 -0.053091586 0.013556628 0.02463212 -0.03230268
-0.06756815 0.07785962 -0.014497217 0.093301214 -0.07996785 0.066776305 0.09234948 0.09280478
0.03262092 -0.09043678 -0.047944892 0.09387615 -0.015281122 0.04366449 0.013737 0.066031635
-0.092063695 -0.08062962 -0.0018135769 -0.019308455 0.0020170747 -0.071958214 0.029310873 -0.049138684
0.04033955 -0.08594472 -0.082733124 0.029282508 -0.03606421 0.04296424 -0.0026252426 -0.023254067
0.037524574 -0.02491963 0.057730865 -0.07987692 0.09768339 0.09869332 0.016507532 0.024708863
-0.03682901 -0.07111733 0.02252107 0.08343512 0.085907444 0.018225618 -0.08693876 0.012902081
0.07326796 0.098878585 0.09187909 0.023104804 -0.06961817 0.058978084 0.055631533 0.04713446
0.038283106 -0.048056748 -0.054015722 -0.039069965 0.09458168 -0.058960676 -0.045778703 -0.024412213
0.0765539 0.0792236 0.055939123 0.10078017 0.061188288 0.08567175 0.00307169 0.0699307
-0.08979751 -0.0061094556 0.046444602 -0.07265104 -0.048313793 0.07950626 0.053753372 0.07198975
-0.0042500338 0.04552191 -0.06122672 0.076010436 0.07691017 0.05300484 0.05385861 0.07081033
-0.002195549 -0.06534743 -0.101339035 -0.08268903 -0.08426102 -0.080303825 -0.08648876 0.05370889
0.030599687 -0.05918347 0.05387443 0.05485981 0.08196997 -0.044266183 -0.045089778 -0.023335002
-0.028489636 -0.016144037 0.0013992286 0.073989145 0.010227511 -0.0028204836 -0.011709731 -0.0100511
-0.07928098 -0.090759635 0.05390401 0.044185802 -0.07961194 -0.06358624 -0.09003019 -0.00032393174
-0.02114653 -0.051078413 0.06381036 0.097484626 0.04159612 -0.03819152 -0.011616011 -0.080007724
-0.034991916 -0.057806343 -0.054485593 -0.053525537 0.044347838 0.05822665 -0.020794213 0.092017226
0.052345186 -0.09877073 -0.083238706 -0.0038522729 0.0054245177 -0.038042083 -0.091517754 -0.01792831
0.079696685 -0.05725982 -0.026010599 -0.047189515 0.07826866 -0.08475714 0.09267152 0.061631028
0.04497792 -0.038298544 0.09310199 -0.0420299 -0.044673838 0.03942246 -0.098605216 -0.034786202
-0.09377469 0.045063425 -0.06593395 0.026818044 -0.090958714 0.084075786 -0.046231378 0.033174813
0.014600608 0.07605364 0.02876775 0.016707502 -0.033495724 0.073575415 -0.026976952 0.04077719
-0.033713803 -0.084210575 -0.07397488 -0.08366357 0.025028972 -0.09718689 -0.09713398 0.045954563
0.013588214 0.07717241 -0.013493251 0.05494156 -0.026359504 0.085967064 0.03258227 -0.06923389
00000000: eba8 a73c 7db6 863c c3bb d7bc d4be c1bd
00000010: dcac b8bb 0393 313d 425b 36bd ee5d 593d
00000020: c123 9dbc 21d4 9c3b b189 5e3d d9fb 9abd
00000030: 9cb7 a9bc 7ebb fdbc bf30 f7bc 5d71 b63d
00000040: ad7d 0ebd 102e ca3c c7e3 553d f1ad 95bd
00000050: 1bd0 983d bc9f 433d c447 853d 4933 983d
00000060: f9d6 debb b803 fabc a7fa cbbd 2ff6 2dbd
00000070: da52 a03d 4454 c2bd c3a3 603d 85bc 3cbd
00000080: 4617 8abd 9874 5b3d 1ec5 cbbc 822b e036
00000090: a27f 00bd 5379 c03d fd77 8bbd beb4 a5bc
000000a0: d345 19bd fb3d 4cbd d0de 66bd 9b45 5cbd
000000b0: ad50 bdbd f9f7 993d ed9a e6bc 44d8 bd3d
000000c0: b8ab 6e3d 116f 753d 497c 2f3c 9224 37bd
000000d0: d8e5 8e3d 95f8 8b3c aca4 a63c 1cca 4fbd
000000e0: dc71 1fbd ba55 0fbd f4e1 0c3d 59f9 8c3d
000000f0: 9076 59bd 9e1c 5e3c 4dc9 c93c d14f 04bd
00000100: 2c61 8abd dd74 9f3d bc85 6dbc b514 bf3d
00000110: 2fc6 a3bd 04c2 883d b921 bd3d 6f10 be3d
00000120: 849d 053d eb36 b9bd dd61 44bd 2442 c03d
00000130: ac5d 7abc 89d9 323d 2711 613c 983b 873d
00000140: e48b bcbd 2421 a5bd 8bb5 edba c42c 9ebc
00000150: e630 043b d45e 93bd 5b1d f03c a545 49bd
00000160: 153b 253d c903 b0bd fc6f a9bd dfe1 ef3c
00000170: 11b8 13bd 45fb 2f3d 430c 2cbb 507f bebc
00000180: 5eb3 193d 4024 ccbc 3377 6c3d 8396 a3bd
00000190: 3b0e c83d b91f ca3d ce3a 873c 3e6a ca3c
000001a0: 04da 16bd f6a5 91bd 1b7e b83c 08e0 aa3d
000001b0: 3ef0 af3d e44d 953c f30c b2bd 4063 533c
000001c0: 830d 963d db80 ca3d 1b2b bc3d 4946 bd3c
000001d0: f993 8ebd 0193 713d e4dd 633d 1010 413d
000001e0: bfce 1c3d 27d7 44bd 973f 5dbd d407 20bd
000001f0: 0ab4 c13d c080 71bd 7382 3bbd 1ffc c7bc
00000200: 4bc8 9c3d fc3f a23d 6c20 653d d565 ce3d
00000210: 92a0 7a3d ac74 af3d 684e 493b d437 8f3d
00000220: c2e7 b7bd d431 c8bb b23c 3e3d 12ca 94bd
00000230: afe4 45bd 2ed4 a23d 7f2c 5c3d 5d6f 933d
00000240: de43 8bbb 2f75 3a3d dfc8 7abd 5cab 9b3d
00000250: 1483 9d3d 9a1b 593d d99a 5c3d 0205 913d
00000260: 33e3 0fbb e0d4 85bd d78a cfbd de58 a9bd
00000270: 0b91 acbd 5576 a4bd 0521 b1bd dafd 5b3d
00000280: 32ac fa3c 5e6a 72bd 6fab 5c3d aeb4 603d
00000290: dfdf a73d 7550 35bd 0fb0 38bd 0c29 bfbc
000002a0: 1963 e9bc 8040 84bc 5266 b73a 9f87 973d
000002b0: 4a91 273c ddd7 38bb 2cda 3fbc 5ead 24bc
000002c0: 115e a2bd 30e0 b9bd 74ca 5c3d 2cfc 343d
000002d0: 960b a3bd 8139 82bd c061 b8bd 62d5 a9b9
000002e0: 7d3b adbc 9937 51bd 02af 823d 05a6 c73d
000002f0: b160 2a3d b66e 1cbd 1551 3ebc 17db a3bd
00000300: af53 0fbd 58c6 6cbd 492c 5fbd 983d 5bbd
00000310: 14a6 353d 117f 6e3d a058 aabc 8773 bc3d
00000320: e867 563d 4f48 cabd 0e79 aabd 6a76 7cbb
00000330: 27c0 b13b 04d2 1bbd a96d bbbd 64de 92bc
00000340: 0438 a33d 4689 6abd 2e14 d5bc cb49 41bd
00000350: 524b a03d 2795 adbd 91ca bd3d d170 7c3d
00000360: c43a 383d efde 1cbd 42ac be3d 8b27 2cbd
00000370: eafb 36bd 7279 213d 88f1 c9bd fa7b 0ebd
00000380: f20c c0bd 6d94 383d 6108 87bd 84b1 db3c
00000390: 9048 babd ed2f ac3d 1d5d 3dbd 50e2 073d
000003a0: 6337 6f3c 03c2 9b3d 58aa eb3c 2cde 883c
000003b0: d032 09bd b5ae 963d c5fe dcbc fc05 273d
000003c0: 7c17 0abd 9876 acbd 2480 97bd ce57 abbd
000003d0: 8f09 cd3c ec09 c7bd 2eee c6bd da3a 3c3d
000003e0: 1aa1 5e3c 920c 9e3d cc12 5dbc 670a 613d
000003f0: e3ef d7bc 800f b03d fd74 053d 7fca 8dbd

fc3.bias f4 [24]
-0.012078108 0.099212706 0.02542057 0.06813929 -0.056256898 0.037086014 0.037727904 -0.076369725
0.013657389 -0.07667679 -0.05792072 -0.06069788 0.06825548 -0.06700308 -0.04674279 0.03863577
0.01996181 0.036798477 0.014580238 0.055365514 -0.012541494 -0.03967951 -0.043415282 -0.09454951
00000000: 42e3 45bc 0830 cb3d cd3e d03c 9d8c 8b3d
00000010: a26d 66bd 81e7 173d 9388 1a3d bb67 9cbd
00000020: 3ec3 5f3c b908 9dbd 473e 6dbd 579e 78bd
00000030: 87c9 8b3d e938 89bd 5e75 3fbd 8b40 1e3d
00000040: f386 a33c 00ba 163d f3e1 6e3c f3c6 623d
00000050: d77a 4dbc fb86 22bd 39d4 31bd 2ca3 c1bd

fc4.weight f4 [2, 24]
-0.036022708 -0.13794377 0.12461088 -0.1924199 -0.18620266 -0.13389593 0.13119477 -0.08563587
-0.15178041 0.11164425 0.050686736 -0.13144216 0.14304842 0.043016035 -0.18313774 -0.07925722
0.02217227 -0.16564599 -0.046171706 -0.123622626 -0.17646627 -0.01837925 0.029673375 0.14778478
0.1192646 -0.09045645 0.14895262 -0.0067636743 0.15664433 -0.07323996 0.17531541 -0.0020880154
0.12738147 -0.16142462 0.1817646 0.06876707 0.17387837 -0.1889022 0.14460102 -0.1117568
0.054207966 -0.058563523 0.15172127 -0.06293632 0.14363089 0.054461576 0.18401109 0.004216087
00000000: 8c8c 13bd 2241 0dbe fd33 ff3d b909 45be
00000010: e9ab 3ebe 041c 09be ec57 063e dc61 afbd
00000020: 536c 1bbe bea5 e43d e59c 4f3d c698 06be
00000030: 497b 123e 9531 303d 7688 3bbe 9c51 a2bd
00000040: 9fa2 b53c 1a9f 29be 8b1e 3dbd dc2d fdbd
00000050: 93b3 34be 1590 96bc 9415 f33c e554 173e
00000060: 0041 f43d 3b41 b9bd 0987 183e d0a1 ddbb
00000070: 5f67 203e d5fe 95bd e285 333e 16d7 08bb
00000080: 4a70 023e 7f4c 25be 8020 3a3e c0d5 8c3d
00000090: 2c0d 323e 946f 41be 4a12 143e c0e0 e4bd
000000a0: 2c09 5e3d 4ee0 6fbd d25c 1b3e c2e4 80bd
000000b0: fa13 133e 1a13 5f3d 676d 3c3e 1a27 8a3b

fc4.bias f4 [2]
-0.032674324 -0.0970265
00000000: 83d5 05bd d4b5 c6bd

fc5.weight f4 [1, 2]
0.28663218 0.11247676
00000000: 74c1 923e 375a e63d
