T3-2024/Federated_Learning/Improved_FL/SRC/meta_parameters/client4.pth (torch, 34104 bytes, 9 tensors)

fc1.weight f4 [48, 12]
0	0x3e266534	0.16249543
1	0x3b861cad	0.004092774
2	0xbe542a08	-0.20719159
3	0xbe08d517	-0.13362537
4	0x3e024719	0.12722434
5	0x3e73f6e0	0.23824644
6	0x3d1053da	0.035236217
7	0x3e0f5e70	0.14000869
8	0xbe8d6932	-0.2761932
9	0x3e231132	0.15924528
10	0x3e8c1c68	0.27365422
11	0xbddbdae8	-0.107351124
12	0x3e5417f1	0.20712258
13	0xbe93c4b0	-0.28860998
14	0x3e10a41d	0.14125104
15	0xbbcb2334	-0.006199265
16	0x3e4b873b	0.19875805
17	0xbe60ca90	-0.21952271
18	0xbde87c8c	-0.113518804
19	0xbdfd673c	-0.12373206
20	0x3e8f8c33	0.2803665
21	0x3dbed2f9	0.093175836
22	0xbd7d1121	-0.061783914
23	0xbe8d8601	-0.276413
24	0xbe30c471	-0.17262436
25	0xbdd00f77	-0.101592
26	0xbdfc80b3	-0.12329235
27	0xbdbcefcf	-0.09225427
28	0x3e3b0587	0.18263827
29	0xbcfd8d01	-0.030951025
30	0x3e255530	0.16145778
31	0x3e89a7bf	0.26885793
32	0x3dfd679c	0.123732775
33	0x3dcf61d9	0.10126085
34	0x3d264520	0.040593266
35	0xbe1cd901	-0.15317155
36	0xbe627bb8	-0.22117507
37	0xbe720b8d	-0.23637219
38	0xbdf168ca	-0.11787565
39	0x3e81a144	0.25318348
40	0xbe914479	-0.28372553
41	0x3e17e937	0.14835058
42	0x3dd84e67	0.10561829
43	0xbe85182e	-0.2599501
44	0xbde870ac	-0.113496155
45	0xbe3f53b8	-0.1868428
46	0xbe913b2a	-0.2836545
47	0xbe272bbc	-0.16325277
48	0xbe042e01	-0.12908174
49	0x3d655697	0.05599078
50	0xbdbd56e4	-0.09245089
51	0x3dc82f79	0.0977468
52	0x3e3bf10c	0.18353671
53	0x3e348320	0.17628145
54	0x3e13e7c9	0.14443888
55	0xbe19a9c8	-0.15006173
56	0xbd6f30e8	-0.05839625
57	0x3e05b111	0.13055827
58	0x3daa322b	0.0831035
59	0xbe2e29d2	-0.1700814
60	0x3e324dcd	0.17412491
61	0x3e0fc86c	0.14041299
62	0xbe4ff6ad	-0.20308943
63	0xbcb49d93	-0.022047793
64	0xbdc51496	-0.09623067
65	0x3e553c6f	0.20823835
66	0xbe3c7d3b	-0.18407147
67	0x3e1835c3	0.14864258
68	0x3e3a1b18	0.18174398
69	0x3e28a185	0.16467865
70	0xbc85920d	-0.016304994
71	0x3db0fa15	0.08641449
72	0x3deb794f	0.11497747
73	0x3e24a3be	0.16078088
74	0xbe3fe87f	-0.18741034
75	0xbddb9f02	-0.10723688
76	0xbd350e78	-0.04420325
77	0x3c93ab14	0.018025912
78	0xbdb19102	-0.08670236
79	0xbdb5b936	-0.08873217
80	0xbd7cdeec	-0.061736032
81	0xbe04adc0	-0.12956905
82	0x3ca4e310	0.020127803
83	0xbe35320d	-0.17694874
84	0x3e8e6e31	0.27818444
85	0x3dbe09a2	0.09279181
86	0x3de86a5e	0.11348413
87	0xbd94f93f	-0.072741024
88	0x3c8092d3	0.015695011
89	0xbe754ee6	-0.23955879
90	0xbda10a58	-0.07863301
91	0xbda9e249	-0.082951136
92	0x3d985829	0.0743869
93	0xbe85fc0a	-0.26168853
94	0x3e75f7dc	0.24020332
95	0xbe17fe67	-0.1484314
96	0x3e2cb10c	0.16864413
97	0x3d1b6a56	0.037943207
98	0xbe5cdff9	-0.21569814
99	0x3e84a963	0.25910482
100	0x3de743fa	0.112922624
101	0x3d9e91a4	0.077426225
102	0xbd1fc999	-0.039010618
103	0x3d160797	0.036628332
104	0x3dab9548	0.083780825
105	0x3e8d553b	0.27604088
106	0xbe407773	-0.18795566
107	0x3dda112b	0.10647806
108	0x3e4b7dde	0.19872233
109	0x3d28c300	0.04120159
110	0x3e92c8c7	0.28668806
111	0x3e92a181	0.28638843
112	0x3d431d41	0.04763532
113	0xbd061013	-0.032730173
114	0x3e902ca2	0.28159052
115	0x3e257f3c	0.16161817
116	0xbc8e2bfd	-0.01735496
117	0xbdb1e36a	-0.08685954
118	0x3deb315b	0.11484023
119	0x3e81c2a8	0.25343823
120	0x3e920332	0.28518063
121	0xbe4d495d	-0.20047517
122	0x3d84ac60	0.064781904
123	0x3e005832	0.12533644
124	0xbd333710	-0.043753684
125	0xbe7489d7	-0.23880707
126	0x3e404bb6	0.18778881
127	0xbd56eb24	-0.05247034
128	0xbe8f0d56	-0.27939862
129	0xbe5ad2a6	-0.21369419
130	0x3d9a0fb7	0.075225286
131	0x3db7eaef	0.08980357
132	0xbe53701b	-0.20648234
133	0xbe636133	-0.22205047
134	0x3e546942	0.20743278
135	0x3d79b75a	0.060965873
136	0xbe4b60ad	-0.19861098
137	0x3c5b9dfd	0.013404367
138	0xbe822e24	-0.25425828
139	0xbe01c5a5	-0.12673052
140	0xbd354f8c	-0.044265315
141	0x3a882bad	0.0010388993
142	0xbe65042f	-0.22364877
143	0x3e28ef6f	0.16497587
144	0x3e885610	0.2662816
145	0x3e1f150c	0.15535372
146	0x3e00fbc6	0.12596044
147	0x3dc4f345	0.096167125
148	0xbd7f4a95	-0.062326986
149	0xbe48dd3f	-0.19615649
150	0x3c40bbce	0.011763526
151	0x3e81ef74	0.25378
152	0x3d0a2eea	0.033736147
153	0x3d5d25c2	0.053991087
154	0xbe2abe2b	-0.16674106
155	0x3d8be4cf	0.06830751
156	0x3d9064fb	0.070505105
157	0x3e8452ab	0.2584432
158	0xb8a4fb6b	-7.86696e-05
159	0x3e0b4234	0.13599473
160	0x3e8a5eca	0.27025443
161	0xbe76fead	-0.24120589
162	0x3e5af767	0.21383439
163	0xbe2520b5	-0.16125758
164	0x3d5a8bab	0.053355854
165	0x3dc85b2b	0.09783014
166	0x3da54cb4	0.080712706
167	0xbe8e1d8a	-0.27756912
168	0xbe843168	-0.25818944
169	0x3c4b36f7	0.012403241
170	0xbe5f5624	-0.21810204
171	0x3c68e2ab	0.014214198
172	0xbc200e90	-0.009769097
173	0x3e3465bc	0.17616934
174	0x3dcbe873	0.099564455
175	0x3e9302ce	0.28713077
176	0xbda189a7	-0.07887583
177	0xbe6bd44d	-0.23030205
178	0xbe05a185	-0.13049896
179	0x3dcbd346	0.099524066
180	0x3e65a353	0.22425584
181	0x3e8ed099	0.27893522
182	0x3e22a66c	0.15883797
183	0x3da66964	0.081255704
184	0x3e861175	0.26185194
185	0x3e0f2646	0.13979444
186	0x3c6bd629	0.0143943215
187	0x3e3aed10	0.18254495
188	0xbe32c93f	-0.17459582
189	0x3e5cca1c	0.21561474
190	0xbdbf07cc	-0.09327659
191	0x3df37137	0.118868284
192	0xbbb777c9	-0.0055989963
193	0xbe4a426b	-0.19751899
194	0x3dac904c	0.0842596
195	0x3b6064eb	0.003423984
196	0x3e699274	0.22809774
197	0x3e90b4fb	0.28263077
198	0x3e21b4b5	0.1579159
199	0x3e25a3f4	0.16175824
200	0xbdc050b9	-0.093903966
201	0xbe903369	-0.28164223
202	0xbe61630c	-0.2201044
203	0xbdb0d5ee	-0.08634554
204	0xbe2b9735	-0.167569
205	0x3ddb7228	0.10715133
206	0xbe4c68c2	-0.19961837
207	0x3e0a2a91	0.134928
208	0xbe64cd70	-0.22343993
209	0xbe413bdc	-0.18870491
210	0xbda39a0a	-0.07988365
211	0xbe30577f	-0.17220877
212	0xbd30cb05	-0.043162365
213	0x3dd129ba	0.10213037
214	0xbdaa40c6	-0.08313136
215	0xbe63d42a	-0.22248903
216	0x3cd9d9ac	0.026593052
217	0xbe76ca69	-0.24100651
218	0x3e2a3ef1	0.16625573
219	0x3d120abf	0.03565478
220	0xbc1e7e67	-0.009673691
221	0x3d3cb34d	0.046069432
222	0x3e93a641	0.2883778
223	0xbe6296c7	-0.2212783
224	0xbdd3f4b4	-0.10349408
225	0x3e89a708	0.26885247
226	0xbd154d33	-0.036450576
227	0xbd3546c0	-0.044256926
228	0x3d870448	0.065926135
229	0xbe28a630	-0.16469646
230	0xbe4c4e8a	-0.19951835
231	0xbe87da3a	-0.2653368
232	0x3d8f6278	0.07001203
233	0xbe2810aa	-0.16412607
234	0x3e7d00a4	0.24707276
235	0xbe5446f7	-0.20730196
236	0x3d8c1da0	0.06841588
237	0x3de1b7d3	0.1102139
238	0x3e545bd2	0.20738152
239	0x3d90d361	0.07071567
240	0xbe223ce2	-0.15843537
241	0xbdbd94f4	-0.09256926
242	0x3e897ef0	0.26854658
243	0xbd228f9c	-0.039687738
244	0xbe7bc227	-0.24585782
245	0xbd263500	-0.04057789
246	0xbe71c2b9	-0.23609437
247	0xbdc407db	-0.09571811
248	0x3ce3c57f	0.027804134
249	0x3d5b6538	0.053563327
250	0xbe8d3498	-0.27579188
251	0xbe587cc9	-0.21141352
252	0x3d7a4169	0.061097536
253	0xbde8f8e8	-0.113756
254	0xbe4713ad	-0.194411
255	0x3e43b080	0.19110298

fc1.bias f4 [48]
0	0xbe4cbb61	-0.19993354
1	0xbdcfcdab	-0.1014665
2	0xbe80cb9d	-0.25155345
3	0x3e8eee53	0.27916202
4	0x3e078889	0.13235678
5	0xbe53778c	-0.20651072
6	0xbe4072cc	-0.18793792
7	0xbe8fc3ac	-0.28078973
8	0x3ca56cf3	0.020193553
9	0xbd27a7a6	-0.040931366
10	0x3e0946d4	0.13405925
11	0x3e31094a	0.172887
12	0x3e1dee9b	0.15423052
13	0xbe5c1ebd	-0.214961
14	0xbe92841c	-0.28616416
15	0xbe286431	-0.1644447
16	0xbe92940f	-0.28628585
17	0x3e7dd658	0.24788797
18	0x3e1a175d	0.15047975
19	0x3de908a6	0.11378603
20	0x3e41fce3	0.18944125
21	0xbdbbfc00	-0.091789246
22	0x3db77237	0.08957332
23	0x3db706b7	0.08936828
24	0x3e1b8aa2	0.15189603
25	0x3e2ae7aa	0.16689935
26	0x3e77449d	0.24147268
27	0xbd8ef5b6	-0.069804594
28	0xbe801759	-0.25017813
29	0x3e791b00	0.24326706
30	0x3da0e5af	0.07856309
31	0xbe412656	-0.1886228
32	0xbe5bfe29	-0.21483673
33	0x3df29c7a	0.11846252
34	0xbe17eb9f	-0.14835976
35	0xbdec7c33	-0.115471266
36	0x3e246245	0.16053112
37	0x3e218135	0.15771945
38	0xbe87999d	-0.26484385
39	0xbde8b202	-0.11362077
40	0x3e295eed	0.16540118
41	0xbe04ef78	-0.12981975
42	0x3deb1f26	0.114805505
43	0xbe423ec6	-0.18969259
44	0xbe4db29a	-0.20087662
45	0x3dc82196	0.09772031
46	0xbcb7d8e3	-0.022442287
47	0xbde2ff9b	-0.11083909

fc2.weight f4 [96, 48]
0	0xbdd3bf4e	-0.10339223
1	0x3dd0f07b	0.10202118
2	0x3cd1776f	0.025569646
3	0x3dee74b4	0.11643353
4	0x3dccf5a8	0.10007793
5	0xbb545555	-0.0032399495
6	0x3d8f63a9	0.070014305
7	0x3dda3dd6	0.106563255
8	0x3d032046	0.0320132
9	0xbd3b4539	-0.045720313
10	0x3e0528d6	0.13003859
11	0x3dedaf0b	0.116056524
12	0x388fa3a4	6.849252e-05
13	0x3cf042c6	0.029328715
14	0x3c962ada	0.01833098
15	0xbd736096	-0.059418283
16	0xbd2015a2	-0.03908313
17	0xbdc88ec3	-0.09792855
18	0xbd711031	-0.058853332
19	0x3d255cae	0.04037159
20	0xbdbcf195	-0.092257656
21	0x3d450b2f	0.04810637
22	0xbe060ea3	-0.13091521
23	0xbdc8df47	-0.09808212
24	0xbe0fb187	-0.14032565
25	0xbde3ad52	-0.111170426
26	0xbd8ecbd2	-0.069724694
27	0xbcef3217	-0.02919869
28	0x3dead32c	0.11466059
29	0x3e0d6ad2	0.1381028
30	0x3db3a6ab	0.08772024
31	0xbdb49b1a	-0.08818646
32	0x3d838f9b	0.06423875
33	0x3dee6f3f	0.11642312
34	0xbc5226cd	-0.012826634
35	0x3d5c5c28	0.053798825
36	0xbcba2ccc	-0.022726439
37	0x3db310dc	0.0874345
38	0xbda00306	-0.07813077
39	0xbd9ec47e	-0.07752322
40	0x3d8accef	0.06777369
41	0xbc16f254	-0.009213049
42	0xbdd08275	-0.10181133
43	0xbdbdccab	-0.09267553
44	0x3e06e838	0.13174522
45	0x3d1f506b	0.038895052
46	0x3daea642	0.08527805
47	0x3e0414f8	0.12898624
48	0xbe0d48d6	-0.13797316
49	0xbac8d591	-0.0015322437
50	0x3d33a970	0.04386276
51	0xbe11e4a8	-0.14247382
52	0x3d454fdd	0.048171867
53	0xbde0cd10	-0.109766126
54	0x3d590ddc	0.052991733
55	0xbbae524a	-0.005319868
56	0x3ddc96c7	0.10770946
57	0x3d9b7c29	0.07592041
58	0x3dc63519	0.09678096
59	0x3d9abab5	0.07555143
60	0x3ba8035d	0.005127354
61	0xbcb502f5	-0.022096137
62	0x3dd49bfd	0.10381315
63	0x3c11d2da	0.008900369
64	0x3defde51	0.11712325
65	0xbdb01a3b	-0.08598753
66	0xbd3fd68d	-0.04683547
67	0xbe07fe7f	-0.13280676
68	0x3d3e9dc1	0.046537165
69	0xbe121936	-0.1426743
70	0x3ddae706	0.106885955
71	0xbd1fb88a	-0.03899435
72	0xbd7341a6	-0.05938878
73	0x3dda42f3	0.10657301
74	0xbdf0f6b0	-0.11765802
75	0xbd4e13f6	-0.050312005
76	0x3e0af140	0.13568592
77	0xbd382d28	-0.04496494
78	0xbde01488	-0.10941416
79	0x3de5c8a6	0.11219911
80	0xbe134230	-0.14380717
81	0xbd80f15f	-0.06296038
82	0x3b9dd248	0.0048163272
83	0x3d31351a	0.043263532
84	0xbd9b65c4	-0.0758777
85	0x3d883b7c	0.06651971
86	0x3bb0d5fb	0.005396602
87	0xbdc984e8	-0.09839803
88	0xbd9fce3c	-0.07803008
89	0x3da42b19	0.08016033
90	0x3d246433	0.04013462
91	0xbe0035a6	-0.12520465
92	0xbdf64f3c	-0.120268315
93	0xbce09f4b	-0.027419707
94	0xbdcc6b63	-0.0998142
95	0x3dd4b87f	0.10386752
96	0xbdf4c0d3	-0.11950841
97	0xbe05f765	-0.13082655
98	0xbd265fd6	-0.04061874
99	0xbd9679d0	-0.07347453
100	0x3cab0c16	0.020879786
101	0xbd3a6f04	-0.04551603
102	0xba6525fa	-0.00087413157
103	0xbe06ca50	-0.13163114
104	0x3d7e086b	0.062019747
105	0x3cd97b01	0.02654791
106	0xbd3679f4	-0.044549897
107	0x3da54e1e	0.0807154
108	0xbd9fad1d	-0.077966906
109	0x3dd0639c	0.10175249
110	0x3d3ef621	0.046621446
111	0xbda2339d	-0.07920001
112	0x3caaba4e	0.02084079
113	0x3d3e908b	0.046524566
114	0xbd2f2fbc	-0.042770132
115	0x3e075b22	0.13218358
116	0xbe0d9d4d	-0.13829537
117	0x3dff169f	0.124554865
118	0x3e0eb64c	0.13936728
119	0x3ae54807	0.0017492779
120	0xbd836999	-0.064166255
121	0xbdfd2100	-0.1235981
122	0xbcd48b59	-0.025945352
123	0x3db17dbc	0.0866656
124	0xbd53e970	-0.051736295
125	0x3c751e86	0.014960891
126	0x3d5734f8	0.05254075
127	0x3de80841	0.11329699
128	0x3dd8a18b	0.10577687
129	0x3dc3e18a	0.095645025
130	0xbbd72144	-0.006565245
131	0x3c2297d8	0.009923898
132	0xbe08c436	-0.13356099
133	0x3da08394	0.078375965
134	0xbb805970	-0.003916912
135	0xbdc0aa3a	-0.09407468
136	0x3c433f04	0.01191688
137	0xbd5b6941	-0.053567175
138	0x3d8e4644	0.06946996
139	0xbd9296d4	-0.071576744
140	0x3dda1a80	0.10649586
141	0x3db171f7	0.08664315
142	0x3d07433b	0.0330231
143	0x3dc40ca9	0.09572727
144	0xbd51440b	-0.05109028
145	0xbe03416d	-0.12817927
146	0x3ce9ff84	0.028564222
147	0xbdfab940	-0.12242365
148	0xbd140400	-0.036136627
149	0x3dd7c55e	0.10535692
150	0x3d20cbe0	0.03925693
151	0xbcec1e2c	-0.02882298
152	0xbe103664	-0.14083248
153	0x3c31931d	0.010838297
154	0x3d89a2fc	0.0672054
155	0xbd0d571f	-0.034506913
156	0xbdb15231	-0.08658255
157	0xbc4d92cd	-0.012547207
158	0xbcb33753	-0.021876967
159	0x3c483abd	0.012221036
160	0x3cd02732	0.025409315
161	0xbd758cb6	-0.059948646
162	0x3ce6b5a1	0.02816278
163	0x3d22d581	0.039754394
164	0x3d2295b8	0.039693564
165	0xbe0e39b0	-0.13889194
166	0xbe0243d2	-0.12721184
167	0x3e0842bb	0.13306706
168	0xbde371f1	-0.11105717
169	0xbda53d85	-0.080683745
170	0x3c7e22b3	0.015511203
171	0xbd69aa21	-0.057047013
172	0x3e11226e	0.1417329
173	0xbdff1dde	-0.124568686
174	0xbd92d4d6	-0.071695015
175	0x3df6a5b3	0.12043323
176	0x3e071c76	0.1319445
177	0xbcc9c0d0	-0.024628073
178	0xbdf2b952	-0.11851753
179	0x3d82e973	0.06392183
180	0xbb918546	-0.0044409363
181	0xbbaee1f7	-0.0053369957
182	0x3d5dbe4a	0.054136552
183	0xbd3fd326	-0.046832226
184	0x3e111c9a	0.14171067
185	0x3df7f3e9	0.12107069
186	0xbcc832fb	-0.024438372
187	0x3d2691d5	0.04066642
188	0x3cebf9d8	0.028805658
189	0x3e0996da	0.13436452
190	0xbd7042ea	-0.058657564
191	0xbdf445e8	-0.11927396
192	0xbd45e9fe	-0.048318855
193	0xbde880f0	-0.11352718
194	0xbd496b72	-0.049174733
195	0xbd647164	-0.0557722
196	0x3d18d9c5	0.037317056
197	0x3df2a474	0.11847773
198	0x3d663394	0.056201532
199	0x3d9da56b	0.076975666
200	0xbdc9372f	-0.098249786
201	0xbd84885d	-0.06471322
202	0xbdea7b3e	-0.11449288
203	0x3df012a9	0.11722309
204	0xbd637a65	-0.055536646
205	0xbdc67265	-0.09689788
206	0x3cd07cb4	0.025450088
207	0x3e13a8cc	0.1441986
208	0x3d6fb32e	0.05852049
209	0x3e096e6c	0.13421029
210	0xbdc1434c	-0.09436664
211	0x3b3398df	0.002740435
212	0xbd9074b4	-0.07053509
213	0x3ddde2ba	0.1083426
214	0xbdd517ec	-0.10404953
215	0x3b0aa21c	0.0021153754
216	0xbcb1a30a	-0.021684188
217	0xbe0f78a2	-0.14010862
218	0xbe0ac0db	-0.13550131
219	0xbd8655e2	-0.065593496
220	0xbe0d5145	-0.13800533
221	0x3d2100dc	0.03930746
222	0xbd91a753	-0.07111993
223	0x3c84869c	0.016177468
224	0x3d4da0ce	0.050202183
225	0xbccbb01c	-0.024864249
226	0x3d9dff8f	0.077147596
227	0x3dbb868d	0.09156523
228	0xbcfcd405	-0.030862818
229	0x3cd6a944	0.026203759
230	0x3ccddf1c	0.0251308
231	0x3dbfcb5f	0.09364962
232	0x3c90fcaf	0.017698614
233	0x3d668294	0.056276873
234	0x3cafef51	0.02147642
235	0x3dc0ff0e	0.09423648
236	0x3e0df4fa	0.13862982
237	0xbe0892dd	-0.13337274
238	0x3d5a1c14	0.053249434
239	0x3de64fad	0.11245666
240	0xbd052a66	-0.032511137
241	0xbdbe7002	-0.092987075
242	0xbd82fcc7	-0.0639587
243	0xbe0eed49	-0.13957705
244	0x3dbb0f48	0.09133774
245	0xbe09d3ff	-0.13459776
246	0xbda901e8	-0.08252317
247	0xbd5d71f6	-0.05406376
248	0x3dee171f	0.11625504
249	0x3dbdde44	0.092709094
250	0xbddc06f2	-0.10743512
251	0x3e0595d0	0.1304543
252	0x3e00e2f7	0.1258658
253	0xbdfd3f7a	-0.12365623
254	0x3dc9b284	0.09848502
255	0x3d4e8878	0.050423115

fc2.bias f4 [96]
0	0x3e0c4099	0.13696517
1	0xbd7bca71	-0.06147236
2	0xbdd64ef2	-0.104642764
3	0x3cd0609e	0.025436696
4	0xbdc347a1	-0.095351465
5	0xbda23132	-0.079195395
6	0xbe0ca671	-0.13735367
7	0xbdf4f038	-0.119598806
8	0xbd19636a	-0.037448324
9	0x3cd7199f	0.026257334
10	0x3c459517	0.012059472
11	0xbd838c36	-0.064232275
12	0x3daf3c1c	0.08556387
13	0xbdc66212	-0.09686674
14	0xbda8a6dc	-0.08234951
15	0x3c72f03c	0.014827784
16	0xbdbad39c	-0.091223925
17	0x3d4de285	0.050264854
18	0x3da11570	0.07865417
19	0xbda32d5b	-0.07967635
20	0x3dafcd30	0.08584058
21	0xbdafa925	-0.08577184
22	0xbdfbb8f6	-0.12291138
23	0x3cebe47f	0.028795479
24	0xbdfe396c	-0.12413296
25	0x3e05dd55	0.13072713
26	0x3dbc78cd	0.092027284
27	0x3decd33e	0.11563729
28	0xbe132114	-0.14368087
29	0x3dfa7766	0.12229805
30	0xba059267	-0.0005095363
31	0xbd61b5ac	-0.055104896
32	0x3e0bab02	0.13639453
33	0x3bbde3ed	0.005794993
34	0xbd641e48	-0.05569294
35	0xbc72ab5c	-0.014811363
36	0x3e096ca9	0.13420357
37	0x3deab7d5	0.114608444
38	0x3be2dcea	0.0069233077
39	0x3cf313b4	0.029672481
40	0x3e047e66	0.12938842
41	0xbc2b2ce0	-0.010447711
42	0xbdd42b1c	-0.10359785
43	0x3dd571c2	0.10422088
44	0xbb9ae2df	-0.004726752
45	0xbd6e6929	-0.058205757
46	0x3d7b888f	0.06140953
47	0x3e02a43b	0.12757961
48	0xbdad389a	-0.084580615
49	0xbd75d0e1	-0.060013656
50	0x3d526bae	0.051372223
51	0xbd073bb3	-0.033015918
52	0xbdde7713	-0.10862555
53	0x3d5af7d0	0.05345899
54	0x3e12951a	0.1431469
55	0x3d8bad80	0.06820202
56	0xbd50baca	-0.050959386
57	0xbda72f90	-0.08163369
58	0xbd282d8f	-0.041059073
59	0xbd0a9ab1	-0.03383893
60	0x3ce5b68a	0.028041143
61	0x3d11b9c6	0.035577558
62	0xbda7c5d2	-0.08192028
63	0xbd950b95	-0.072776
64	0xbd8eccb8	-0.06972641
65	0xbc0cf468	-0.008603193
66	0xbdc6dfcb	-0.09710654
67	0x3c5cc82d	0.01347546
68	0xbe0bd26d	-0.1365449
69	0x3dff7375	0.124731936
70	0x3d612b83	0.054973137
71	0xbda8d105	-0.08242992
72	0x3d9f39c4	0.0777469
73	0x3dc28c0d	0.09499369
74	0x3dd8c91e	0.10585235
75	0xbd82f04e	-0.06393491
76	0x3dd6d962	0.10490681
77	0x3def7051	0.116913445
78	0xbcab3fc8	-0.020904437
79	0xbcc7027e	-0.02429318
80	0x3dadbe7a	0.08483596
81	0x3d459845	0.04824092
82	0xbdec5402	-0.11539461
83	0x3bbe9d7f	0.005817115
84	0xbce6bc6b	-0.028166017
85	0x3bd968a2	0.0066347877
86	0xbcfad688	-0.030619875
87	0xbde4a123	-0.11163547
88	0xbdb6c0d0	-0.08923495
89	0xbcfdc4f1	-0.030977698
90	0xbd495d51	-0.04916126
91	0x3acfe292	0.001586037
92	0xbbd86d8c	-0.006604856
93	0x3d64d984	0.0558715
94	0x3d31e22a	0.043428577
95	0x3bda832a	0.006668468

fc3.weight f4 [24, 96]
0	0x3ca7a8ea	0.020466287
1	0x3c86b677	0.016444428
2	0xbcd7bbcc	-0.026334666
3	0xbdc1bed3	-0.09460225
4	0xbbb8acd7	-0.0056358385
5	0x3d319302	0.04335309
6	0xbd365b3f	-0.044520613
7	0x3d595df8	0.05306813
8	0xbc9d23b7	-0.01918207
9	0x3b9cd3e9	0.004786004
10	0x3d5e89b6	0.05433055
11	0xbd9afbd3	-0.07567563
12	0xbca9b79b	-0.020717433
13	0xbcfdbb7a	-0.030973185
14	0xbcf730b7	-0.030174596
15	0x3db6715d	0.08908341
16	0xbd0e7dad	-0.034787823
17	0x3cca2e18	0.024680182
18	0x3d55e3d0	0.052219212
19	0xbd95adf2	-0.07308568
20	0x3d98d01d	0.074615695
21	0x3d439fba	0.04775975
22	0x3d8547c2	0.06507827
23	0x3d983352	0.074316636
24	0xbbded6f9	-0.006800529
25	0xbcfa03b7	-0.03051935
26	0xbdcbfa98	-0.09959906
27	0xbd2df632	-0.04247112
28	0x3da052d9	0.07828302
29	0xbdc2543f	-0.09488725
30	0x3d60a3bf	0.05484366
31	0xbd3cbc87	-0.04607823
32	0xbd8a173c	-0.06742713
33	0x3d5b749a	0.053577997
34	0xbccbc512	-0.024874244
35	0x36e04c91	6.6846337e-06
36	0xbd007fa1	-0.031371716
37	0x3dc07952	0.0939814
38	0xbd8b77ff	-0.06809997
39	0xbca5b4bf	-0.020227788
40	0xbd1945d5	-0.037420113
41	0xbd4c3e0f	-0.04986387
42	0xbd66decf	-0.05636483
43	0xbd5c458b	-0.05377726
44	0xbdbd50ad	-0.09243903
45	0x3d99f7f9	0.07518
46	0xbce69aee	-0.028150048
47	0x3dbdd845	0.09269766
48	0x3d6eabba	0.05826924
49	0x3d756f13	0.05992038
50	0x3c2f7c4d	0.010710788
51	0xbd372493	-0.044712614
52	0x3d8ee5dd	0.06977437
53	0x3c8bf8ca	0.017086405
54	0x3ca6a4a3	0.020342177
55	0xbd4fca15	-0.05072983
56	0xbd1f71d6	-0.03892692
57	0xbd0f55b7	-0.034993853
58	0x3d0ce1f4	0.034395173
59	0x3d8cf95a	0.068834975
60	0xbd59768a	-0.053091563
61	0x3c5e1cf9	0.013556712
62	0x3cc9c954	0.024632134
63	0xbd044fcd	-0.032302666
64	0xbd8a612b	-0.067568146
65	0x3d9f74e0	0.07785964
66	0xbc6d85b8	-0.014497213
67	0x3dbf14ae	0.09330116
68	0xbda3c632	-0.07996787
69	0x3d88c210	0.066776395
70	0x3dbd21be	0.092349514
71	0x3dbe1072	0.092804804
72	0x3d059d94	0.03262098
73	0xbdb936d3	-0.0904366
74	0xbd4461bf	-0.04794478
75	0x3dc04226	0.09387617
76	0xbc7a5dd6	-0.015281161
77	0x3d32d995	0.043664534
78	0x3c611166	0.013737058
79	0x3d873b9a	0.06603165
80	0xbdbc8bd9	-0.09206361
81	0xbda5211f	-0.08062958
82	0xbaedb5c6	-0.0018135838
83	0xbc9e2cad	-0.019308412
84	0x3b0430ef	0.0020170768
85	0xbd935ed4	-0.071958214
86	0x3cf01d79	0.029310929
87	0xbd4945a0	-0.049138665
88	0x3d253b17	0.040339556
89	0xbdb003c7	-0.085944705
90	0xbda96ff7	-0.08273309
91	0x3cefe1e4	0.029282518
92	0xbd13b811	-0.03606421
93	0x3d2ffb58	0.04296431
94	0xbb2c0c05	-0.0026252281
95	0xbcbe7f3f	-0.023254035
96	0x3d19b3dc	0.037525043
97	0xbccc2407	-0.024919523
98	0x3d6c775c	0.057731017
99	0xbda39663	-0.07987668
100	0x3dc80e3f	0.09768342
101	0x3dca1f9a	0.09869309
102	0x3c873af2	0.0165076
103	0x3cca68ed	0.024708236
104	0xbd16da65	-0.03682937
105	0xbd91a5ae	-0.07111679
106	0x3cb87ccc	0.022520445
107	0x3daae00a	0.08343513
108	0x3daff041	0.08590747
109	0x3c954db1	0.018225523
110	0xbdb20d12	-0.08693899
111	0x3c5362aa	0.012901941
112	0x3d960d83	0.07326796
113	0x3dca80fb	0.09887882
114	0x3dbc2aee	0.09187876
115	0x3cbd46b9	0.023105012
116	0xbd8e93f8	-0.069618165
117	0x3d71935d	0.058978427
118	0x3d63ddb2	0.055631347
119	0x3d410f76	0.047133885
120	0x3d1ccebe	0.038283102
121	0xbd44d740	-0.04805684
122	0xbd5d41a5	-0.05401768
123	0xbd2007e3	-0.03907002
124	0x3dc1b403	0.09458163
125	0xbd7180a5	-0.058960576
126	0xbd3b81c4	-0.04577805
127	0xbcc7fbac	-0.024411999
128	0x3d9cc84a	0.076553896
129	0x3da23fff	0.079223625
130	0x3d652036	0.055938922
131	0x3dce65c1	0.10078002
132	0x3d7a9f77	0.061187234
133	0x3daf748f	0.08567154
134	0x3b494d8a	0.0030716383
135	0x3d8f37a4	0.069930345
136	0xbdb7e7d1	-0.08979762
137	0xbbc832a9	-0.006109555
138	0x3d3e3c4f	0.046444234
139	0xbd94ca34	-0.0726513
140	0xbd45e4a0	-0.048313737
141	0x3da2d447	0.07950645
142	0x3d5c2c61	0.05375326
143	0x3d936f95	0.07199017
144	0xbb8b45bc	-0.0042502563
145	0x3d3a7532	0.045521922
146	0xbd7ac8a2	-0.061226495
147	0x3d9bab63	0.07601049
148	0x3d9d82ef	0.07690989
149	0x3d591aee	0.053004198
150	0x3d5c9acd	0.053858567
151	0x3d91046c	0.070809215
152	0xbb0fe53b	-0.00219567
153	0xbd85d4e3	-0.065347455
154	0xbdcf8ad6	-0.10133903
155	0xbda958dc	-0.08268902
156	0xbdac910c	-0.08426103
157	0xbda475e1	-0.08030296
158	0xbdb1210c	-0.08648881
159	0x3d5bfded	0.05370896
160	0x3cfaabd7	0.030599518
161	0xbd726a11	-0.059183184
162	0x3d5cabdf	0.053874847
163	0x3d60b4a2	0.054859765
164	0x3da7dfe8	0.081970036
165	0xbd355119	-0.044266794
166	0xbd38af84	-0.04508926
167	0xbcbf28af	-0.02333483
168	0xbce9638f	-0.028489856
169	0xbc84429b	-0.016145041
170	0x3ab74870	0.001398338
171	0x3d9787a3	0.073989175
172	0x3c2792b5	0.010227849
173	0xbb38e682	-0.0028213565
174	0xbc3fdba3	-0.01171008
175	0xbc24acef	-0.010050996
176	0xbda25e38	-0.07928127
177	0xbdb9e0a7	-0.09076052
178	0x3d5cca4a	0.053903855
179	0x3d34fbc7	0.044185426
180	0xbda30b97	-0.07961195
181	0xbd823954	-0.06358591
182	0xbdb861ce	-0.0900303
183	0xb9a9d661	-0.00032393917
184	0xbcad3b0f	-0.021146325
185	0xbd513733	-0.051078033
186	0x3d82aef9	0.0638103
187	0x3dc7a5c3	0.097484134
188	0x3d2a613c	0.041596636
189	0xbd1c7013	-0.03819282
190	0xbc3e5189	-0.011616119
191	0xbda3db42	-0.080008045
192	0xbd0f531c	-0.03499137
193	0xbd6cc65c	-0.057806358
194	0xbd5f2c78	-0.054485768
195	0xbd5b3d6c	-0.053525373
196	0x3d35a609	0.044347797
197	0x3d6e7f45	0.058226842
198	0xbcaa5879	-0.02079414
199	0x3dbc73ab	0.092017494
200	0x3d566833	0.052345466
201	0xbdca48cd	-0.09877167
202	0xbdaa78b5	-0.08323804
203	0xbb7c72a0	-0.003852047
204	0x3bb1bfaf	0.005424462
205	0xbd1bd201	-0.038042072
206	0xbdbb6d93	-0.09151759
207	0xbc92ddc7	-0.017928017
208	0x3da33806	0.0796967
209	0xbd6a88fd	-0.05725955
210	0xbcd512f5	-0.026010016
211	0xbd414a0f	-0.04718977
212	0x3da04b4b	0.07826861
213	0xbdad9512	-0.084756985
214	0x3dbdcab3	0.092671774
215	0x3d7c7120	0.061631322
216	0x3d383ac2	0.04497791
217	0xbd1cdebe	-0.03829836
218	0x3dbeace8	0.09310323
219	0xbd2c2775	-0.042029817
220	0xbd36fbda	-0.044673778
221	0x3d217a69	0.03942338
222	0xbdc9f182	-0.09860517
223	0xbd0e7c60	-0.034786582
224	0xbdc00d01	-0.0937748
225	0x3d3894e0	0.045063853
226	0xbd870858	-0.06593388
227	0x3cdbb1b9	0.026818143
228	0xbdba488e	-0.0909587
229	0x3dac302f	0.08407628
230	0xbd3d5d13	-0.04623134
231	0x3d07e28e	0.033175044
232	0x3c6f3764	0.0146006085
233	0x3d9bc13d	0.07605217
234	0x3cebaa87	0.028767837
235	0x3c88df5a	0.016708065
236	0xbd09327a	-0.033495404
237	0x3d96aecd	0.07357559
238	0xbcdcfe5f	-0.026976762
239	0x3d270586	0.040776752
240	0xbd0a1760	-0.0337137
241	0xbdac7683	-0.08421042
242	0xbd977fe9	-0.07397444
243	0xbdab57e5	-0.08366374
244	0x3ccd0a13	0.025029218
245	0xbdc7097f	-0.09718608
246	0xbdc6ee7b	-0.09713455
247	0x3d3c3c2b	0.04595582
248	0x3c5ea049	0.01358802
249	0x3d9e0c95	0.077172436
250	0xbc5d1279	-0.013493174
251	0x3d610a59	0.05494151
252	0xbcd7efa5	-0.026359389
253	0x3db00f02	0.085966125
254	0x3d057505	0.0325823
255	0xbd8dca83	-0.06923392

fc3.bias f4 [24]
0	0xbc45e1ca	-0.012077758
1	0x3dcb2ea6	0.09921007
2	0x3cd04618	0.025424048
3	0x3d8b8b0f	0.06813633
4	0xbd666eca	-0.056258
5	0x3d17e1f3	0.037080716
6	0x3d1a8784	0.037726894
7	0xbd9c6844	-0.076370746
8	0x3c5fbaf4	0.013655413
9	0xbd9d0835	-0.07667581
10	0xbd6d3b8a	-0.05791811
11	0xbd78a1bd	-0.06070112
12	0x3d8bc9c5	0.06825594
13	0xbd893977	-0.06700414
14	0xbd3f7682	-0.046743877
15	0x3d1e3cc4	0.03863217
16	0x3ca38907	0.0199628
17	0x3d16b3c2	0.036792524
18	0x3c6ee31e	0.014580516
19	0x3d62c012	0.055358954
20	0xbc4d8291	-0.0125433365
21	0xbd2286ad	-0.039679218
22	0xbd31d1a9	-0.043412838
23	0xbdc1a2e5	-0.09454898

fc4.weight f4 [2, 24]
0	0xbd13611a	-0.035981275
1	0xbe0d38f7	-0.13791262
2	0x3dff46ef	0.124647014
3	0xbe450200	-0.19239044
4	0xbe3ea5bd	-0.18617912
5	0xbe090a5c	-0.13382858
6	0x3e0654ed	0.13118334
7	0xbdaf54d4	-0.085611016
8	0xbe1b608d	-0.1517355
9	0x3de4c322	0.11170031
10	0x3d4fc4ab	0.050724667
11	0xbe0687ff	-0.13137816
12	0x3e127bcf	0.14305042
13	0x3d306dd6	0.043073498
14	0xbe3b83a4	-0.18311936
15	0xbda232fb	-0.0791988
16	0x3cb5f968	0.022213653
17	0xbe298fa0	-0.16558695
18	0xbd3d095e	-0.04615151
19	0xbdfd0089	-0.12353618
20	0xbe34ab7e	-0.17643544
21	0xbc95c800	-0.018283844
22	0x3cf36f65	0.029716203
23	0x3e175620	0.14778948
24	0x3df44a8f	0.119282834
25	0xbdb938fc	-0.09044072
26	0x3e188b81	0.14896967
27	0xbbdd291c	-0.0067492854
28	0x3e206ac0	0.15665722
29	0xbd95ef51	-0.073210366
30	0x3e3384c9	0.17531122
31	0xbb080671	-0.0020755793
32	0x3e027608	0.12740338
33	0xbe25458e	-0.16139814
34	0x3e3a250b	0.18178193
35	0x3d8ce558	0.06879681
36	0x3e320e03	0.17388158
37	0xbe416925	-0.18887766
38	0x3e1414bd	0.14461036
39	0xbde4d3cd	-0.1117321
40	0x3d5e1ee0	0.054228663
41	0xbd6fc388	-0.058536083
42	0x3e1b5f71	0.15173127
43	0xbd80d0b5	-0.06289808
44	0x3e1317be	0.14364526
45	0x3d5f3f10	0.0545035
46	0x3e3c721a	0.18402901
47	0x3b8a4a42	0.004220278

fc4.bias f4 [2]
0	0xbd058083	-0.03259326
1	0xbdc6a222	-0.09698893

fc5.weight f4 [1, 2]
0	0x3e92f6ad	0.28703824
1	0x3de7bfa9	0.11315853
