T3-2024/Federated_Learning/Improved_FL/SRC/meta_parameters/client6.pth (torch, 34104 bytes, 9 tensors)

fc1.weight f4 [48, 12]
000000 3b 65 26 3e ec 1d 86 3b fb 29 54 be 0d d5 08 be
       0.16249554 0.0040929224 -0.2071914 -0.13362522
000010 2c 47 02 3e ee f6 73 3e 13 54 10 3d 7d 5e 0f 3e
       0.12722462 0.23824665 0.03523643 0.14000888
000020 2c 69 8d be 40 11 23 3e 73 1c 8c 3e bc da db bd
       -0.27619302 0.15924549 0.27365455 -0.1073508
000030 f1 17 54 3e b4 c4 93 be 20 a4 10 3e b0 22 cb bb
       0.20712258 -0.2886101 0.14125109 -0.0061992034
000040 35 87 4b 3e 87 ca 60 be 8f 7c e8 bd 44 67 fd bd
       0.19875796 -0.21952258 -0.11351883 -0.12373212
000050 36 8c 8f 3e 01 d3 be 3d e1 10 7d bd 01 86 8d be
       0.2803666 0.093175896 -0.061783675 -0.276413
000060 70 c4 30 be 76 0f d0 bd ac 80 fc bd d3 ef bc bd
       -0.17262435 -0.10159199 -0.1232923 -0.0922543
000070 87 05 3b 3e f5 8c fd bc 31 55 25 3e c0 a7 89 3e
       0.18263827 -0.030951003 0.16145779 0.26885796
000080 99 67 fd 3d df 61 cf 3d 26 45 26 3d 01 d9 1c be
       0.12373275 0.10126089 0.04059329 -0.15317155
000090 b7 7b 62 be 82 0b 72 be b2 68 f1 bd 50 a1 81 3e
       -0.22117506 -0.23637202 -0.11787547 0.25318384
0000a0 70 44 91 be 3e e9 17 3e 82 4e d8 3d 2d 18 85 be
       -0.28372526 0.14835069 0.10561849 -0.25995007
0000b0 6a 70 e8 bd b9 53 3f be 2a 3b 91 be bf 2b 27 be
       -0.11349566 -0.18684281 -0.2836545 -0.16325282
0000c0 10 2e 04 be 49 56 65 3d d5 56 bd bd 75 2f c8 3d
       -0.12908196 0.05599049 -0.092450775 0.09774677
0000d0 f5 f0 3b 3e 23 83 34 3e ba e7 13 3e c8 a9 19 be
       0.18353637 0.1762815 0.14443865 -0.15006173
0000e0 65 31 6f bd ff b0 05 3e 45 32 aa 3d cb 29 2e be
       -0.058396716 0.130558 0.083103694 -0.1700813
0000f0 ed 4d 32 3e 84 c8 0f 3e a6 f6 4f be b7 9c b4 bc
       0.17412539 0.14041334 -0.20308933 -0.022047384
000100 6e 14 c5 bd 73 3c 55 3e 33 7d 3c be c5 35 18 3e
       -0.09623037 0.20823841 -0.18407135 0.14864261
000110 30 1b 3a 3e 88 a1 28 3e df 92 85 bc 2e fa b0 3d
       0.18174434 0.1646787 -0.016305385 0.08641468
000120 50 79 eb 3d be a3 24 3e 7f e8 3f be 02 9f db bd
       0.11497748 0.16078088 -0.18741034 -0.10723688
000130 77 0e 35 bd 14 ab 93 3c 02 91 b1 bd 36 b9 b5 bd
       -0.044203248 0.018025912 -0.08670236 -0.08873217
000140 ec de 7c bd c0 ad 04 be 10 e3 a4 3c 0d 32 35 be
       -0.061736032 -0.12956905 0.020127803 -0.17694874
000150 33 6e 8e 3e a8 09 be 3d 5e 6a e8 3d 40 f9 94 bd
       0.2781845 0.092791855 0.11348413 -0.07274103
000160 ea 92 80 3c e8 4e 75 be 56 0a a1 bd 43 e2 a9 bd
       0.015695054 -0.23955882 -0.078632995 -0.08295109
000170 26 58 98 3d 0b fc 85 be d8 f7 75 3e 69 fe 17 be
       0.07438688 -0.26168856 0.24020326 -0.14843144
000180 fe b0 2c 3e f5 69 1b 3d fd df 5c be 69 a9 84 3e
       0.16864392 0.037942845 -0.2156982 0.259105
000190 f4 43 e7 3d 87 91 9e 3d cd c9 1f bd cd 07 16 3d
       0.11292258 0.07742601 -0.03901081 0.036628533
0001a0 45 95 ab 3d 3a 55 8d 3e 7f 77 40 be dd 10 da 3d
       0.0837808 0.27604085 -0.18795584 0.10647748
0001b0 e9 7d 4b 3e 17 c3 28 3d cd c8 92 3e 92 a1 92 3e
       0.1987225 0.041201677 0.28668824 0.28638893
0001c0 68 1d 43 3d d7 0f 06 bd af 2c 90 3e 2f 7f 25 3e
       0.047635466 -0.03272995 0.2815909 0.16161798
0001d0 8e 2b 8e bc 60 e3 b1 bd 50 31 eb 3d aa c2 81 3e
       -0.017354753 -0.086859465 0.11484015 0.2534383
0001e0 3e 03 92 3e 4a 49 4d be 61 ac 84 3d 2b 58 00 3e
       0.285181 -0.20047489 0.06478191 0.12533633
0001f0 e3 36 33 bd db 89 74 be bc 4b 40 3e ec ea 56 bd
       -0.043753516 -0.23880713 0.1877889 -0.052470133
000200 52 0d 8f be be d2 5a be a6 0f 9a 3d 19 eb b7 3d
       -0.2793985 -0.21369454 0.07522516 0.08980388
000210 26 70 53 be 3a 61 63 be 2b 69 54 3e 0d b7 79 3d
       -0.2064825 -0.22205058 0.20743243 0.060965586
000220 be 60 4b be 9a 9d 5b 3c 30 2e 82 be ab c5 01 be
       -0.19861123 0.013404274 -0.25425863 -0.1267306
000230 b6 4f 35 bd 1b 2b 88 3a 33 04 65 be 54 ef 28 3e
       -0.04426547 0.0010388823 -0.22364883 0.16497546
000240 1d 56 88 3e 1c 15 1f 3e d3 fb 00 3e 44 f3 c4 3d
       0.266282 0.15535396 0.12596063 0.09616712
000250 a6 4a 7f bd 38 dd 48 be 19 bb 40 3c 78 ef 81 3e
       -0.06232705 -0.19615638 0.011763358 0.25378013
000260 37 2f 0a 3d 8b 25 5d 3d 2d be 2a be 06 e5 8b 3d
       0.033736434 0.053990882 -0.16674109 0.06830792
000270 ff 64 90 3d ab 52 84 3e b3 a9 a4 b8 45 42 0b 3e
       0.070505135 0.2584432 -7.851738e-05 0.13599499
000280 da 5e 8a 3e a2 fe 76 be 72 f7 5a 3e ae 20 25 be
       0.2702549 -0.24120572 0.21383455 -0.16125748
000290 84 8b 5a 3d 62 5b c8 3d ba 4c a5 3d 82 1d 8e be
       0.05335571 0.09783055 0.08071275 -0.27756888
0002a0 68 31 84 be f7 36 4b 3c 24 56 5f be ab e2 68 3c
       -0.25818944 0.012403241 -0.21810204 0.014214198
0002b0 91 0e 20 bc bc 65 34 3e 73 e8 cb 3d ce 02 93 3e
       -0.009769098 0.17616934 0.099564455 0.28713077
0002c0 a7 89 a1 bd 4d d4 6b be 85 a1 05 be 46 d3 cb 3d
       -0.07887583 -0.23030205 -0.13049896 0.099524066
0002d0 23 a3 65 3e 81 d0 8e 3e 6d a6 22 3e 26 69 a6 3d
       0.22425513 0.2789345 0.15883799 0.08125524
0002e0 71 11 86 3e 40 26 0f 3e 3b d4 6b 3c 0f ed 3a 3e
       0.26185182 0.13979435 0.014393861 0.18254493
0002f0 48 c9 32 be 14 ca 5c 3e be 07 bf bd 31 71 f3 3d
       -0.17459595 0.21561462 -0.093276486 0.11886824
000300 e7 76 b7 bb 65 42 4a be 5f 90 ac 3d d2 68 60 3b
       -0.005598891 -0.1975189 0.08425974 0.0034242165
000310 8c 92 69 3e fd b4 90 3e c9 b4 21 3e f9 a3 25 3e
       0.2280981 0.28263083 0.1579162 0.16175832
000320 b6 50 c0 bd 69 33 90 be 0c 63 61 be d6 d5 b0 bd
       -0.093903944 -0.28164223 -0.2201044 -0.08634536
000330 31 97 2b be 2d 72 db 3d c0 68 4c be 97 2a 0a 3e
       -0.16756894 0.10715137 -0.19961834 0.13492809
000340 5c cd 64 be df 3b 41 be f6 99 a3 bd 7b 57 30 be
       -0.22343963 -0.18870495 -0.0798835 -0.17220871
000350 b3 ca 30 bd c9 29 d1 3d c6 40 aa bd 34 d4 63 be
       -0.04316206 0.10213048 -0.08313136 -0.22248918
000360 c5 d9 d9 3c 67 ca 76 be f6 3e 2a 3e 80 0a 12 3d
       0.026593098 -0.24100648 0.1662558 0.035654545
000370 d8 7f 1e bc 65 b3 3c 3d 3b a6 93 3e bb 96 62 be
       -0.009674035 0.04606952 0.2883776 -0.22127812
000380 d4 f4 d3 bd 09 a7 89 3e 28 4d 15 bd 03 47 35 bd
       -0.10349432 0.2688525 -0.036450535 -0.044257175
000390 6c 04 87 3d 1a a6 28 be 6e 4e 4c be 2c da 87 be
       0.0659264 -0.16469613 -0.19951794 -0.2653364
0003a0 95 62 8f 3d 9c 10 28 be d8 00 7d 3e ee 46 54 be
       0.07001225 -0.16412586 0.24707353 -0.20730183
0003b0 df 1d 8c 3d cf b7 e1 3d d3 5b 54 3e 97 d3 90 3d
       0.06841635 0.11021387 0.20738153 0.070716076
0003c0 ef 3c 22 be 07 95 bd bd eb 7e 89 3e ca 8f 22 bd
       -0.15843557 -0.0925694 0.26854643 -0.03968791
0003d0 29 c2 7b be 27 35 26 bd ba c2 71 be dc 07 c4 bd
       -0.24585785 -0.040578034 -0.23609439 -0.095718116
0003e0 83 c5 e3 3c 43 65 5b 3d 98 34 8d be d1 7c 58 be
       0.027804142 0.053563368 -0.27579188 -0.21141364
0003f0 39 41 7a 3d fc f8 e8 bd b1 13 47 be 75 b0 43 3e
       0.061097357 -0.11375615 -0.19441105 0.19110282

fc1.bias f4 [48]
000000 47 bb 4c be a0 cd cf bd 9d cb 80 be 66 ee 8e 3e
       -0.19993316 -0.10146642 -0.25155345 0.2791626
000010 7d 88 07 3e 62 77 53 be cb 72 40 be ad c3 8f be
       0.1323566 -0.2065101 -0.1879379 -0.28078976
000020 ac 6c a5 3c 5a a7 27 bd d3 46 09 3e 2d 09 31 3e
       0.02019342 -0.040931083 0.13405924 0.17288657
000030 aa ee 1d 3e a7 1e 5c be 1c 84 92 be 5d 64 28 be
       0.15423074 -0.21496068 -0.28616416 -0.16444536
000040 04 94 92 be 68 d6 7d 3e 4e 17 1a 3e 21 09 e9 3d
       -0.28628552 0.2478882 0.15047953 0.11378694
000050 c9 fc 41 3e 1f fc bb bd 1f 72 b7 3d d4 06 b7 3d
       0.18944086 -0.09178948 0.08957314 0.08936849
000060 a3 8a 1b 3e b2 e7 2a 3e 4c 44 77 3e bb f5 8e bd
       0.15189604 0.16689947 0.24147147 -0.06980463
000070 59 17 80 be 1b 1b 79 3e f4 e5 a0 3d ac 26 41 be
       -0.25017813 0.24326746 0.0785636 -0.18862408
000080 fd fd 5b be fa 9b f2 3d 8e eb 17 be 01 7c ec bd
       -0.21483608 0.118461564 -0.1483595 -0.11547089
000090 a1 62 24 3e 32 81 21 3e 99 99 87 be 01 b2 e8 bd
       0.16053249 0.1577194 -0.26484373 -0.113620766
0000a0 f6 5e 29 3e 7a ef 04 be 33 1f eb 3d c6 3e 42 be
       0.16540131 -0.12981978 0.1148056 -0.18969259
0000b0 9a b2 4d be 7c 21 c8 3d 86 d8 b7 bc 87 ff e2 bd
       -0.20087662 0.09772012 -0.022442114 -0.11083894

fc2.weight f4 [96, 48]
000000 4a bf d3 bd 7b f0 d0 3d 75 77 d1 3c b4 74 ee 3d
       -0.1033922 0.10202118 0.025569657 0.11643353
000010 cc f5 cc 3d 91 54 54 bb a9 63 8f 3d d7 3d da 3d
       0.100078195 -0.0032399038 0.070014305 0.10656326
000020 c6 20 03 3d 4f 45 3b bd d4 28 05 3e 04 af ed 3d
       0.032013677 -0.045720395 0.13003856 0.11605647
000030 a2 b7 91 38 81 43 f0 3c da 2a 96 3c 46 60 73 bd
       6.948343e-05 0.029329063 0.01833098 -0.059417985
000040 94 15 20 bd bb 8e c8 bd ec 0f 71 bd 1a 5d 25 3d
       -0.03908308 -0.09792849 -0.058853075 0.04037199
000050 a2 f1 bc bd 94 0b 45 3d a7 0e 06 be 51 df c8 bd
       -0.09225775 0.048106745 -0.13091527 -0.09808219
000060 89 b1 0f be 50 ad e3 bd 9f cb 8e bd 18 32 ef bc
       -0.14032568 -0.11117041 -0.069724314 -0.029198691
000070 2c d3 ea 3d ea 6a 0d 3e c5 a6 b3 3d f5 9a b4 bd
       0.11466059 0.13810316 0.08772043 -0.08818618
000080 a4 8f 83 3d 71 6f ee 3d 7c 26 52 bc 91 5c 5c 3d
       0.06423882 0.116423495 -0.012826558 0.053799216
000090 96 2c ba bc de 10 b3 3d 05 03 a0 bd 7e c4 9e bd
       -0.022726338 0.087434515 -0.07813076 -0.07752322
0000a0 e8 cc 8a 3d 20 f2 16 bc 75 82 d0 bd ab cc bd bd
       0.06777364 -0.009213001 -0.10181133 -0.09267553
0000b0 38 e8 06 3e 63 50 1f 3d 3b a6 ae 3d 00 15 04 3e
       0.13174522 0.038895022 0.085278 0.12898636
0000c0 d6 48 0d be 35 d5 c8 ba 70 a9 33 3d a8 e4 11 be
       -0.13797316 -0.001532233 0.04386276 -0.14247382
0000d0 bc 4f 45 3d 0b cd e0 bd dc 0d 59 3d 4c 52 ae bb
       0.048171744 -0.10976609 0.052991733 -0.005319869
0000e0 c6 96 dc 3d 20 7c 9b 3d 18 35 c6 3d bb ba 9a 3d
       0.10770945 0.07592034 0.096780956 0.07555147
0000f0 74 04 a8 3b f4 02 b5 bc fd 9b d4 3d 52 d3 11 3c
       0.005127484 -0.022096135 0.10381315 0.00890048
000100 53 de ef 3d 37 1a b0 bd b2 d6 3f bd 80 fe 07 be
       0.11712327 -0.0859875 -0.04683561 -0.13280678
000110 c4 9d 3e 3d 3d 19 12 be 06 e7 da 3d 80 b8 1f bd
       0.046537176 -0.1426744 0.106885955 -0.038994312
000120 a8 41 73 bd f8 42 da 3d aa f6 f0 bd f8 13 4e bd
       -0.059388787 0.106573045 -0.117657974 -0.050312012
000130 40 f1 0a 3e 2e 2d 38 bd 87 14 e0 bd b3 c8 e5 3d
       0.13568592 -0.04496496 -0.10941415 0.11219921
000140 34 42 13 be 40 f1 80 bd 60 d2 9d 3b 1b 35 31 3d
       -0.14380723 -0.06296015 0.0048163384 0.043263536
000150 bc 65 9b bd 7d 3b 88 3d 01 d6 b0 3b e8 84 c9 bd
       -0.07587764 0.066519715 0.005396605 -0.09839803
000160 3b ce 9f bd 19 2b a4 3d 33 64 24 3d a6 35 00 be
       -0.07803007 0.08016033 0.04013462 -0.12520465
000170 3c 4f f6 bd 56 9f e0 bc 5a 6b cc bd 85 b8 d4 3d
       -0.120268315 -0.027419727 -0.09981413 0.10386757
000180 d5 c0 f4 bd 66 f7 05 be d6 5f 26 bd d5 79 96 bd
       -0.11950842 -0.13082656 -0.04061874 -0.07347456
000190 2b 0c ab 3c ef 6e 3a bd fa 25 65 ba 50 ca 06 be
       0.020879826 -0.04551595 -0.00087413157 -0.13163114
0001a0 88 08 7e 3d 30 7a d9 3c eb 79 36 bd 1a 4e a5 3d
       0.062019855 0.026547521 -0.044549864 0.08071537
0001b0 18 ad 9f bd a5 63 d0 3d 21 f6 3e 3d 9f 33 a2 bd
       -0.07796687 0.10175256 0.046621446 -0.07920002
0001c0 4e ba aa 3c 90 90 3e 3d e8 2f 2f bd 29 5b 07 3e
       0.02084079 0.046524584 -0.042770296 0.13218369
0001d0 4f 9d 0d be b2 16 ff 3d 4c b6 0e 3e 0f 48 e5 3a
       -0.1382954 0.12455501 0.13936728 0.0017492789
0001e0 9d 69 83 bd 01 21 fd bd 90 8b d4 bc bc 7d b1 3d
       -0.064166285 -0.123598106 -0.025945455 0.0866656
0001f0 70 e9 53 bd 1e 1f 75 3c 1b 35 57 3d 36 08 e8 3d
       -0.051736295 0.014961032 0.05254088 0.11329691
000200 9b a1 d8 3d 60 e1 c3 3d 06 21 d7 bb c8 97 22 3c
       0.10577699 0.09564471 -0.006565216 0.009923883
000210 36 c4 08 be 94 83 a0 3d 61 59 80 bb 3a aa c0 bd
       -0.13356099 0.078375965 -0.003916905 -0.09407468
000220 f2 3e 43 3c 41 69 5b bd 44 46 8e 3d d4 96 92 bd
       0.011916863 -0.053567175 0.06946996 -0.071576744
000230 80 1a da 3d ff 71 b1 3d 80 43 07 3d ab 0c c4 3d
       0.10649586 0.08664321 0.033023357 0.09572729
000240 01 44 51 bd 6c 41 03 be 86 ff e9 3c 46 b9 fa bd
       -0.051090244 -0.12817925 0.028564226 -0.12242369
000250 6a 03 14 bd 57 c5 d7 3d e0 cb 20 3d 29 1e ec bc
       -0.03613607 0.105356865 0.03925693 -0.028822975
000260 34 36 10 be f1 9b 31 3c 39 a3 89 3d 09 57 0d bd
       -0.14083177 0.010840402 0.067205854 -0.03450683
000270 55 52 b1 bd 2b 92 4d bc 55 37 b3 bc fc 3e 48 3c
       -0.08658282 -0.012547056 -0.02187697 0.012222048
000280 18 27 d0 3c aa 8c 75 bd 9c b6 e6 3c 5c d5 22 3d
       0.025409266 -0.0599486 0.028163247 0.039754257
000290 c0 95 22 3d a8 39 0e be d6 43 02 be c2 42 08 3e
       0.039693594 -0.13889182 -0.1272119 0.13306716
0002a0 ed 71 e3 bd 84 3d a5 bd 14 26 7e 3c 22 aa 69 bd
       -0.11105714 -0.08068374 0.015512008 -0.057047017
0002b0 6e 22 11 3e e6 1d ff bd de d4 92 bd e2 a5 f6 3d
       0.1417329 -0.124568745 -0.071695074 0.120433584
0002c0 8f 1c 07 3e 6e bf c9 bc 50 b9 f2 bd 88 e9 82 3d
       0.13194488 -0.024627414 -0.11851752 0.06392199
0002d0 11 7f 91 bb 08 e2 ae bb 4c be 5d 3d 26 d3 3f bd
       -0.0044401963 -0.0053370036 0.05413656 -0.046832226
0002e0 9c 1c 11 3e e2 f3 f7 3d fa 32 c8 bc d5 91 26 3d
       0.1417107 0.12107064 -0.02443837 0.04066642
0002f0 d8 f9 eb 3c ec 96 09 3e c3 42 70 bd e6 45 f4 bd
       0.028805658 0.13436478 -0.05865742 -0.119273946
000300 fe e9 45 bd f0 80 e8 bd 72 6b 49 bd 67 71 64 bd
       -0.048318855 -0.11352718 -0.049174733 -0.05577221
000310 c0 d9 18 3d 7f a4 f2 3d 94 33 66 3d 6c a5 9d 3d
       0.037317038 0.118477814 0.056201532 0.07697567
000320 3d 37 c9 bd 5c 88 84 bd 41 7b ea bd a6 12 f0 3d
       -0.09824989 -0.06471321 -0.1144929 0.11722307
000330 72 7a 63 bd 62 72 c6 bd b4 7c d0 3c cc a8 13 3e
       -0.055536695 -0.096897855 0.025450088 0.1441986
000340 2f b3 6f 3d 6d 6e 09 3e 48 43 c1 bd e1 98 33 3b
       0.058520492 0.1342103 -0.09436661 0.0027404355
000350 b4 74 90 bd b4 e2 dd 3d ec 17 d5 bd 4d a2 0a 3b
       -0.07053509 0.10834256 -0.10404953 0.0021153868
000360 0a a3 b1 bc a2 78 0f be d3 c0 0a be e2 55 86 bd
       -0.021684188 -0.14010862 -0.13550119 -0.065593496
000370 45 51 0d be e1 00 21 3d 55 a7 91 bd 9d 86 84 3c
       -0.13800533 0.03930748 -0.07111994 0.01617747
000380 e4 a0 4d 3d 18 b0 cb bc 90 ff 9d 3d 93 86 bb 3d
       0.050202265 -0.024864241 0.0771476 0.09156527
000390 ed d3 fc bc 46 a9 d6 3c 1e df cd 3c 5f cb bf 3d
       -0.030862773 0.026203763 0.025130805 0.09364962
0003a0 ae fc 90 3c 97 82 66 3d 51 ef af 3c 0e ff c0 3d
       0.017698612 0.056276884 0.02147642 0.09423648
0003b0 fa f4 0d 3e de 92 08 be 1c 1c 5a 3d af 4f e6 3d
       0.13862982 -0.13337275 0.053249463 0.11245667
0003c0 68 2a 05 bd fc 6f be bd c7 fc 82 bd 48 ed 0e be
       -0.032511145 -0.09298703 -0.0639587 -0.13957703
0003d0 5c 0f bb 3d 02 d4 09 be e8 01 a9 bd f7 71 5d bd
       0.09133789 -0.13459781 -0.08252317 -0.054063763
0003e0 e6 16 ee 3d 4a de bd 3d f8 06 dc bd cd 95 05 3e
       0.11625461 0.09270914 -0.10743517 0.13045426
0003f0 c6 e2 00 3e 6a 3f fd bd 84 b2 c9 3d f3 87 4e 3d
       0.12586507 -0.12365611 0.09848502 0.05042262

fc2.bias f4 [96]
000000 e1 40 0c 3e 33 ca 7b bd e7 4e d6 bd bf 62 d0 3c
       0.13696624 -0.06147213 -0.10464268 0.02543771
000010 a2 47 c3 bd 69 31 a2 bd 67 a6 0c be 1f f0 f4 bd
       -0.09535147 -0.079195805 -0.13735352 -0.11959862
000020 f2 63 19 bd 1c 1e d7 3c 06 99 45 3c 53 8c 83 bd
       -0.03744883 0.026259474 0.012060409 -0.06423249
000030 25 3c af 3d 49 62 c6 bd 96 a6 a8 bd 32 f0 72 3c
       0.085563935 -0.09686715 -0.08234899 0.014827775
000040 96 d3 ba bd a9 e2 4d 3d 03 15 a1 3d 1d 2d a3 bd
       -0.09122388 0.050264988 0.07865336 -0.07967589
000050 14 cd af 3d b4 a8 af bd ad b8 fb bd df e1 eb 3c
       0.085840374 -0.085770994 -0.122910835 0.028794227
000060 74 39 fe bd 29 dd 05 3e 5a 78 bc 3d 0b d3 ec 3d
       -0.12413302 0.13072647 0.09202643 0.11563691
000070 f9 20 13 be 39 77 fa 3d 31 e3 05 ba 41 b6 61 bd
       -0.14368047 0.12229771 -0.00051074015 -0.05510545
000080 01 ab 0b 3e 88 df bd 3b 6e 1c 64 bd c6 a9 72 bc
       0.13639452 0.0057944693 -0.055691175 -0.014810985
000090 09 6d 09 3e 17 b8 ea 3d 60 d0 e2 3b 5a 15 f3 3c
       0.134205 0.114608936 0.006921813 0.029673267
0000a0 00 7e 04 3e b8 2d 2b bc 1d 2b d4 bd bd 70 d5 3d
       0.1293869 -0.010447912 -0.10359786 0.10421894
0000b0 9e e5 9a bb e5 68 6e bd 22 89 7b 3d 44 a4 02 3e
       -0.0047270795 -0.058205504 0.061410077 0.12757975
0000c0 94 38 ad bd f6 d1 75 bd b4 6b 52 3d ef 3a 07 bd
       -0.08458057 -0.060014687 0.051372245 -0.033015188
0000d0 42 77 de bd 08 f8 5a 3d 37 95 12 3e 7d ad 8b 3d
       -0.108625904 0.053459197 0.14314733 0.068202
0000e0 fe ba 50 bd 8c 2f a7 bd d8 2d 28 bd f4 9a 0a bd
       -0.05095958 -0.08163366 -0.041059345 -0.03383918
0000f0 5e b3 e5 3c ca b8 11 3d e3 c5 a7 bd 90 0b 95 bd
       0.02803963 0.03557662 -0.08192041 -0.07277596
000100 fe cc 8e bd 2b f5 0c bc 06 e0 c6 bd 28 c7 5c 3c
       -0.06972693 -0.0086033745 -0.09710698 0.013475217
000110 38 d2 0b be a7 73 ff 3d d0 2b 61 3d 0e d1 a8 bd
       -0.13654411 0.12473231 0.054973423 -0.08242999
000120 7b 39 9f 3d 25 8c c2 3d f7 c7 d8 3d 5b f0 82 bd
       0.077746354 0.09499387 0.10585015 -0.063935004
000130 77 d9 d6 3d b4 6f ef 3d e3 42 ab bc b8 01 c7 bc
       0.10490697 0.116912276 -0.020905918 -0.024292812
000140 b3 be ad 3d 75 97 45 3d ee 53 ec bd 98 8f be 3b
       0.084836386 0.048240144 -0.11539446 0.0058154576
000150 9c bc e6 bc 89 6d d9 3b 80 d5 fa bc fd a0 e4 bd
       -0.028166108 0.006635372 -0.030619383 -0.111635186
000160 24 c1 b6 bd 03 c5 fd bc bd 5c 49 bd 9a e8 cf 3a
       -0.089235574 -0.030977732 -0.049160708 0.0015862167
000170 5c 6f d8 bb d5 d8 64 3d 74 e2 31 3d fa 7a da 3b
       -0.006605072 0.05587085 0.043428853 0.006667492

fc3.weight f4 [24, 96]
000000 e2 a8 a7 3c 70 b6 86 3c c9 bb d7 bc d1 be c1 bd
       0.020466272 0.016444415 -0.02633466 -0.094602235
000010 f0 ac b8 bb 0d 93 31 3d 3f 5b 36 bd f1 5d 59 3d
       -0.00563585 0.04335313 -0.044520613 0.053068105
000020 b2 23 9d bc ff d3 9c 3b a8 89 5e 3d d5 fb 9a bd
       -0.01918206 0.004786014 0.054330498 -0.075675644
000030 9e b7 a9 bc 86 bb fd bc b8 30 f7 bc 5d 71 b6 3d
       -0.020717438 -0.030973207 -0.030174598 0.08908341
000040 ad 7d 0e bd 10 2e ca 3c c0 e3 55 3d f2 ad 95 bd
       -0.034787823 0.024680167 0.052219152 -0.07308568
000050 1c d0 98 3d b8 9f 43 3d c5 47 85 3d 4c 33 98 3d
       0.07461569 0.04775974 0.065078296 0.07431659
000060 f9 d6 de bb bb 03 fa bc 93 fa cb bd 21 f6 2d bd
       -0.006800529 -0.030519357 -0.099599026 -0.042471055
000070 db 52 a0 3d 41 54 c2 bd b0 a3 60 3d 87 bc 3c bd
       0.078283034 -0.094887264 0.054843605 -0.04607823
000080 45 17 8a bd 9d 74 5b 3d 1b c5 cb bc 20 ae df 36
       -0.067427196 0.053578008 -0.02487426 6.6661887e-06
000090 a9 7f 00 bd 51 79 c0 3d fe 77 8b bd c1 b4 a5 bc
       -0.031371746 0.09398139 -0.06809996 -0.020227792
0000a0 d9 45 19 bd 02 3e 4c bd cf de 66 bd 92 45 5c bd
       -0.037420128 -0.049863823 -0.05636483 -0.053777285
0000b0 b1 50 bd bd fa f7 99 3d dc 9a e6 bc 3e d8 bd 3d
       -0.09243906 0.07518001 -0.028150015 0.092697605
0000c0 b9 ab 6e 3d 15 6f 75 3d 5b 7c 2f 3c 95 24 37 bd
       0.058269236 0.05992039 0.010710801 -0.04471262
0000d0 dc e5 8e 3d e4 f8 8b 3c 80 a4 a6 3c 1f ca 4f bd
       0.06977436 0.017086454 0.020342112 -0.050729867
0000e0 e2 71 1f bd bc 55 0f bd f3 e1 0c 3d 58 f9 8c 3d
       -0.038926966 -0.034993872 0.03439517 0.06883496
0000f0 8f 76 59 bd bf 1c 5e 3c 4a c9 c9 3c d3 4f 04 bd
       -0.053091582 0.013556658 0.024632115 -0.03230269
000100 2c 61 8a bd df 74 9f 3d a1 85 6d bc b0 14 bf 3d
       -0.06756815 0.07785963 -0.014497192 0.09330118
000110 33 c6 a3 bd 0a c2 88 3d bc 21 bd 3d 70 10 be 3d
       -0.07996788 0.06677635 0.0923495 0.09280479
000120 86 9d 05 3d e7 36 b9 bd dd 61 44 bd 25 42 c0 3d
       0.03262093 -0.09043675 -0.047944892 0.09387616
000130 0d 5e 7a bc 8d d9 32 3d 33 11 61 3c 9a 3b 87 3d
       -0.0152812125 0.043664504 0.013737011 0.06603165
000140 e3 8b bc bd 28 21 a5 bd f4 b5 ed ba c5 2c 9e bc
       -0.09206369 -0.08062965 -0.0018135891 -0.019308457
000150 e7 30 04 3b d3 5e 93 bd 5d 1d f0 3c a6 45 49 bd
       0.002017075 -0.07195821 0.029310877 -0.049138688
000160 19 3b 25 3d c8 03 b0 bd f7 6f a9 bd f8 e1 ef 3c
       0.040339563 -0.08594471 -0.08273309 0.029282555
000170 11 b8 13 bd 43 fb 2f 3d f2 0b 2c bb 5e 7f be bc
       -0.03606421 0.04296423 -0.0026252237 -0.023254093
000180 bb b4 19 3d ba 23 cc bc 95 77 6c 3d 74 96 a3 bd
       0.037525874 -0.02491938 0.05773123 -0.07987681
000190 50 0e c8 3d b2 1f ca 3d 9d 3a 87 3c 37 69 ca 3c
       0.09768355 0.09869327 0.016507441 0.024708373
0001a0 e2 d9 16 bd 9a a5 91 bd 6c 7f b8 3c f4 df aa 3d
       -0.036828883 -0.07111664 0.022521697 0.08343497
0001b0 4d f0 af 3d 57 4e 95 3c f2 0c b2 bd 0f 63 53 3c
       0.085907556 0.018225832 -0.08693875 0.012902035
0001c0 83 0d 96 3d fc 80 ca 3d cd 2b bc 3d 94 46 bd 3c
       0.07326796 0.09887883 0.09188042 0.023104943
0001d0 e1 93 8e bd 46 93 71 3d e2 dd 63 3d de 0f 41 3d
       -0.069617994 0.05897834 0.055631526 0.047134273
0001e0 bf ce 1c 3d ce d6 44 bd 9a 3f 5d bd 61 07 20 bd
       0.038283106 -0.048056416 -0.054015733 -0.039069537
0001f0 00 b4 c1 3d 77 80 71 bd e4 80 3b bd d8 fa c7 bc
       0.094581604 -0.058960404 -0.045777217 -0.024411604
000200 89 c8 9c 3d fd 3f a2 3d 9c 20 65 3d dd 65 ce 3d
       0.076554365 0.07922361 0.0559393 0.10078023
000210 f4 a1 7a 3d dc 74 af 3d 75 53 49 3b c6 37 8f 3d
       0.061189607 0.08567211 0.003071991 0.0699306
000220 ab e7 b7 bd 33 32 c8 bb 94 3c 3e 3d d2 c9 94 bd
       -0.08979734 -0.0061095 0.04644449 -0.07265057
000230 27 e4 45 bd 23 d4 a2 3d 8c 2c 5c 3d 5a 6f 93 3d
       -0.048313286 0.07950618 0.05375342 0.07198973
000240 24 42 8b bb 2d 75 3a 3d f3 c8 7a bd 69 ab 9b 3d
       -0.004249828 0.045521904 -0.061226796 0.07601053
000250 1d 83 9d 3d 36 1d 59 3d 11 9c 5c 3d da 04 91 3d
       0.076910235 0.053006373 0.053859774 0.070810035
000260 f8 da 0f bb f5 d4 85 bd d5 8a cf bd ce 58 a9 bd
       -0.0021950584 -0.06534759 -0.10133902 -0.08268891
000270 e6 90 ac bd aa 75 a4 bd e0 20 b1 bd 2d fe 5b 3d
       -0.08426075 -0.08030255 -0.086488485 0.053709198
000280 a2 ac fa 3c f6 69 72 bd 85 ab 5c 3d cd b4 60 3d
       0.030599896 -0.059183083 0.05387451 0.054859925
000290 2a e0 a7 3d 73 50 35 bd 76 af 38 bd a4 29 bf bc
       0.08197053 -0.044266175 -0.045089208 -0.023335285
0002a0 c9 62 e9 bc 08 3f 84 bc 92 82 b7 3a 9a 87 97 3d
       -0.028489487 -0.016143337 0.0014000705 0.07398911
0002b0 6d 99 27 3c 2a d5 38 bb 39 db 3f bc 6e ac 24 bc
       0.010229451 -0.0028203228 -0.011709982 -0.010050876
0002c0 a1 5d a2 bd 08 e0 b9 bd 7e ca 5c 3d 4e fc 34 3d
       -0.079280145 -0.09075934 0.05390405 0.04418593
0002d0 9b 0b a3 bd 9a 39 82 bd f3 61 b8 bd 42 d2 a9 b9
       -0.07961198 -0.06358643 -0.09003057 -0.00032390846
0002e0 9c 3b ad bc 4a 37 51 bd 3a af 82 3d a4 a5 c7 3d
       -0.021146588 -0.05107812 0.06381078 0.0974839
0002f0 c9 60 2a 3d 62 6e 1c bd 2f 52 3e bc e0 da a3 bd
       0.041596208 -0.038191207 -0.011616274 -0.080007315
000300 52 53 0f bd 6e c6 6c bd 2d 2c 5f bd f8 3c 5b bd
       -0.03499157 -0.057806425 -0.05448549 -0.05352494
000310 ec a5 35 3d 59 7f 6e 3d d4 58 aa bc e7 73 bc 3d
       0.04434769 0.058226917 -0.02079431 0.09201794
000320 29 68 56 3d d8 48 ca bd 4b 79 aa bd 99 6c 7c bb
       0.05234543 -0.09877175 -0.08323916 -0.0038516878
000330 d3 be b1 3b ec d1 1b bd b1 6d bb bd f7 dd 92 bc
       0.0054243593 -0.038041994 -0.09151781 -0.017928107
000340 06 38 a3 3d 0d 89 6a bd 07 15 d5 bc 5f 4a 41 bd
       0.0796967 -0.057259608 -0.026011003 -0.047190066
000350 54 4b a0 3d 2c 95 ad bd ba ca bd 3d 00 71 7c 3d
       0.07826868 -0.08475718 0.09267183 0.061631203
000360 c4 3a 38 3d 0d df 1c bd 01 ae be 3d ec 26 2c bd
       0.04497792 -0.038298655 0.09310532 -0.042029306
000370 da fb 36 bd fc 79 21 3d 79 f1 c9 bd 8a 7b 0e bd
       -0.044673778 0.039422974 -0.098605104 -0.034785785
000380 0c 0d c0 bd a9 94 38 3d 90 08 87 bd 60 b2 db 3c
       -0.093774885 0.04506365 -0.0659343 0.026818454
000390 4d 49 ba bd 39 30 ac 3d 74 5d 3d bd 56 e2 07 3d
       -0.09096012 0.08407635 -0.046231702 0.033174835
0003a0 46 36 6f 3c 24 c2 9b 3d 2a aa eb 3c 26 dd 88 3c
       0.014600342 0.07605389 0.028767664 0.016707014
0003b0 8a 31 09 bd f3 ae 96 3d f8 fd dc bc 2c 05 27 3d
       -0.03349451 0.07357588 -0.02697657 0.040776417
0003c0 58 17 0a bd 90 76 ac bd c4 7f 97 bd f1 57 ab bd
       -0.03371367 -0.084210515 -0.07397416 -0.08366383
0003d0 c6 09 cd 3c 1e 09 c7 bd 20 ee c6 bd 81 3b 3c 3d
       0.025029074 -0.09718536 -0.097133875 0.045955185
0003e0 76 9e 5e 3c 86 0c 9e 3d 84 12 5d bc 0d 0a 61 3d
       0.013587585 0.077172324 -0.013493184 0.054941226
0003f0 43 f0 d7 bc 01 0f b0 3d ef 74 05 3d 53 ca 8d bd
       -0.026359683 0.08596612 0.03258222 -0.06923356

fc3.bias f4 [24]
000000 c3 e2 45 bc b9 31 cb 3d be 42 d0 3c 63 8d 8b 3d
       -0.01207799 0.09921593 0.02542245 0.06814077
000010 96 6e 66 bd ea e3 17 3d 8a 84 1a 3d 54 67 9c bd
       -0.056257807 0.03708259 0.037724055 -0.07636896
000020 d4 c9 5f 3c 7c 08 9d bd ee 3f 6d bd db 9d 78 bd
       0.013658959 -0.07667634 -0.057922296 -0.060697418
000030 fb c5 8b 3d 37 39 89 bd 66 76 3f bd ef 3e 1e 3d
       0.06824871 -0.06700366 -0.046743773 0.038634237
000040 93 86 a3 3c f4 b8 16 3d 9b e3 6e 3c 5d c2 62 3d
       0.01996163 0.03679748 0.014580633 0.05536114
000050 25 78 4d bc de 86 22 bd 22 d4 31 bd 3c a2 c1 bd
       -0.012540852 -0.0396794 -0.043415196 -0.09454772

fc4.weight f4 [2, 24]
000000 94 80 13 bd 56 4b 0d be 31 3f ff 3d 3a 0d 45 be
       -0.036011294 -0.1379827 0.12463225 -0.19243327
000010 7e a7 3e be ca 10 09 be 74 4c 06 3e 66 6a af bd
       -0.1861858 -0.13385311 0.13115102 -0.08565216
000020 61 73 1b be 9e b1 e4 3d d5 82 4f 3d 9b 9a 06 be
       -0.15180732 0.1116669 0.05066188 -0.13144915
000030 6b 68 12 3e 5f 55 30 3d f1 83 3b be 13 43 a2 bd
       0.14297645 0.043050166 -0.1831205 -0.0792295
000040 b3 89 b5 3c 96 9d 29 be 19 06 3d bd 3e 0f fd bd
       0.022160387 -0.1656402 -0.046148393 -0.12356423
000050 f4 b5 34 be 30 93 96 bc 0e 12 f3 3c b5 5a 17 3e
       -0.17647535 -0.018380731 0.029671695 0.14780696
000060 d0 43 f4 3d 31 49 b9 bd cc 89 18 3e c0 c7 dd bb
       0.11926997 -0.09047163 0.14896315 -0.006768197
000070 4e 69 20 3e f0 f4 95 bd ea 81 33 3e f4 1e 09 bb
       0.1566517 -0.07322109 0.17530027 -0.002092299
000080 7d 6e 02 3e c2 49 25 be 26 1e 3a 3e d4 d5 8c 3d
       0.1273746 -0.16141418 0.18175563 0.06876722
000090 6b 06 32 3e de 6b 41 be a6 14 14 3e 0a db e4 bd
       0.17385261 -0.18888804 0.14461002 -0.11174591
0000a0 d9 07 5e 3d 72 dc 6f bd 19 60 1b 3e 00 d8 80 bd
       0.054206703 -0.058559842 0.15173377 -0.06291199
0000b0 6d 13 13 3e 7a 16 5f 3d 7a 6d 3c 3e 51 7e 8a 3b
       0.14362879 0.054464795 0.18401137 0.004226484

fc4.bias f4 [2]
000000 da e0 05 bd 02 b6 c6 bd
       -0.03268514 -0.09702684

fc5.weight f4 [1, 2]
000000 e9 b2 92 3e e2 08 e6 3d
       0.28652123 0.11232163
