T3-2024/Federated_Learning/Improved_FL/SRC/meta_parameters/client1.pth (torch, 34104 bytes, 9 tensors)

fc1.weight f4 [48, 12]
000000 46 65 26 3e 9a 1e 86 3b fe 29 54 be 15 d5 08 be
       0.1624957 0.0040930035 -0.20719144 -0.13362534
000010 27 47 02 3e ec f6 73 3e dc 53 10 3d 74 5e 0f 3e
       0.12722455 0.23824662 0.035236225 0.14000875
000020 31 69 8d be 33 11 23 3e 6b 1c 8c 3e d1 da db bd
       -0.27619317 0.1592453 0.2736543 -0.10735095
000030 f3 17 54 3e af c4 93 be 2f a4 10 3e 1b 22 cb bb
       0.20712261 -0.28860995 0.14125131 -0.006199134
000040 37 87 4b 3e 88 ca 60 be 8b 7c e8 bd 3f 67 fd bd
       0.19875799 -0.2195226 -0.1135188 -0.12373208
000050 37 8c 8f 3e 0c d3 be 3d 38 11 7d bd 02 86 8d be
       0.28036663 0.09317598 -0.061784 -0.27641302
000060 6e c4 30 be 73 0f d0 bd aa 80 fc bd cf ef bc bd
       -0.17262432 -0.10159197 -0.12329228 -0.09225427
000070 88 05 3b 3e f4 8c fd bc 34 55 25 3e c1 a7 89 3e
       0.18263829 -0.030951 0.16145784 0.268858
000080 9d 67 fd 3d e0 61 cf 3d 26 45 26 3d 01 d9 1c be
       0.12373278 0.1012609 0.04059329 -0.15317155
000090 b9 7b 62 be 8b 0b 72 be ba 68 f1 bd 4b a1 81 3e
       -0.22117509 -0.23637216 -0.11787553 0.2531837
0000a0 76 44 91 be 3d e9 17 3e 7e 4e d8 3d 2b 18 85 be
       -0.28372544 0.14835067 0.10561846 -0.25995
0000b0 97 70 e8 bd b8 53 3f be 2a 3b 91 be c8 2b 27 be
       -0.113496 -0.1868428 -0.2836545 -0.16325295
0000c0 de 2d 04 be 0e 57 65 3d b9 56 bd bd b7 2f c8 3d
       -0.12908122 0.055991225 -0.09245057 0.09774726
0000d0 1f f1 3b 3e 2b 83 34 3e d0 e7 13 3e c6 a9 19 be
       0.18353699 0.17628162 0.14443898 -0.1500617
0000e0 31 31 6f bd 17 b1 05 3e 34 32 aa 3d a4 29 2e be
       -0.058396522 0.13055836 0.08310357 -0.17008072
0000f0 df 4d 32 3e 77 c8 0f 3e a3 f6 4f be ea 9c b4 bc
       0.17412518 0.14041315 -0.20308928 -0.022047479
000100 78 14 c5 bd 7a 3c 55 3e 33 7d 3c be c3 35 18 3e
       -0.09623045 0.20823851 -0.18407135 0.14864258
000110 3e 1b 3a 3e 84 a1 28 3e f8 91 85 bc 0e fa b0 3d
       0.18174455 0.16467863 -0.016304955 0.08641444
000120 4f 79 eb 3d be a3 24 3e 7f e8 3f be 02 9f db bd
       0.11497747 0.16078088 -0.18741034 -0.10723688
000130 78 0e 35 bd 14 ab 93 3c 02 91 b1 bd 36 b9 b5 bd
       -0.04420325 0.018025912 -0.08670236 -0.08873217
000140 ec de 7c bd c0 ad 04 be 10 e3 a4 3c 0d 32 35 be
       -0.061736032 -0.12956905 0.020127803 -0.17694874
000150 32 6e 8e 3e a0 09 be 3d 5e 6a e8 3d 3a f9 94 bd
       0.27818447 0.092791796 0.11348413 -0.07274099
000160 e5 92 80 3c e7 4e 75 be 62 0a a1 bd 47 e2 a9 bd
       0.015695045 -0.2395588 -0.078633085 -0.08295112
000170 1f 58 98 3d 0b fc 85 be da f7 75 3e 68 fe 17 be
       0.07438683 -0.26168856 0.24020329 -0.14843142
000180 1a b1 2c 3e 79 6a 1b 3d fd df 5c be 6c a9 84 3e
       0.16864434 0.037943337 -0.2156982 0.2591051
000190 0f 44 e7 3d 96 91 9e 3d b3 c9 1f bd 97 07 16 3d
       0.11292278 0.07742612 -0.039010715 0.036628332
0001a0 4d 95 ab 3d 41 55 8d 3e 81 77 40 be 2b 11 da 3d
       0.08378086 0.27604106 -0.18795587 0.10647806
0001b0 d6 7d 4b 3e c0 c2 28 3d c5 c8 92 3e 84 a1 92 3e
       0.19872221 0.041201353 0.286688 0.28638852
0001c0 2e 1d 43 3d f0 0f 06 bd aa 2c 90 3e 3e 7f 25 3e
       0.04763525 -0.032730043 0.28159076 0.1616182
0001d0 80 2c 8e bc 87 e3 b1 bd 30 31 eb 3d a0 c2 81 3e
       -0.017355204 -0.086859755 0.11483991 0.253438
0001e0 3b 03 92 3e 4f 49 4d be 50 ac 84 3d 33 58 00 3e
       0.2851809 -0.20047496 0.064781785 0.12533645
0001f0 ea 36 33 bd d4 89 74 be cc 4b 40 3e 09 eb 56 bd
       -0.043753542 -0.23880702 0.18778914 -0.05247024
000200 58 0d 8f be a2 d2 5a be ae 0f 9a 3d 26 eb b7 3d
       -0.27939868 -0.21369413 0.07522522 0.08980398
000210 16 70 53 be 31 61 63 be 47 69 54 3e 70 b7 79 3d
       -0.20648226 -0.22205044 0.20743285 0.060965955
000220 a6 60 4b be 59 9e 5b 3c 25 2e 82 be a6 c5 01 be
       -0.19861087 0.013404452 -0.2542583 -0.12673053
000230 9f 4f 35 bd d0 2e 88 3a 2f 04 65 be 7a ef 28 3e
       -0.044265386 0.0010389928 -0.22364877 0.16497603
000240 18 56 88 3e 1a 15 1f 3e bb fb 00 3e 49 f3 c4 3d
       0.26628184 0.15535393 0.12596028 0.096167155
000250 e8 4a 7f bd 3d dd 48 be 32 bb 40 3c 75 ef 81 3e
       -0.062327296 -0.19615646 0.011763381 0.25378004
000260 34 2f 0a 3d a3 25 5d 3d 37 be 2a be f7 e4 8b 3d
       0.033736423 0.05399097 -0.16674124 0.06830781
000270 e0 64 90 3d a4 52 84 3e db e3 a4 b8 35 42 0b 3e
       0.070504904 0.258443 -7.862571e-05 0.13599475
000280 d0 5e 8a 3e a1 fe 76 be 69 f7 5a 3e b1 20 25 be
       0.2702546 -0.2412057 0.21383442 -0.16125752
000290 6e 8b 5a 3d 43 5b c8 3d b0 4c a5 3d 88 1d 8e be
       0.053355627 0.09783032 0.080712676 -0.27756906
0002a0 68 31 84 be f7 36 4b 3c 24 56 5f be ab e2 68 3c
       -0.25818944 0.012403241 -0.21810204 0.014214198
0002b0 91 0e 20 bc bc 65 34 3e 73 e8 cb 3d ce 02 93 3e
       -0.009769098 0.17616934 0.099564455 0.28713077
0002c0 a7 89 a1 bd 4d d4 6b be 85 a1 05 be 46 d3 cb 3d
       -0.07887583 -0.23030205 -0.13049896 0.099524066
0002d0 20 a3 65 3e 7c d0 8e 3e 58 a6 22 3e f0 68 a6 3d
       0.22425508 0.27893436 0.15883768 0.08125484
0002e0 5f 11 86 3e 34 26 0f 3e d4 d2 6b 3c 07 ed 3a 3e
       0.26185128 0.13979417 0.014393527 0.18254481
0002f0 38 c9 32 be 12 ca 5c 3e ca 07 bf bd cf 70 f3 3d
       -0.17459571 0.21561459 -0.093276575 0.11886751
000300 6d 77 b7 bb 68 42 4a be 4f 90 ac 3d af 67 60 3b
       -0.0055989535 -0.19751894 0.08425962 0.0034241488
000310 84 92 69 3e fa b4 90 3e c1 b4 21 3e f8 a3 25 3e
       0.22809798 0.28263074 0.15791608 0.1617583
000320 b1 50 c0 bd 69 33 90 be 0c 63 61 be de d5 b0 bd
       -0.09390391 -0.28164223 -0.2201044 -0.08634542
000330 37 97 2b be 20 72 db 3d c1 68 4c be 92 2a 0a 3e
       -0.16756903 0.10715127 -0.19961835 0.13492802
000340 6a cd 64 be e0 3b 41 be 0a 9a a3 bd 81 57 30 be
       -0.22343984 -0.18870497 -0.07988365 -0.1722088
000350 de ca 30 bd c3 29 d1 3d c6 40 aa bd 2e d4 63 be
       -0.04316222 0.102130435 -0.08313136 -0.22248909
000360 d9 d9 d9 3c 65 ca 76 be f9 3e 2a 3e 85 0a 12 3d
       0.026593136 -0.24100645 0.16625585 0.035654563
000370 26 80 1e bc 4e b3 3c 3d 41 a6 93 3e c2 96 62 be
       -0.009674108 0.046069436 0.2883778 -0.22127822
000380 c5 f4 d3 bd 08 a7 89 3e 45 4d 15 bd 18 47 35 bd
       -0.103494205 0.26885247 -0.036450643 -0.044257253
000390 44 04 87 3d 2e a6 28 be 7a 4e 4c be 32 da 87 be
       0.065926105 -0.16469643 -0.19951811 -0.26533657
0003a0 b4 62 8f 3d a4 10 28 be a7 00 7d 3e f5 46 54 be
       0.07001248 -0.16412598 0.2470728 -0.20730193
0003b0 d6 1d 8c 3d d6 b7 e1 3d df 5b 54 3e 90 d3 90 3d
       0.06841628 0.11021392 0.20738171 0.07071602
0003c0 e7 3c 22 be ff 94 bd bd ef 7e 89 3e a0 8f 22 bd
       -0.15843545 -0.092569344 0.26854655 -0.039687753
0003d0 29 c2 7b be 14 35 26 bd bb c2 71 be e1 07 c4 bd
       -0.24585785 -0.040577963 -0.2360944 -0.09571815
0003e0 66 c5 e3 3c 38 65 5b 3d 98 34 8d be ca 7c 58 be
       0.027804088 0.053563327 -0.27579188 -0.21141353
0003f0 02 41 7a 3d 16 f9 e8 bd c0 13 47 be 5f b0 43 3e
       0.061097153 -0.11375634 -0.19441128 0.19110249

fc1.bias f4 [48]
000000 4d bb 4c be 8d cd cf bd 9b cb 80 be 58 ee 8e 3e
       -0.19993325 -0.101466276 -0.2515534 0.27916217
000010 c8 88 07 3e 6c 77 53 be cc 72 40 be ad c3 8f be
       0.13235772 -0.20651025 -0.18793792 -0.28078976
000020 68 6d a5 3c ce a7 27 bd da 46 09 3e 58 09 31 3e
       0.02019377 -0.040931515 0.13405934 0.1728872
000030 99 ee 1d 3e c4 1e 5c be 1c 84 92 be 8e 64 28 be
       0.15423049 -0.21496111 -0.28616416 -0.16444609
000040 08 94 92 be 59 d6 7d 3e 4a 17 1a 3e ed 08 e9 3d
       -0.28628564 0.24788798 0.15047947 0.113786556
000050 d8 fc 41 3e 67 fc bb bd 38 72 b7 3d b2 06 b7 3d
       0.18944108 -0.09179001 0.089573324 0.08936824
000060 af 8a 1b 3e c6 e7 2a 3e 86 44 77 3e bd f5 8e bd
       0.15189622 0.16689977 0.24147233 -0.069804646
000070 59 17 80 be 12 1b 79 3e 07 e6 a0 3d a3 26 41 be
       -0.25017813 0.24326733 0.07856374 -0.18862395
000080 0a fe 5b be 05 9c f2 3d 90 eb 17 be 94 7c ec bd
       -0.21483627 0.118461646 -0.14835954 -0.11547199
000090 6b 62 24 3e 38 81 21 3e 9b 99 87 be 01 b2 e8 bd
       0.16053168 0.1577195 -0.2648438 -0.113620766
0000a0 eb 5e 29 3e 4b ef 04 be 23 1f eb 3d c6 3e 42 be
       0.16540115 -0.12981908 0.11480548 -0.18969259
0000b0 9a b2 4d be 79 21 c8 3d 88 d9 b7 bc 97 ff e2 bd
       -0.20087662 0.097720094 -0.022442594 -0.11083906

fc2.weight f4 [96, 48]
000000 4a bf d3 bd 7b f0 d0 3d 6c 77 d1 3c a5 74 ee 3d
       -0.1033922 0.10202118 0.02556964 0.11643342
000010 95 f5 cc 3d 69 54 54 bb a9 63 8f 3d d7 3d da 3d
       0.100077786 -0.0032398945 0.070014305 0.10656326
000020 d5 1f 03 3d 27 46 3b bd bc 28 05 3e f3 ae ed 3d
       0.03201278 -0.0457212 0.1300382 0.116056345
000030 79 7c 8e 38 76 42 f0 3c da 2a 96 3c 5a 61 73 bd
       6.7942725e-05 0.029328566 0.01833098 -0.059419014
000040 a5 15 20 bd b5 8e c8 bd a0 10 71 bd c6 5c 25 3d
       -0.03908314 -0.09792844 -0.058853745 0.04037168
000050 9d f1 bc bd 41 0b 45 3d a8 0e 06 be 4e df c8 bd
       -0.092257716 0.048106436 -0.13091528 -0.09808217
000060 89 b1 0f be 5c ad e3 bd fc cb 8e bd 1a 32 ef bc
       -0.14032568 -0.1111705 -0.06972501 -0.029198695
000070 2c d3 ea 3d ce 6a 0d 3e bb a6 b3 3d 0e 9b b4 bd
       0.11466059 0.13810274 0.08772036 -0.08818637
000080 8c 8f 83 3d 05 6f ee 3d bb 26 52 bc 47 5c 5c 3d
       0.06423864 0.11642269 -0.012826617 0.05379894
000090 78 2e ba bc df 10 b3 3d 05 03 a0 bd 7d c4 9e bd
       -0.022727236 0.08743452 -0.07813076 -0.07752321
0000a0 dc cc 8a 3d a0 f2 16 bc 75 82 d0 bd ab cc bd bd
       0.06777355 -0.00921312 -0.10181133 -0.09267553
0000b0 38 e8 06 3e 5b 50 1f 3d 07 a6 ae 3d fe 14 04 3e
       0.13174522 0.038894992 0.08527761 0.12898633
0000c0 d6 48 0d be 90 d5 c8 ba 70 a9 33 3d a9 e4 11 be
       -0.13797316 -0.0015322436 0.04386276 -0.14247383
0000d0 d8 4f 45 3d 0b cd e0 bd dc 0d 59 3d 4a 52 ae bb
       0.048171848 -0.10976609 0.052991733 -0.005319868
0000e0 b1 96 dc 3d 2d 7c 9b 3d 16 35 c6 3d bd ba 9a 3d
       0.107709296 0.07592044 0.09678094 0.07555149
0000f0 81 03 a8 3b d2 02 b5 bc fd 9b d4 3d f2 d2 11 3c
       0.005127371 -0.022096071 0.10381315 0.008900391
000100 54 de ef 3d 3a 1a b0 bd 9c d6 3f bd 81 fe 07 be
       0.117123276 -0.08598752 -0.046835527 -0.1328068
000110 c9 9d 3e 3d 36 19 12 be 0a e7 da 3d 88 b8 1f bd
       0.046537194 -0.1426743 0.106885985 -0.038994342
000120 a8 41 73 bd f4 42 da 3d af f6 f0 bd f8 13 4e bd
       -0.059388787 0.106573015 -0.11765801 -0.050312012
000130 40 f1 0a 3e 40 2d 38 bd 8d 14 e0 bd ae c8 e5 3d
       0.13568592 -0.04496503 -0.1094142 0.11219917
000140 34 42 13 be 45 f1 80 bd 50 d2 9d 3b 27 35 31 3d
       -0.14380723 -0.062960185 0.004816331 0.04326358
000150 cc 65 9b bd 7d 3b 88 3d 01 d6 b0 3b e8 84 c9 bd
       -0.075877756 0.066519715 0.005396605 -0.09839803
000160 3d ce 9f bd 1c 2b a4 3d 33 64 24 3d a6 35 00 be
       -0.07803009 0.08016035 0.04013462 -0.12520465
000170 3c 4f f6 bd 48 9f e0 bc 47 6b cc bd 82 b8 d4 3d
       -0.120268315 -0.027419701 -0.09981399 0.103867546
000180 d5 c0 f4 bd 63 f7 05 be d6 5f 26 bd d4 79 96 bd
       -0.11950842 -0.13082652 -0.04061874 -0.073474556
000190 0d 0c ab 3c ff 6e 3a bd fa 25 65 ba 50 ca 06 be
       0.02087977 -0.04551601 -0.00087413157 -0.13163114
0001a0 7d 08 7e 3d 7a 7a d9 3c ef 79 36 bd 19 4e a5 3d
       0.062019814 0.02654766 -0.04454988 0.080715366
0001b0 24 ad 9f bd 9d 63 d0 3d 21 f6 3e 3d 9b 33 a2 bd
       -0.07796696 0.1017525 0.046621446 -0.07919999
0001c0 4c ba aa 3c 8e 90 3e 3d c5 2f 2f bd 2c 5b 07 3e
       0.020840786 0.046524577 -0.042770166 0.13218373
0001d0 4f 9d 0d be a6 16 ff 3d 4c b6 0e 3e 4e 48 e5 3a
       -0.1382954 0.12455492 0.13936728 0.0017492862
0001e0 9b 69 83 bd 00 21 fd bd a0 8b d4 bc bc 7d b1 3d
       -0.06416627 -0.1235981 -0.025945485 0.0866656
0001f0 70 e9 53 bd da 1e 75 3c 21 35 57 3d 34 08 e8 3d
       -0.051736295 0.014960969 0.052540902 0.113296896
000200 9b a1 d8 3d 62 e1 c3 3d 35 21 d7 bb 78 97 22 3c
       0.10577699 0.09564473 -0.006565238 0.009923808
000210 34 c4 08 be 97 83 a0 3d 68 59 80 bb 3a aa c0 bd
       -0.13356096 0.07837599 -0.003916908 -0.09407468
000220 33 3f 43 3c 38 69 5b bd 44 46 8e 3d d4 96 92 bd
       0.011916923 -0.05356714 0.06946996 -0.071576744
000230 80 1a da 3d 04 72 b1 3d 86 43 07 3d a5 0c c4 3d
       0.10649586 0.08664325 0.03302338 0.09572724
000240 0b 44 51 bd 6c 41 03 be 86 ff e9 3c 47 b9 fa bd
       -0.05109028 -0.12817925 0.028564226 -0.1224237
000250 f8 03 14 bd 5b c5 d7 3d e0 cb 20 3d 25 1e ec bc
       -0.036136597 0.105356894 0.03925693 -0.028822968
000260 4d 36 10 be 29 94 31 3c f3 a2 89 3d fd 56 0d bd
       -0.14083214 0.010838547 0.06720533 -0.034506787
000270 53 52 b1 bd 88 92 4d bc 55 37 b3 bc a6 3b 48 3c
       -0.0865828 -0.012547143 -0.02187697 0.012221253
000280 32 27 d0 3c af 8c 75 bd 4d b6 e6 3c 59 d5 22 3d
       0.025409315 -0.05994862 0.0281631 0.039754245
000290 b7 95 22 3d b0 39 0e be d4 43 02 be bc 42 08 3e
       0.03969356 -0.13889194 -0.12721187 0.13306707
0002a0 ef 71 e3 bd 85 3d a5 bd 17 25 7e 3c 21 aa 69 bd
       -0.111057155 -0.080683745 0.015511773 -0.057047013
0002b0 6e 22 11 3e eb 1d ff bd de d4 92 bd c3 a5 f6 3d
       0.1417329 -0.12456878 -0.071695074 0.12043335
0002c0 6e 1c 07 3e 99 c0 c9 bc 51 b9 f2 bd 57 e9 82 3d
       0.13194439 -0.02462797 -0.118517525 0.06392162
0002d0 08 81 91 bb cc e1 ae bb 4c be 5d 3d 26 d3 3f bd
       -0.0044404306 -0.0053369757 0.05413656 -0.046832226
0002e0 9c 1c 11 3e f4 f3 f7 3d 00 33 c8 bc d5 91 26 3d
       0.1417107 0.12107077 -0.024438381 0.04066642
0002f0 d8 f9 eb 3c dc 96 09 3e 05 43 70 bd e7 45 f4 bd
       0.028805658 0.13436455 -0.058657665 -0.11927395
000300 fe e9 45 bd f0 80 e8 bd 72 6b 49 bd 66 71 64 bd
       -0.048318855 -0.11352718 -0.049174733 -0.055772208
000310 c5 d9 18 3d 79 a4 f2 3d 94 33 66 3d 6c a5 9d 3d
       0.037317056 0.11847777 0.056201532 0.07697567
000320 2b 37 c9 bd 58 88 84 bd 3b 7b ea bd a9 12 f0 3d
       -0.098249756 -0.06471318 -0.114492856 0.11722309
000330 60 7a 63 bd 63 72 c6 bd b4 7c d0 3c d1 a8 13 3e
       -0.055536628 -0.09689786 0.025450088 0.14419867
000340 2f b3 6f 3d 6d 6e 09 3e 50 43 c1 bd 76 98 33 3b
       0.058520492 0.1342103 -0.09436667 0.0027404106
000350 b4 74 90 bd b9 e2 dd 3d ec 17 d5 bd 31 a2 0a 3b
       -0.07053509 0.108342595 -0.10404953 0.0021153803
000360 0a a3 b1 bc a2 78 0f be da c0 0a be e2 55 86 bd
       -0.021684188 -0.14010862 -0.1355013 -0.065593496
000370 45 51 0d be e0 00 21 3d 55 a7 91 bd aa 86 84 3c
       -0.13800533 0.039307475 -0.07111994 0.016177494
000380 d6 a0 4d 3d 23 b0 cb bc 90 ff 9d 3d 92 86 bb 3d
       0.050202213 -0.024864262 0.0771476 0.091565266
000390 0a d4 fc bc 44 a9 d6 3c 1f df cd 3c 5f cb bf 3d
       -0.030862827 0.026203759 0.025130806 0.09364962
0003a0 af fc 90 3c 94 82 66 3d 51 ef af 3c 0e ff c0 3d
       0.017698614 0.056276873 0.02147642 0.09423648
0003b0 fa f4 0d 3e dd 92 08 be 18 1c 5a 3d b2 4f e6 3d
       0.13862982 -0.13337274 0.05324945 0.112456694
0003c0 6a 2a 05 bd 07 70 be bd c7 fc 82 bd 44 ed 0e be
       -0.032511152 -0.09298711 -0.0639587 -0.13957697
0003d0 45 0f bb 3d fa d3 09 be e8 01 a9 bd f2 71 5d bd
       0.09133772 -0.13459769 -0.08252317 -0.054063745
0003e0 18 17 ee 3d 9c de bd 3d e5 06 dc bd d0 95 05 3e
       0.116254985 0.09270975 -0.107435025 0.1304543
0003f0 fa e2 00 3e 78 3f fd bd 84 b2 c9 3d 61 88 4e 3d
       0.12586585 -0.12365621 0.09848502 0.05042303

fc2.bias f4 [96]
000000 57 40 0c 3e 38 ca 7b bd ed 4e d6 bd 7f 60 d0 3c
       0.13696419 -0.061472148 -0.10464273 0.025436638
000010 96 47 c3 bd 01 31 a2 bd 71 a6 0c be 0a f0 f4 bd
       -0.09535138 -0.07919503 -0.13735367 -0.11959846
000020 5a 63 19 bd 9d 19 d7 3c d1 9b 45 3c 81 8c 83 bd
       -0.037448265 0.02625733 0.012061075 -0.06423283
000030 0b 3c af 3d 24 62 c6 bd 96 a6 a8 bd 6d f0 72 3c
       0.08556374 -0.096866876 -0.08234899 0.01482783
000040 98 d3 ba bd 23 e3 4d 3d 27 15 a1 3d f5 2c a3 bd
       -0.091223896 0.050265443 0.078653626 -0.07967559
000050 1a cd af 3d 23 a8 af bd f8 b8 fb bd 52 e2 eb 3c
       0.08584042 -0.085769914 -0.12291139 0.028794441
000060 76 39 fe bd 73 dd 05 3e 9f 78 bc 3d 0f d3 ec 3d
       -0.124133036 0.13072757 0.09202694 0.11563694
000070 f3 20 13 be 4c 77 fa 3d aa ea 05 ba af b6 61 bd
       -0.14368038 0.12229785 -0.0005108515 -0.05510586
000080 33 ab 0b 3e 3e e2 bd 3b 19 1d 64 bd f8 aa 72 bc
       0.13639526 0.0057947924 -0.055691812 -0.01481127
000090 e5 6c 09 3e 9e b7 ea 3d f7 d2 e2 3b a4 12 f3 3c
       0.13420446 0.114608034 0.0069221216 0.029671974
0000a0 50 7e 04 3e d6 2f 2b bc 4e 2b d4 bd dc 70 d5 3d
       0.1293881 -0.010448417 -0.10359822 0.10421917
0000b0 ea e6 9a bb b9 69 6e bd f0 88 7b 3d 3a a4 02 3e
       -0.004727234 -0.058206294 0.06140989 0.1275796
0000c0 89 38 ad bd eb d0 75 bd 65 6b 52 3d 59 3b 07 bd
       -0.08458049 -0.060013693 0.05137195 -0.033015583
0000d0 70 77 de bd eb f7 5a 3d 88 95 12 3e cf ad 8b 3d
       -0.10862625 0.05345909 0.14314854 0.06820261
0000e0 1d bb 50 bd 80 2f a7 bd 26 2d 28 bd b8 9b 0a bd
       -0.050959695 -0.08163357 -0.041058682 -0.03383991
0000f0 75 b5 e5 3c a5 b9 11 3d e6 c5 a7 bd d0 0b 95 bd
       0.028040627 0.035577435 -0.08192043 -0.07277644
000100 cc cc 8e bd 14 f8 0c bc 95 df c6 bd 4e ca 5c 3c
       -0.06972656 -0.008604068 -0.09710614 0.013475968
000110 37 d2 0b be cf 73 ff 3d ec 2b 61 3d 17 d1 a8 bd
       -0.1365441 0.124732606 0.054973528 -0.08243006
000120 b4 38 9f 3d 40 8c c2 3d 82 c7 d8 3d 67 f0 82 bd
       0.07774487 0.09499407 0.10584928 -0.06393509
000130 43 d9 d6 3d e5 6f ef 3d 7b 41 ab bc 9a 02 c7 bc
       0.10490658 0.11691264 -0.020905247 -0.024293233
000140 ab be ad 3d 4b 97 45 3d 03 54 ec bd b1 96 be 3b
       0.08483633 0.048239987 -0.115394615 0.0058163037
000150 dc bc e6 bc e8 6a d9 3b bc d4 fa bc 1e a1 e4 bd
       -0.028166227 0.0066350587 -0.030619018 -0.11163543
000160 0b c1 b6 bd dd c3 fd bc 33 5d 49 bd 76 da cf 3a
       -0.08923539 -0.030977184 -0.049161147 0.0015857953
000170 a7 6d d8 bb 24 da 64 3d 7a e2 31 3d 77 7e da 3b
       -0.0066048685 0.055872098 0.043428876 0.006667908

fc3.weight f4 [24, 96]
000000 e0 a8 a7 3c 74 b6 86 3c d1 bb d7 bc d3 be c1 bd
       0.020466268 0.016444422 -0.026334675 -0.09460225
000010 e6 ac b8 bb 0e 93 31 3d 3f 5b 36 bd f3 5d 59 3d
       -0.0056358455 0.043353133 -0.044520613 0.053068113
000020 c2 23 9d bc 0d d4 9c 3b a8 89 5e 3d d1 fb 9a bd
       -0.01918209 0.0047860206 0.054330498 -0.075675614
000030 9d b7 a9 bc 79 bb fd bc ba 30 f7 bc 5f 71 b6 3d
       -0.020717436 -0.030973183 -0.030174602 0.089083426
000040 ad 7d 0e bd 16 2e ca 3c ca e3 55 3d f2 ad 95 bd
       -0.034787823 0.024680179 0.05221919 -0.07308568
000050 1c d0 98 3d b1 9f 43 3d c5 47 85 3d 4f 33 98 3d
       0.07461569 0.047759715 0.065078296 0.07431661
000060 f8 d6 de bb c4 03 fa bc 9c fa cb bd 41 f6 2d bd
       -0.0068005286 -0.030519374 -0.09959909 -0.042471174
000070 da 52 a0 3d 3f 54 c2 bd c2 a3 60 3d 8f bc 3c bd
       0.07828303 -0.09488725 0.05484367 -0.04607826
000080 43 17 8a bd 9b 74 5b 3d 1a c5 cb bc fd bc e0 36
       -0.06742718 0.053578 -0.024874259 6.6977213e-06
000090 9e 7f 00 bd 54 79 c0 3d fd 77 8b bd bf b4 a5 bc
       -0.031371705 0.093981415 -0.06809995 -0.020227788
0000a0 d5 45 19 bd 0d 3e 4c bd d2 de 66 bd 96 45 5c bd
       -0.037420113 -0.049863864 -0.05636484 -0.0537773
0000b0 b7 50 bd bd fa f7 99 3d e6 9a e6 bc 45 d8 bd 3d
       -0.09243911 0.07518001 -0.028150033 0.09269766
0000c0 bc ab 6e 3d 10 6f 75 3d 66 7c 2f 3c 92 24 37 bd
       0.058269247 0.05992037 0.010710811 -0.04471261
0000d0 da e5 8e 3d b8 f8 8b 3c 88 a4 a6 3c 0e ca 4f bd
       0.069774345 0.017086372 0.020342126 -0.050729804
0000e0 db 71 1f bd bb 55 0f bd f6 e1 0c 3d 56 f9 8c 3d
       -0.03892694 -0.03499387 0.03439518 0.068834946
0000f0 93 76 59 bd c8 1c 5e 3c 4d c9 c9 3c cd 4f 04 bd
       -0.053091597 0.013556667 0.02463212 -0.032302666
000100 2b 61 8a bd da 74 9f 3d cc 85 6d bc af 14 bf 3d
       -0.067568146 0.077859595 -0.014497232 0.09330117
000110 31 c6 a3 bd 05 c2 88 3d bf 21 bd 3d 71 10 be 3d
       -0.079967864 0.06677631 0.09234952 0.0928048
000120 83 9d 05 3d e4 36 b9 bd e3 61 44 bd 27 42 c0 3d
       0.032620918 -0.09043673 -0.047944915 0.093876176
000130 e3 5d 7a bc 8f d9 32 3d 2b 11 61 3c 9f 3b 87 3d
       -0.015281173 0.04366451 0.013737003 0.06603169
000140 df 8b bc bd 23 21 a5 bd d0 b5 ed ba b8 2c 9e bc
       -0.09206366 -0.08062961 -0.0018135849 -0.019308433
000150 f0 30 04 3b d6 5e 93 bd 67 1d f0 3c a1 45 49 bd
       0.002017077 -0.07195823 0.029310895 -0.04913867
000160 15 3b 25 3d ce 03 b0 bd f9 6f a9 bd e7 e1 ef 3c
       0.04033955 -0.08594476 -0.0827331 0.029282523
000170 17 b8 13 bd 38 fb 2f 3d 49 0c 2c bb 69 7f be bc
       -0.036064234 0.04296419 -0.002625244 -0.023254113
000180 8a b3 19 3d 4b 24 cc bc d1 77 6c 3d 6b 96 a3 bd
       0.037524737 -0.02491965 0.057731453 -0.07987674
000190 44 0e c8 3d 95 1f ca 3d 37 3a 87 3c 37 69 ca 3c
       0.09768346 0.09869305 0.016507251 0.024708373
0001a0 09 da 16 bd 0e a6 91 bd 3e 7f b8 3c ee df aa 3d
       -0.03682903 -0.071117505 0.022521611 0.083434924
0001b0 3b f0 af 3d 35 4e 95 3c f6 0c b2 bd 9a 62 53 3c
       0.08590742 0.018225769 -0.08693878 0.012901926
0001c0 83 0d 96 3d 0a 81 ca 3d e9 2a bc 3d 20 47 bd 3c
       0.07326796 0.098878935 0.09187872 0.023105204
0001d0 ea 93 8e bd 9f 93 71 3d d3 dd 63 3d 28 0f 41 3d
       -0.06961806 0.058978673 0.05563147 0.047133595
0001e0 bf ce 1c 3d 0e d7 44 bd 6d 3f 5d bd 00 07 20 bd
       0.038283106 -0.048056655 -0.054015566 -0.039069176
0001f0 12 b4 c1 3d 03 81 71 bd 88 82 3b bd 01 fb c7 bc
       0.09458174 -0.058960926 -0.04577878 -0.02441168
000200 88 c8 9c 3d e8 3f a2 3d a7 20 65 3d c7 65 ce 3d
       0.07655436 0.079223454 0.055939343 0.10078006
000210 82 a0 7a 3d b7 74 af 3d e0 4d 49 3b ac 37 8f 3d
       0.06118823 0.085671835 0.0030716583 0.069930404
000220 d8 e7 b7 bd 82 2a c8 bb 87 3c 3e 3d bf c9 94 bd
       -0.089797676 -0.006108583 0.046444442 -0.072650425
000230 27 e4 45 bd 26 d4 a2 3d 2e 2c 5c 3d 6e 6f 93 3d
       -0.048313286 0.0795062 0.05375307 0.07198988
000240 67 44 8b bb 62 75 3a 3d 31 c9 7a bd 64 ab 9b 3d
       -0.0042500976 0.0455221 -0.061227027 0.076010495
000250 2d 83 9d 3d f7 19 59 3d a1 9b 5c 3d 9d 04 91 3d
       0.076910354 0.053003278 0.053859357 0.07080958
000260 da e2 0f bb e4 d4 85 bd e1 8a cf bd ca 58 a9 bd
       -0.0021955282 -0.06534746 -0.10133911 -0.08268888
000270 12 91 ac bd 03 76 a4 bd e6 20 b1 bd df fd 5b 3d
       -0.084261075 -0.080303214 -0.08648853 0.053708907
000280 c7 ab fa 3c 80 69 72 bd db ab 5c 3d d0 b4 60 3d
       0.030599488 -0.059182644 0.05387483 0.054859936
000290 ca df a7 3d b7 4f 35 bd 95 af 38 bd a6 28 bf bc
       0.08196981 -0.044265475 -0.045089323 -0.023334812
0002a0 c2 62 e9 bc b3 41 84 bc d8 5c b7 3a 83 87 97 3d
       -0.028489474 -0.01614461 0.0013989462 0.07398894
0002b0 96 94 27 3c 18 de 38 bb 19 da 3f bc 96 ae 24 bc
       0.010228297 -0.002820855 -0.011709713 -0.01005139
0002c0 f3 5d a2 bd 60 e0 b9 bd 39 ca 5c 3d 31 fc 34 3d
       -0.07928076 -0.09075999 0.053903792 0.04418582
0002d0 9f 0b a3 bd 31 39 82 bd 9f 61 b8 bd 6e e4 a9 b9
       -0.07961201 -0.06358565 -0.09002995 -0.00032404385
0002e0 51 3b ad bc 4b 37 51 bd 20 af 82 3d f8 a5 c7 3d
       -0.021146448 -0.051078122 0.06381059 0.09748453
0002f0 31 60 2a 3d 6d 6e 1c bd 61 51 3e bc d1 da a3 bd
       0.04159564 -0.038191248 -0.011616082 -0.0800072
000300 d8 53 0f bd 7b c6 6c bd 7a 2c 5f bd 8e 3d 5b bd
       -0.03499207 -0.057806473 -0.054485776 -0.0535255
000310 eb a5 35 3d 24 7f 6e 3d 4b 58 aa bc c2 73 bc 3d
       0.044347685 0.05822672 -0.020794054 0.092017666
000320 32 68 56 3d cc 48 ca bd fe 78 aa bd 9c 75 7c bb
       0.052345462 -0.09877166 -0.08323859 -0.003852225
000330 40 bf b1 3b 1a d2 1b bd c1 6d bb bd 25 de 92 bc
       0.00542441 -0.038042165 -0.09151793 -0.017928192
000340 04 38 a3 3d 18 89 6a bd ea 14 d5 bc e7 49 41 bd
       0.079696685 -0.05725965 -0.02601095 -0.04718962
000350 3a 4b a0 3d 48 95 ad bd 8c ca bd 3d 10 71 7c 3d
       0.07826848 -0.08475739 0.092671484 0.061631262
000360 c4 3a 38 3d d2 de 1c bd 2a ac be 3d fd 27 2c bd
       0.04497792 -0.038298436 0.093101814 -0.042030323
000370 ff fb 36 bd d2 79 21 3d 65 f1 c9 bd 19 7c 0e bd
       -0.044673916 0.039422818 -0.098604955 -0.034786317
000380 32 0d c0 bd 7f 94 38 3d 73 08 87 bd 19 b1 db 3c
       -0.09377517 0.045063492 -0.065934084 0.026817845
000390 1d 49 ba bd 03 30 ac 3d 68 5d 3d bd 3a e2 07 3d
       -0.090959765 0.08407595 -0.046231657 0.03317473
0003a0 07 36 6f 3c 8b c1 9b 3d 16 aa eb 3c 29 dd 88 3c
       0.0146002835 0.07605275 0.028767627 0.01670702
0003b0 2a 33 09 bd a3 ae 96 3d 03 ff dc bc a6 04 27 3d
       -0.03349606 0.07357528 -0.026977068 0.040775917
0003c0 86 17 0a bd 80 76 ac bd f6 7f 97 bd eb 57 ab bd
       -0.03371384 -0.084210396 -0.073974535 -0.083663784
0003d0 90 09 cd 3c 35 0a c7 bd 9e ee c6 bd 6c 3c 3c 3d
       0.025028974 -0.09718744 -0.09713481 0.04595606
0003e0 05 a0 5e 3c 9d 0c 9e 3d 7a 12 5d bc 52 0a 61 3d
       0.013587956 0.077172495 -0.013493175 0.054941483
0003f0 88 f0 d7 bc cc 0e b0 3d bb 74 05 3d 8b ca 8d bd
       -0.026359811 0.08596572 0.032582026 -0.06923398

fc3.bias f4 [24]
000000 92 e2 45 bc 19 30 cb 3d e7 39 d0 3c 71 8d 8b 3d
       -0.012077944 0.09921283 0.025418235 0.06814087
000010 d0 6d 66 bd cd e5 17 3d 94 89 1a 3d 54 67 9c bd
       -0.05625707 0.03708439 0.03772886 -0.07636896
000020 2e c5 5f 3c 77 08 9d bd 7d 3e 6d bd 10 a0 78 bd
       0.013657851 -0.0766763 -0.05792092 -0.060699522
000030 64 c8 8b 3d 16 39 89 bd d4 76 3f bd 6f 3f 1e 3d
       0.06825331 -0.067003414 -0.046744183 0.038634714
000040 0c 86 a3 3c 47 ba 16 3d f9 e1 6e 3c 12 c3 62 3d
       0.01996138 0.03679874 0.014580243 0.055361815
000050 63 76 4d bc e4 86 22 bd ea d3 31 bd 1f a4 c1 bd
       -0.012540433 -0.039679423 -0.043414988 -0.09455132

fc4.weight f4 [2, 24]
000000 59 7d 13 bd 09 41 0d be 7d 26 ff 3d c7 0d 45 be
       -0.036008213 -0.1379434 0.12458513 -0.19243537
000010 7f aa 3e be 1e 17 09 be 85 5a 06 3e 12 6a af bd
       -0.18619727 -0.13387725 0.13120468 -0.08565153
000020 74 6e 1b be e0 b2 e4 3d 97 98 4f 3d 64 90 06 be
       -0.15178853 0.1116693 0.05068263 -0.13141018
000030 c9 74 12 3e 7a 43 30 3d 33 82 3b be 66 47 a2 bd
       0.14302363 0.0430331 -0.18311386 -0.079237744
000040 e7 71 b5 3c 73 a0 29 be a0 1b 3d bd 63 13 fd bd
       0.02214904 -0.16565113 -0.046168923 -0.12357213
000050 25 b8 34 be 8a 59 96 bc 4f 1f f3 3c 28 4e 17 3e
       -0.1764837 -0.018353242 0.029678015 0.14775908
000060 c2 44 f4 3d 08 40 b9 bd d6 84 18 3e 3d d3 dd bb
       0.11927177 -0.09045416 0.14894423 -0.0067695663
000070 3e 68 20 3e f9 f9 95 bd c6 86 33 3e ff 21 09 bb
       0.15664765 -0.07323069 0.1753188 -0.0020924804
000080 e6 6f 02 3e 7c 49 25 be fd 1f 3a 3e 6c dd 8c 3d
       0.12737998 -0.16141313 0.18176265 0.0687817
000090 29 0b 32 3e 93 6d 41 be 32 15 14 3e ba dc e4 bd
       0.1738707 -0.18889455 0.1446121 -0.11174913
0000a0 0c 02 5e 3d eb e0 6f bd 1b 5d 1b 3e ac d9 80 bd
       0.05420117 -0.058564108 0.15172236 -0.062915176
0000b0 97 12 13 3e 56 1f 5f 3d 04 6e 3c 3e 5b d9 89 3b
       0.1436256 0.054473244 0.18401343 0.004206819

fc4.bias f4 [2]
000000 47 d5 05 bd 6b b4 c6 bd
       -0.0326741 -0.09702381

fc5.weight f4 [1, 2]
000000 20 bc 92 3e 16 51 e6 3d
       0.28659153 0.11245935
