T3-2024/Federated_Learning/Improved_FL/SRC/meta_parameters/client9.pth (torch, 34104 bytes, 9 tensors)

fc1.weight f4 [48, 12]
00000000: 4a65 263e 6c1f 863b f929 54be 15d5 08be
00000010: 3047 023e f6f6 733e 3854 103d 705e 0f3e
00000020: 2d69 8dbe 2d11 233e 731c 8c3e bada dbbd
00000030: f317 543e b1c4 93be 25a4 103e 7a22 cbbb
00000040: 3c87 4b3e 8dca 60be 767c e8bd 3e67 fdbd
00000050: 348c 8f3e 04d3 be3d 2411 7dbd 0286 8dbe
00000060: 6dc4 30be 710f d0bd ab80 fcbd cdef bcbd
00000070: 8b05 3b3e f28c fdbc 3755 253e c0a7 893e
00000080: a167 fd3d e061 cf3d 2645 263d 01d9 1cbe
00000090: ba7b 62be 8c0b 72be c968 f1bd 4ea1 813e
000000a0: 7544 91be 3ae9 173e 694e d83d 2e18 85be
000000b0: 8470 e8bd ba53 3fbe 2a3b 91be b92b 27be
000000c0: 0f2e 04be 7c56 653d 2a57 bdbd 502f c83d
000000d0: fbf0 3b3e 0a83 343e a4e7 133e d0a9 19be
000000e0: 2631 6fbd 00b1 053e 1032 aa3d dd29 2ebe
000000f0: e44d 323e 77c8 0f3e a7f6 4fbe b09c b4bc
00000100: 7c14 c5bd 813c 553e 397d 3cbe be35 183e
00000110: 281b 3a3e 96a1 283e 1392 85bc 47fa b03d
00000120: 4f79 eb3d bea3 243e 7fe8 3fbe 029f dbbd
00000130: 780e 35bd 14ab 933c 0291 b1bd 36b9 b5bd
00000140: ecde 7cbd c0ad 04be 10e3 a43c 0d32 35be
00000150: 346e 8e3e aa09 be3d 5e6a e83d 3af9 94bd
00000160: ee92 803c e84e 75be 600a a1bd 46e2 a9bd
00000170: 2a58 983d 0bfc 85be d6f7 753e 6bfe 17be
00000180: fab0 2c3e 1e6a 1b3d f4df 5cbe 64a9 843e
00000190: f943 e73d af91 9e3d d9c9 1fbd d007 163d
000001a0: 8595 ab3d 3e55 8d3e 6077 40be 2d11 da3d
000001b0: dd7d 4b3e 00c3 283d c5c8 923e 8ba1 923e
000001c0: ab1d 433d d90f 06bd b02c 903e 387f 253e
000001d0: ad2b 8ebc 86e3 b1bd 4431 eb3d a0c2 813e
000001e0: 4903 923e 3649 4dbe 90ac 843d 5058 003e
000001f0: 6b36 33bd d089 74be df4b 403e e5ea 56bd
00000200: 490d 8fbe a1d2 5abe c30f 9a3d 71eb b73d
00000210: 1470 53be 2e61 63be 3e69 543e 28b7 793d
00000220: ac60 4bbe a19d 5b3c 272e 82be a7c5 01be
00000230: dc4f 35bd a82c 883a 2f04 65be 7aef 283e
00000240: 2b56 883e 3a15 1f3e e3fb 003e bcf3 c43d
00000250: f849 7fbd 2edd 48be 68be 403c 78ef 813e
00000260: 302f 0a3d d625 5d3d 3bbe 2abe 14e5 8b3d
00000270: f064 903d a752 843e a83e a5b8 3742 0b3e
00000280: cc5e 8a3e a6fe 76be 61f7 5a3e ba20 25be
00000290: 398b 5a3d 4b5b c83d b34c a53d 8c1d 8ebe
000002a0: 6831 84be f736 4b3c 2456 5fbe abe2 683c
000002b0: 910e 20bc bc65 343e 73e8 cb3d ce02 933e
000002c0: a789 a1bd 4dd4 6bbe 85a1 05be 46d3 cb3d
000002d0: 11a3 653e 71d0 8e3e 4da6 223e f768 a63d
000002e0: 6611 863e 2e26 0f3e 02d3 6b3c 10ed 3a3e
000002f0: 60c9 32be 17ca 5c3e d907 bfbd bb70 f33d
00000300: 6378 b7bb 6f42 4abe 3c90 ac3d 4665 603b
00000310: 7492 693e f6b4 903e b3b4 213e f5a3 253e
00000320: bb50 c0bd 6933 90be 0c63 61be ecd5 b0bd
00000330: 2d97 2bbe 3372 db3d be68 4cbe 9d2a 0a3e
00000340: 63cd 64be db3b 41be 0d9a a3bd 7d57 30be
00000350: d3ca 30bd c929 d13d c640 aabd 2cd4 63be
00000360: 61d9 d93c 73ca 76be ef3e 2a3e 850a 123d
00000370: 3b7f 1ebc 43b3 3c3d 36a6 933e c396 62be
00000380: cff4 d3bd 03a7 893e 8b4d 15bd e046 35bd
00000390: 6804 873d 1ba6 28be 794e 4cbe 2cda 87be
000003a0: 9762 8f3d 9f10 28be ca00 7d3e f346 54be
000003b0: f61d 8c3d eeb7 e13d e75b 543e 96d3 903d
000003c0: eb3c 22be fe94 bdbd ef7e 893e bd8f 22bd
000003d0: 29c2 7bbe 1735 26bd b2c2 71be df07 c4bd
000003e0: 53c5 e33c 3565 5b3d 9834 8dbe cd7c 58be
000003f0: 3041 7a3d 06f9 e8bd c113 47be 64b0 433e
0.16249576 0.0040931012 -0.20719136 -0.13362534 0.12722468 0.23824677 0.035236567 0.14000869
-0.27619305 0.15924521 0.27365455 -0.10735078 0.20712261 -0.28861 0.14125116 -0.0061991783
0.19875807 -0.21952267 -0.11351864 -0.123732075 0.28036654 0.09317592 -0.061783925 -0.27641302
-0.1726243 -0.10159195 -0.12329229 -0.09225426 0.18263833 -0.030950997 0.16145788 0.26885796
0.12373281 0.1012609 0.04059329 -0.15317155 -0.2211751 -0.23637217 -0.11787564 0.25318378
-0.2837254 0.14835063 0.105618306 -0.2599501 -0.11349586 -0.18684283 -0.2836545 -0.16325273
-0.12908195 0.05599068 -0.09245141 0.09774649 0.18353646 0.17628112 0.14443833 -0.15006185
-0.05839648 0.13055801 0.0831033 -0.17008157 0.17412525 0.14041315 -0.20308934 -0.02204737
-0.09623048 0.20823862 -0.18407144 0.14864251 0.18174422 0.1646789 -0.016305005 0.086414866
0.11497747 0.16078088 -0.18741034 -0.10723688 -0.04420325 0.018025912 -0.08670236 -0.08873217
-0.061736032 -0.12956905 0.020127803 -0.17694874 0.27818453 0.09279187 0.11348413 -0.07274099
0.015695062 -0.23955882 -0.07863307 -0.08295111 0.07438691 -0.26168856 0.24020323 -0.14843147
0.16864386 0.037942998 -0.21569806 0.25910485 0.11292262 0.07742631 -0.039010856 0.036628544
0.08378128 0.27604097 -0.18795538 0.10647807 0.19872232 0.04120159 0.286688 0.28638873
0.047635715 -0.032729957 0.28159094 0.16161811 -0.01735481 -0.08685975 0.11484006 0.253438
0.2851813 -0.20047459 0.06478226 0.12533689 -0.04375307 -0.23880696 0.18778943 -0.052470107
-0.27939823 -0.21369411 0.075225376 0.08980454 -0.20648223 -0.2220504 0.20743272 0.060965687
-0.19861096 0.013404281 -0.25425836 -0.12673055 -0.044265613 0.0010389285 -0.22364877 0.16497603
0.2662824 0.15535441 0.12596087 0.09616801 -0.0623264 -0.19615623 0.011764146 0.25378013
0.033736408 0.05399116 -0.1667413 0.068308026 0.07050502 0.2584431 -7.879484e-05 0.13599478
0.2702545 -0.24120578 0.2138343 -0.16125765 0.05335543 0.09783038 0.0807127 -0.27756917
-0.25818944 0.012403241 -0.21810204 0.014214198 -0.009769098 0.17616934 0.099564455 0.28713077
-0.07887583 -0.23030205 -0.13049896 0.099524066 0.22425486 0.27893403 0.15883751 0.08125489
0.2618515 0.13979408 0.01439357 0.18254495 -0.17459631 0.21561466 -0.09327669 0.11886736
-0.005599068 -0.19751905 0.08425948 0.0034240051 0.22809774 0.28263062 0.15791588 0.16175826
-0.09390398 -0.28164223 -0.2201044 -0.08634552 -0.16756888 0.10715141 -0.19961831 0.13492818
-0.22343974 -0.1887049 -0.07988367 -0.17220874 -0.04316218 0.10213048 -0.08313136 -0.22248906
0.026592912 -0.24100666 0.1662557 0.035654563 -0.009673889 0.046069395 0.28837746 -0.22127824
-0.10349428 0.26885232 -0.036450904 -0.044257045 0.06592637 -0.16469614 -0.1995181 -0.2653364
0.070012264 -0.1641259 0.24707332 -0.2073019 0.06841652 0.1102141 0.20738183 0.07071607
-0.15843551 -0.09256934 0.26854655 -0.03968786 -0.24585785 -0.040577974 -0.23609427 -0.09571814
0.027804052 0.053563315 -0.27579188 -0.21141358 0.061097324 -0.113756225 -0.1944113 0.19110256

fc1.bias f4 [48]
00000000: 48bb 4cbe 9bcd cfbd 9bcb 80be 55ee 8e3e
00000010: 5388 073e 6a77 53be cc72 40be abc3 8fbe
00000020: 5b6d a53c 4ba7 27bd 1347 093e 4509 313e
00000030: edee 1d3e c91e 5cbe 1c84 92be 9064 28be
00000040: 1394 92be 64d6 7d3e 4617 1a3e 1509 e93d
00000050: ddfc 413e 58fc bbbd 0e72 b73d 9206 b73d
00000060: a68a 1b3e a3e7 2a3e 6f44 773e bbf5 8ebd
00000070: 5917 80be 1d1b 793e 55e6 a03d c726 41be
00000080: 2afe 5bbe 459c f23d 93eb 17be 647c ecbd
00000090: 9662 243e 3b81 213e 9c99 87be 01b2 e8bd
000000a0: fe5e 293e 78ef 04be 2f1f eb3d c63e 42be
000000b0: 9ab2 4dbe 5721 c83d b6d8 b7bc 89ff e2bd
-0.19993317 -0.10146638 -0.2515534 0.27916208 0.13235597 -0.20651022 -0.18793792 -0.2807897
0.020193746 -0.040931027 0.13406019 0.17288692 0.15423174 -0.21496119 -0.28616416 -0.16444612
-0.28628597 0.24788815 0.1504794 0.113786854 0.18944116 -0.0917899 0.08957301 0.089368
0.15189609 0.16689925 0.24147199 -0.06980463 -0.25017813 0.24326749 0.07856432 -0.18862449
-0.21483675 0.11846212 -0.14835958 -0.11547163 0.16053233 0.15771954 -0.26484382 -0.113620766
0.16540143 -0.12981975 0.11480557 -0.18969259 -0.20087662 0.09771984 -0.022442203 -0.11083896

fc2.weight f4 [96, 48]
00000000: 4dbf d3bd 79f0 d03d 7177 d13c b874 ee3d
00000010: c4f5 cc3d 9f52 54bb a963 8f3d d43d da3d
00000020: d71f 033d c044 3bbd f128 053e ffae ed3d
00000030: 45ca 8e38 9442 f03c da2a 963c 9360 73bd
00000040: 9815 20bd b98e c8bd 2c10 71bd da5c 253d
00000050: 9bf1 bcbd 630b 453d a90e 06be 3fdf c8bd
00000060: 8ab1 0fbe 52ad e3bd d8cb 8ebd 1832 efbc
00000070: 2cd3 ea3d e56a 0d3e c3a6 b33d 159b b4bd
00000080: 7a8f 833d 2f6f ee3d 8f26 52bc 535c 5c3d
00000090: 8b2c babc db10 b33d 0503 a0bd 7ec4 9ebd
000000a0: e1cc 8a3d 38f2 16bc 7582 d0bd abcc bdbd
000000b0: 38e8 063e 2e50 1f3d 38a6 ae3d ff14 043e
000000c0: d648 0dbe 7ad5 c8ba 70a9 333d a9e4 11be
000000d0: e64f 453d 0ccd e0bd dc0d 593d 4c52 aebb
000000e0: b296 dc3d 407c 9b3d 2935 c63d c3ba 9a3d
000000f0: fd02 a83b ee02 b5bc fd9b d43d 0bd4 113c
00000100: 54de ef3d 381a b0bd 80d6 3fbd 7ffe 07be
00000110: c39d 3e3d 3919 12be 06e7 da3d 7ab8 1fbd
00000120: a841 73bd f642 da3d aef6 f0bd f813 4ebd
00000130: 40f1 0a3e 342d 38bd 8914 e0bd b0c8 e53d
00000140: 3442 13be 3cf1 80bd 53d2 9d3b 2d35 313d
00000150: b965 9bbd 7d3b 883d 01d6 b03b e884 c9bd
00000160: 3ace 9fbd 1b2b a43d 3364 243d a635 00be
00000170: 3c4f f6bd 409f e0bc 526b ccbd 82b8 d43d
00000180: d2c0 f4bd 63f7 05be d65f 26bd d679 96bd
00000190: d90b ab3c fe6e 3abd fa25 65ba 50ca 06be
000001a0: 7308 7e3d fd79 d93c f779 36bd 1b4e a53d
000001b0: 24ad 9fbd 9463 d03d 21f6 3e3d 9d33 a2bd
000001c0: 4dba aa3c 9290 3e3d e22f 2fbd 2c5b 073e
000001d0: 509d 0dbe ac16 ff3d 4cb6 0e3e f647 e53a
000001e0: 9d69 83bd 0121 fdbd b98b d4bc bc7d b13d
000001f0: 70e9 53bd 001f 753c 1c35 573d 3608 e83d
00000200: 94a1 d83d 5fe1 c33d 1021 d7bb e797 223c
00000210: 3cc4 08be 9683 a03d 6559 80bb 3aaa c0bd
00000220: 0e3f 433c 4d69 5bbd 4446 8e3d d496 92bd
00000230: 801a da3d 0a72 b13d 4d43 073d a60c c43d
00000240: 0b44 51bd 6941 03be 86ff e93c 41b9 fabd
00000250: 3004 14bd 59c5 d73d e0cb 203d 2c1e ecbc
00000260: 4736 10be e98f 313c e0a2 893d ff56 0dbd
00000270: 5052 b1bd d292 4dbc 5537 b3bc 923a 483c
00000280: 2127 d03c b78c 75bd c7b5 e63c 6bd5 223d
00000290: b595 223d b539 0ebe d443 02be ba42 083e
000002a0: f471 e3bd 893d a5bd e322 7e3c 21aa 69bd
000002b0: 6e22 113e fb1d ffbd e9d4 92bd d5a5 f63d
000002c0: 811c 073e 5cbf c9bc 53b9 f2bd 4de9 823d
000002d0: 7487 91bb ebe1 aebb 4cbe 5d3d 26d3 3fbd
000002e0: 931c 113e e4f3 f73d f932 c8bc d591 263d
000002f0: d8f9 eb3c dc96 093e 2a43 70bd e945 f4bd
00000300: f8e9 45bd f080 e8bd 726b 49bd 6771 64bd
00000310: bcd9 183d 7ba4 f23d 9433 663d 6ca5 9d3d
00000320: 2437 c9bd 5388 84bd 3a7b eabd a912 f03d
00000330: 497a 63bd 6472 c6bd b47c d03c d4a8 133e
00000340: 2fb3 6f3d 6d6e 093e 4c43 c1bd cd99 333b
00000350: b474 90bd bfe2 dd3d e717 d5bd 2da2 0a3b
00000360: faa2 b1bc a278 0fbe dcc0 0abe e255 86bd
00000370: 4551 0dbe da00 213d 56a7 91bd a786 843c
00000380: d0a0 4d3d 18b0 cbbc 90ff 9d3d 9486 bb3d
00000390: 0cd4 fcbc 44a9 d63c 1fdf cd3c 5fcb bf3d
000003a0: a6fc 903c 9582 663d 51ef af3c 0eff c03d
000003b0: faf4 0d3e dd92 08be 231c 5a3d af4f e63d
000003c0: 622a 05bd 0970 bebd c8fc 82bd 46ed 0ebe
000003d0: 6f0f bb3d ffd3 09be e801 a9bd f471 5dbd
000003e0: 0a17 ee3d a2de bd3d e306 dcbd d195 053e
000003f0: eae2 003e 883f fdbd 84b2 c93d 2488 4e3d
-0.10339222 0.102021165 0.02556965 0.11643356 0.100078136 -0.0032397879 0.070014305 0.10656324
0.032012787 -0.045719862 0.13003899 0.116056435 6.808763e-05 0.029328622 0.01833098 -0.059418272
-0.039083093 -0.09792847 -0.058853313 0.040371753 -0.0922577 0.048106562 -0.1309153 -0.09808206
-0.1403257 -0.111170426 -0.06972474 -0.029198691 0.11466059 0.13810308 0.08772042 -0.08818642
0.0642385 0.116423 -0.012826576 0.053798985 -0.022726318 0.08743449 -0.07813076 -0.07752322
0.06777359 -0.009213023 -0.10181133 -0.09267553 0.13174522 0.038894825 0.085277975 0.12898634
-0.13797316 -0.001532241 0.04386276 -0.14247383 0.0481719 -0.109766096 0.052991733 -0.005319869
0.1077093 0.07592058 0.09678108 0.07555153 0.0051273094 -0.022096124 0.10381315 0.008900653
0.117123276 -0.08598751 -0.046835423 -0.13280676 0.046537172 -0.14267434 0.106885955 -0.03899429
-0.059388787 0.10657303 -0.117658004 -0.050312012 0.13568592 -0.044964984 -0.10941417 0.11219919
-0.14380723 -0.06296012 0.0048163324 0.043263603 -0.075877614 0.066519715 0.005396605 -0.09839803
-0.078030065 0.08016034 0.04013462 -0.12520465 -0.120268315 -0.027419686 -0.09981407 0.103867546
-0.1195084 -0.13082652 -0.04061874 -0.07347457 0.020879673 -0.045516007 -0.00087413157 -0.13163114
0.062019777 0.026547426 -0.04454991 0.08071538 -0.07796696 0.10175243 0.046621446 -0.07920001
0.020840788 0.04652459 -0.042770274 0.13218373 -0.13829541 0.12455496 0.13936728 0.001749276
-0.064166285 -0.123598106 -0.025945531 0.0866656 -0.051736295 0.014961004 0.052540883 0.11329691
0.105776936 0.095644705 -0.0065652207 0.009923912 -0.13356107 0.07837598 -0.0039169067 -0.09407468
0.011916889 -0.05356722 0.06946996 -0.071576744 0.10649586 0.08664329 0.033023167 0.09572725
-0.05109028 -0.1281792 0.028564226 -0.12242366 -0.036136806 0.10535688 0.03925693 -0.02882298
-0.14083205 0.0108375335 0.06720519 -0.034506794 -0.08658278 -0.012547212 -0.02187697 0.0122209955
0.025409283 -0.05994865 0.02816285 0.039754312 0.039693553 -0.13889201 -0.12721187 0.13306704
-0.11105719 -0.080683775 0.015511247 -0.057047013 0.1417329 -0.1245689 -0.07169516 0.12043349
0.13194467 -0.02462738 -0.11851754 0.06392155 -0.004441196 -0.00533699 0.05413656 -0.046832226
0.14171056 0.12107065 -0.024438368 0.04066642 0.028805658 0.13436455 -0.058657803 -0.11927397
-0.048318833 -0.11352718 -0.049174733 -0.05577221 0.037317023 0.118477784 0.056201532 0.07697567
-0.0982497 -0.06471314 -0.11449285 0.11722309 -0.055536542 -0.09689787 0.025450088 0.14419872
0.058520492 0.1342103 -0.09436664 0.0027404905 -0.07053509 0.10834264 -0.1040495 0.0021153793
-0.021684159 -0.14010862 -0.13550133 -0.065593496 -0.13800533 0.039307453 -0.07111995 0.016177488
0.05020219 -0.024864241 0.0771476 0.09156528 -0.03086283 0.026203759 0.025130806 0.09364962
0.017698597 0.056276876 0.02147642 0.09423648 0.13862982 -0.13337274 0.05324949 0.11245667
-0.032511123 -0.09298713 -0.063958704 -0.139577 0.09133803 -0.13459776 -0.08252317 -0.054063752
0.11625488 0.092709795 -0.10743501 0.13045432 0.12586561 -0.12365633 0.09848502 0.050422803

fc2.bias f4 [96]
00000000: ae40 0c3e 1fca 7bbd 124f d6bd bc5f d03c
00000010: 9b47 c3bd 0831 a2bd 68a6 0cbe 80f0 f4bd
00000020: 2e63 19bd cd1a d73c cb9b 453c 5d8c 83bd
00000030: 143c af3d e461 c6bd afa6 a8bd 74f0 723c
00000040: c5d3 babd 78e2 4d3d 3d15 a13d 0f2d a3bd
00000050: 45cd af3d e4a8 afbd bcb8 fbbd 15e3 eb3c
00000060: 7439 febd 58dd 053e 7378 bc3d 3ad3 ec3d
00000070: f920 13be 1177 fa3d 25ef 05ba 8db6 61bd
00000080: 23ab 0b3e afe0 bd3b 8f1d 64bd 0dac 72bc
00000090: eb6c 093e b0b7 ea3d 39d5 e23b b714 f33c
000000a0: 6b7e 043e 6a2f 2bbc 392b d4bd 2071 d53d
000000b0: 06e6 9abb df68 6ebd ce88 7b3d 45a4 023e
000000c0: 9038 adbd ffd0 75bd c86b 523d 803b 07bd
000000d0: cd76 debd a3f8 5a3d 9e95 123e f3ad 8b3d
000000e0: b3ba 50bd 8d2f a7bd b82d 28bd f09a 0abd
000000f0: f3b4 e53c 27b8 113d d0c5 a7bd c10b 95bd
00000100: ddcc 8ebd b3f8 0cbc a7df c6bd 91ca 5c3c
00000110: 16d2 0bbe 8973 ff3d 8b2b 613d 52d1 a8bd
00000120: 0b39 9f3d cc8c c23d 00c8 d83d 2cf0 82bd
00000130: bdd9 d63d 2770 ef3d c740 abbc af02 c7bc
00000140: c4be ad3d 5897 453d 2554 ecbd dd8f be3b
00000150: 6ebc e6bc 7d6b d93b 70d7 fabc 0ea1 e4bd
00000160: f1c0 b6bd 54c5 fdbc ea5c 49bd b0e8 cf3a
00000170: 4266 d8bb 0bd9 643d a1e2 313d 087b da3b
0.13696548 -0.061472055 -0.104643 0.025436275 -0.09535142 -0.07919508 -0.13735354 -0.11959934
-0.0374481 0.026257897 0.01206107 -0.064232565 0.08556381 -0.0968664 -0.08234917 0.014827836
-0.09122423 0.050264806 0.07865379 -0.079675786 0.08584074 -0.08577135 -0.12291095 0.028794805
-0.12413302 0.13072717 0.09202661 0.11563726 -0.14368047 0.12229741 -0.00051091827 -0.055105735
0.13639502 0.0057946066 -0.05569225 -0.014811528 0.13420455 0.11460817 0.006922391 0.029672964
0.1293885 -0.010448316 -0.103598066 0.104219675 -0.004727128 -0.05820548 0.061409764 0.12757976
-0.08458054 -0.060013767 0.05137232 -0.033015728 -0.10862503 0.053459775 0.14314887 0.068202876
-0.0509593 -0.081633665 -0.041059226 -0.033839166 0.028040385 0.035576012 -0.081920266 -0.072776325
-0.06972668 -0.008604216 -0.09710627 0.01347603 -0.1365436 0.124732085 0.054973166 -0.0824305
0.07774552 0.09499511 0.10585022 -0.063934654 0.10490749 0.11691313 -0.020904912 -0.024293272
0.08483651 0.048240036 -0.11539487 0.0058154897 -0.028166022 0.006635128 -0.030620307 -0.11163531
-0.089235194 -0.030977882 -0.049160875 0.0015862193 -0.006603987 0.05587105 0.04342902 0.0066674985

fc3.weight f4 [24, 96]
00000000: e6a8 a73c 76b6 863c c9bb d7bc d7be c1bd
00000010: f5ac b8bb 1393 313d 425b 36bd f25d 593d
00000020: bc23 9dbc 37d4 9c3b aa89 5e3d d2fb 9abd
00000030: a1b7 a9bc 74bb fdbc b830 f7bc 5e71 b63d
00000040: ad7d 0ebd 182e ca3c c3e3 553d f2ad 95bd
00000050: 1cd0 983d ba9f 433d c447 853d 4a33 983d
00000060: f9d6 debb bb03 fabc 8ffa cbbd 34f6 2dbd
00000070: da52 a03d 4354 c2bd b1a3 603d 8ebc 3cbd
00000080: 4b17 8abd 9a74 5b3d 15c5 cbbc 80d8 df36
00000090: a67f 00bd 5179 c03d ff77 8bbd c6b4 a5bc
000000a0: ce45 19bd 0e3e 4cbd cdde 66bd 9c45 5cbd
000000b0: b150 bdbd f9f7 993d eb9a e6bc 41d8 bd3d
000000c0: b9ab 6e3d 1a6f 753d 6b7c 2f3c 9124 37bd
000000d0: dce5 8e3d cff8 8b3c 9ea4 a63c 11ca 4fbd
000000e0: d571 1fbd b955 0fbd f4e1 0c3d 58f9 8c3d
000000f0: 8d76 59bd e01c 5e3c 4ec9 c93c d04f 04bd
00000100: 2861 8abd e074 9f3d bd85 6dbc b214 bf3d
00000110: 33c6 a3bd 00c2 883d bd21 bd3d 6d10 be3d
00000120: 909d 053d ea36 b9bd c461 44bd 2542 c03d
00000130: d05d 7abc 95d9 323d 6a11 613c 9a3b 873d
00000140: db8b bcbd 1d21 a5bd 8eb5 edba b72c 9ebc
00000150: e630 043b d45e 93bd 811d f03c a345 49bd
00000160: 193b 253d c503 b0bd f96f a9bd e8e1 ef3c
00000170: 0fb8 13bd 44fb 2f3d 180c 2cbb 647f bebc
00000180: deb3 193d a224 ccbc 9e77 6c3d 3f96 a3bd
00000190: 4c0e c83d 9f1f ca3d 993a 873c a46a ca3c
000001a0: e6d9 16bd 28a6 91bd d67e b83c f7df aa3d
000001b0: 5cf0 af3d f84d 953c 000d b2bd 1563 533c
000001c0: 850d 963d f580 ca3d 5f2b bc3d 0a47 bd3c
000001d0: ee93 8ebd 0a93 713d 0bde 633d 720f 413d
000001e0: bfce 1c3d 0ad7 44bd 2940 5dbd 1c07 20bd
000001f0: 0cb4 c13d f07f 71bd 3b81 3bbd 24fa c7bc
00000200: e1c8 9c3d ff3f a23d 4520 653d bc65 ce3d
00000210: 40a0 7a3d e774 af3d 764f 493b b237 8f3d
00000220: 09e8 b7bd 682d c8bb a03c 3e3d ecc9 94bd
00000230: bee3 45bd 1fd4 a23d 412c 5c3d 0770 933d
00000240: 8443 8bbb 0275 3a3d ebc8 7abd 53ab 9b3d
00000250: 1383 9d3d c71c 593d 8d9b 5c3d 3705 913d
00000260: 72e5 0fbb eed4 85bd d18a cfbd d858 a9bd
00000270: 1591 acbd e575 a4bd f720 b1bd 0ffe 5b3d
00000280: 7aab fa3c f169 72bd 41ab 5c3d c5b4 603d
00000290: 0de0 a73d 9a4e 35bd 7faf 38bd 6c28 bfbc
000002a0: ea62 e9bc 483e 84bc 7a6a b73a a587 973d
000002b0: bc94 273c b1dc 38bb 71db 3fbc aead 24bc
000002c0: 065e a2bd 60e0 b9bd 4eca 5c3d effb 343d
000002d0: 980b a3bd b538 82bd f661 b8bd e7c9 a9b9
000002e0: 243b adbc 0037 51bd 0baf 823d 1da6 c73d
000002f0: 6d60 2a3d 796e 1cbd 2c50 3ebc c1da a3bd
00000300: ef53 0fbd 4fc6 6cbd 8f2c 5fbd a43d 5bbd
00000310: e6a5 353d 717f 6e3d 0658 aabc 6f73 bc3d
00000320: 1868 563d c248 cabd f878 aabd d277 7cbb
00000330: 13bd b13b d2d1 1bbd b06d bbbd fadd 92bc
00000340: 0238 a33d 1289 6abd 3314 d5bc 234a 41bd
00000350: 434b a03d 2195 adbd 9bca bd3d a770 7c3d
00000360: c43a 383d 04df 1cbd 8eac be3d ed27 2cbd
00000370: 01fc 36bd 7079 213d d5f1 c9bd e97c 0ebd
00000380: 510d c0bd 7094 383d 4508 87bd 1eb2 db3c
00000390: 0949 babd e72f ac3d 105d 3dbd 5ee2 073d
000003a0: 3e36 6f3c bdc1 9b3d 85aa eb3c 0ede 883c
000003b0: 7e33 09bd beae 963d 97fe dcbc b803 273d
000003c0: 8417 0abd 5676 acbd e87f 97bd e357 abbd
000003d0: 970a cd3c 270b c7bd 95ee c6bd bf3b 3c3d
000003e0: 62a0 5e3c a20c 9e3d 8812 5dbc 1e0a 613d
000003f0: bcf0 d7bc ad0e b03d f274 053d 7eca 8dbd
0.02046628 0.016444426 -0.02633466 -0.09460228 -0.0056358525 0.04335315 -0.044520624 0.05306811
-0.019182079 0.00478604 0.054330505 -0.07567562 -0.020717444 -0.030973174 -0.030174598 0.08908342
-0.034787823 0.024680182 0.052219164 -0.07308568 0.07461569 0.04775975 0.06507829 0.074316576
-0.006800529 -0.030519357 -0.099599 -0.042471126 0.07828303 -0.09488728 0.05484361 -0.046078257
-0.06742724 0.053577997 -0.02487425 6.671122e-06 -0.031371735 0.09398139 -0.06809997 -0.020227801
-0.037420087 -0.049863867 -0.056364823 -0.053777322 -0.09243906 0.07518 -0.028150043 0.09269763
0.058269236 0.059920408 0.010710816 -0.044712607 0.06977436 0.017086415 0.020342167 -0.050729815
-0.038926918 -0.03499386 0.034395173 0.06883496 -0.053091574 0.013556689 0.024632122 -0.032302678
-0.06756812 0.07785964 -0.014497218 0.09330119 -0.07996788 0.066776276 0.09234951 0.09280477
0.032620966 -0.09043677 -0.0479448 0.09387616 -0.015281156 0.043664534 0.013737062 0.06603165
-0.09206363 -0.080629565 -0.0018135773 -0.019308431 0.0020170747 -0.071958214 0.029310944 -0.049138676
0.040339563 -0.08594469 -0.0827331 0.029282525 -0.036064204 0.042964235 -0.0026252326 -0.023254104
0.03752505 -0.024919812 0.057731263 -0.079876415 0.09768352 0.098693125 0.016507434 0.024709053
-0.036828898 -0.0711177 0.022521418 0.08343499 0.08590767 0.018225655 -0.08693886 0.012902041
0.073267974 0.09887878 0.0918796 0.023105163 -0.06961809 0.058978118 0.05563168 0.04713387
0.038283106 -0.04805664 -0.054016266 -0.03906928 0.09458169 -0.0589599 -0.04577754 -0.024411269
0.07655502 0.079223625 0.055938978 0.10077998 0.061187983 0.08567219 0.0030717528 0.06993045
-0.08979804 -0.0061089285 0.046444535 -0.07265076 -0.048312895 0.07950615 0.05375314 0.07199102
-0.004249992 0.045521744 -0.061226767 0.07601037 0.07691016 0.05300596 0.053859282 0.07081073
-0.0021956828 -0.06534754 -0.10133899 -0.08268899 -0.0842611 -0.08030299 -0.08648866 0.053709086
0.030599345 -0.059183065 0.053874258 0.054859895 0.08197031 -0.044264413 -0.04508924 -0.023334704
-0.028489549 -0.01614298 0.0013993524 0.07398919 0.010228332 -0.0028207714 -0.011710034 -0.010051174
-0.0792809 -0.09075999 0.05390387 0.044185575 -0.07961196 -0.06358472 -0.090030596 -0.0003238462
-0.021146365 -0.051077843 0.06381043 0.097484805 0.041595865 -0.038191292 -0.011615794 -0.08000708
-0.034992155 -0.05780631 -0.054485854 -0.053525582 0.044347666 0.058227006 -0.020793926 0.09201705
0.052345365 -0.09877159 -0.08323854 -0.0038523567 0.0054241507 -0.038041897 -0.091517806 -0.017928112
0.07969667 -0.057259627 -0.026010608 -0.047189843 0.07826855 -0.0847571 0.092671596 0.06163087
0.04497792 -0.03829862 0.09310256 -0.042030264 -0.044673923 0.039422452 -0.09860579 -0.034787092
-0.0937754 0.045063436 -0.06593374 0.026818331 -0.090959616 0.08407574 -0.04623133 0.033174865
0.014600335 0.07605312 0.028767833 0.016707446 -0.033496372 0.07357548 -0.026976867 0.04077503
-0.033713832 -0.08421008 -0.07397443 -0.083663724 0.025029464 -0.09718924 -0.09713475 0.045955416
0.013588043 0.07717253 -0.013493188 0.05494129 -0.026359908 0.08596549 0.03258223 -0.06923388

fc3.bias f4 [24]
00000000: 9ae2 45bc 3531 cb3d ea3c d03c 0c8c 8b3d
00000010: 8a6c 66bd 66e6 173d 148a 1a3d 6267 9cbd
00000020: 04c3 5f3c 4c08 9dbd d73d 6dbd a69d 78bd
00000030: f3c6 8b3d 1f39 89bd 6576 3fbd 113e 1e3d
00000040: d385 a33c babb 163d 7fe1 6e3c bdc2 623d
00000050: 1975 4dbc e786 22bd 60d3 31bd f5a3 c1bd
-0.012077952 0.09921495 0.025419671 0.06813821 -0.056255855 0.03708496 0.037729338 -0.07636906
0.013657335 -0.07667598 -0.057920303 -0.06069722 0.06825056 -0.06700348 -0.04674377 0.03863341
0.019961273 0.036800124 0.01458013 0.0553615 -0.012540125 -0.039679434 -0.043414474 -0.094551004

fc4.weight f4 [2, 24]
00000000: ac7e 13bd 3e48 0dbe 5e2f ff3d de06 45be
00000010: e4ae 3ebe 1b19 09be ec5a 063e 9c68 afbd
00000020: 3f6b 1bbe 0fb8 e43d 3aa2 4f3d c39c 06be
00000030: 9c6d 123e 334a 303d 1884 3bbe bf3c a2bd
00000040: 6467 b53c d4a4 29be 1a3e 3dbd 3611 fdbd
00000050: 5fb9 34be 4a69 96bc 3e2f f33c 044f 173e
00000060: 5d44 f43d f845 b9bd 9786 183e e774 ddbb
00000070: ab66 203e 0dfb 95bd 6887 333e 280d 09bb
00000080: 4271 023e b148 25be 1721 3a3e 9fd3 8c3d
00000090: b608 323e 156d 41be 6a14 143e c2d8 e4bd
000000a0: daff 5d3d 55e7 6fbd fd59 1b3e 2bd8 80bd
000000b0: 2312 133e 4e1c 5f3d 026f 3c3e c1e5 893b
-0.036009476 -0.1379709 0.124602064 -0.19240901 -0.18621403 -0.13388483 0.13120621 -0.085648745
-0.1517763 0.11167919 0.05069182 -0.13145737 0.14299625 0.043039512 -0.18312109 -0.07921743
0.022144027 -0.16566783 -0.046201803 -0.12356798 -0.17648838 -0.018360753 0.029685613 0.14776236
0.11927102 -0.090465486 0.14895092 -0.0067583206 0.15664165 -0.07323275 0.17532122 -0.0020912383
0.12738517 -0.16141011 0.18176685 0.06876301 0.17386135 -0.18889268 0.14460912 -0.11174156
0.054199077 -0.058570225 0.15171047 -0.06291231 0.14362387 0.054470353 0.18401721 0.004208297

fc4.bias f4 [2]
00000000: 5ed8 05bd 92b4 c6bd
-0.032677047 -0.0970241

fc5.weight f4 [1, 2]
00000000: 66bd 923e e527 e63d
0.28660125 0.11238078
