T3-2024/Federated_Learning/Improved_FL/SRC/meta_parameters/client5.pth (torch, 34104 bytes, 9 tensors)

fc1.weight f4 [48, 12]
0	0x3e266540	0.16249561
1	0x3b861de2	0.004092918
2	0xbe5429fd	-0.20719142
3	0xbe08d515	-0.13362534
4	0x3e02471f	0.12722443
5	0x3e73f6ed	0.23824663
6	0x3d105401	0.035236362
7	0x3e0f5e71	0.1400087
8	0xbe8d6932	-0.2761932
9	0x3e231131	0.15924527
10	0x3e8c1c69	0.27365425
11	0xbddbdae5	-0.1073511
12	0x3e5417e9	0.20712246
13	0xbe93c4b5	-0.28861013
14	0x3e10a419	0.14125098
15	0xbbcb2462	-0.0061994055
16	0x3e4b872c	0.19875783
17	0xbe60ca93	-0.21952276
18	0xbde87c9e	-0.11351894
19	0xbdfd673d	-0.12373207
20	0x3e8f8c30	0.28036642
21	0x3dbed2f8	0.09317583
22	0xbd7d1120	-0.06178391
23	0xbe8d8604	-0.27641308
24	0xbe30c470	-0.17262435
25	0xbdd00f75	-0.10159198
26	0xbdfc80a8	-0.12329227
27	0xbdbcefcb	-0.092254244
28	0x3e3b058b	0.18263833
29	0xbcfd8cf0	-0.030950993
30	0x3e255533	0.16145782
31	0x3e89a7c0	0.26885796
32	0x3dfd679a	0.12373276
33	0x3dcf61db	0.10126086
34	0x3d264520	0.040593266
35	0xbe1cd901	-0.15317155
36	0xbe627baf	-0.22117494
37	0xbe720b81	-0.23637201
38	0xbdf168a4	-0.11787537
39	0x3e81a14d	0.25318375
40	0xbe91447c	-0.28372562
41	0x3e17e941	0.14835073
42	0x3dd84e91	0.1056186
43	0xbe85182c	-0.25995004
44	0xbde8708c	-0.113495916
45	0xbe3f53b5	-0.18684275
46	0xbe913b2a	-0.2836545
47	0xbe272bb9	-0.16325273
48	0xbe042e20	-0.1290822
49	0x3d6555f5	0.05599018
50	0xbdbd571d	-0.09245131
51	0x3dc82f2a	0.09774621
52	0x3e3bf0f4	0.18353635
53	0x3e348304	0.17628103
54	0x3e13e791	0.14443804
55	0xbe19a9c5	-0.15006168
56	0xbd6f31a7	-0.05839696
57	0x3e05b113	0.1305583
58	0x3daa3228	0.08310348
59	0xbe2e29dd	-0.17008157
60	0x3e324ddc	0.17412513
61	0x3e0fc874	0.1404131
62	0xbe4ff6a9	-0.20308937
63	0xbcb49cf8	-0.022047505
64	0xbdc5147b	-0.09623047
65	0x3e553c78	0.20823848
66	0xbe3c7d3d	-0.1840715
67	0x3e1835c1	0.14864255
68	0x3e3a1b25	0.18174417
69	0x3e28a18d	0.16467877
70	0xbc85928e	-0.016305234
71	0x3db0fa37	0.08641475
72	0x3deb794f	0.11497747
73	0x3e24a3be	0.16078088
74	0xbe3fe87f	-0.18741034
75	0xbddb9f02	-0.10723688
76	0xbd350e78	-0.04420325
77	0x3c93ab14	0.018025912
78	0xbdb19102	-0.08670236
79	0xbdb5b936	-0.08873217
80	0xbd7cdeec	-0.061736032
81	0xbe04adc0	-0.12956905
82	0x3ca4e310	0.020127803
83	0xbe35320d	-0.17694874
84	0x3e8e6e35	0.27818456
85	0x3dbe09ae	0.0927919
86	0x3de86a5e	0.11348413
87	0xbd94f933	-0.072740935
88	0x3c8092fd	0.01569509
89	0xbe754ee7	-0.2395588
90	0xbda10a59	-0.07863302
91	0xbda9e244	-0.0829511
92	0x3d985828	0.074386895
93	0xbe85fc0a	-0.26168853
94	0x3e75f7dc	0.24020332
95	0xbe17fe67	-0.1484314
96	0x3e2cb10b	0.16864412
97	0x3d1b6a56	0.037943207
98	0xbe5cdff2	-0.21569803
99	0x3e84a968	0.25910497
100	0x3de743ed	0.11292253
101	0x3d9e91aa	0.07742627
102	0xbd1fc9ca	-0.0390108
103	0x3d1607bb	0.036628466
104	0x3dab9538	0.083780706
105	0x3e8d553a	0.27604085
106	0xbe40777d	-0.18795581
107	0x3dda1102	0.10647775
108	0x3e4b7dc0	0.19872189
109	0x3d28c273	0.041201066
110	0x3e92c8be	0.2866878
111	0x3e92a17d	0.2863883
112	0x3d431d06	0.0476351
113	0xbd061011	-0.032730166
114	0x3e902c9c	0.28159034
115	0x3e257f32	0.16161802
116	0xbc8e2c6a	-0.017355163
117	0xbdb1e395	-0.08685986
118	0x3deb3143	0.11484005
119	0x3e81c29b	0.25343785
120	0x3e920326	0.28518027
121	0xbe4d4976	-0.20047554
122	0x3d84ac61	0.06478191
123	0x3e00582d	0.12533636
124	0xbd333716	-0.043753706
125	0xbe7489de	-0.23880717
126	0x3e404bb2	0.18778875
127	0xbd56eb01	-0.05247021
128	0xbe8f0d4e	-0.27939838
129	0xbe5ad29f	-0.21369408
130	0x3d9a0fe3	0.075225614
131	0x3db7eb32	0.08980407
132	0xbe537016	-0.20648226
133	0xbe63612c	-0.22205037
134	0x3e54694c	0.20743293
135	0x3d79b787	0.06096604
136	0xbe4b609f	-0.19861077
137	0x3c5b9e77	0.01340448
138	0xbe822e28	-0.2542584
139	0xbe01c5a3	-0.12673049
140	0xbd354f73	-0.04426522
141	0x3a882dcf	0.0010389629
142	0xbe65042e	-0.22364876
143	0x3e28ef7f	0.1649761
144	0x3e88560b	0.26628146
145	0x3e1f1508	0.15535367
146	0x3e00fbd3	0.12596063
147	0x3dc4f32f	0.09616696
148	0xbd7f4a7d	-0.062326897
149	0xbe48dd3a	-0.19615641
150	0x3c40bc70	0.011763677
151	0x3e81ef78	0.25378013
152	0x3d0a2efa	0.033736207
153	0x3d5d257c	0.053990826
154	0xbe2abe3c	-0.16674131
155	0x3d8be4d5	0.068307556
156	0x3d9064d9	0.07050485
157	0x3e8452a6	0.25844306
158	0xb8a4ec71	-7.86417e-05
159	0x3e0b4237	0.13599478
160	0x3e8a5ecf	0.27025458
161	0xbe76feab	-0.24120586
162	0x3e5af75f	0.21383427
163	0xbe2520b7	-0.16125761
164	0x3d5a8b79	0.053355668
165	0x3dc85b3f	0.09783029
166	0x3da54cbd	0.08071277
167	0xbe8e1d8f	-0.27756926
168	0xbe843168	-0.25818944
169	0x3c4b36f7	0.012403241
170	0xbe5f5624	-0.21810204
171	0x3c68e2ab	0.014214198
172	0xbc200e90	-0.009769097
173	0x3e3465bc	0.17616934
174	0x3dcbe873	0.099564455
175	0x3e9302ce	0.28713077
176	0xbda189a7	-0.07887583
177	0xbe6bd44d	-0.23030205
178	0xbe05a185	-0.13049896
179	0x3dcbd346	0.099524066
180	0x3e65a351	0.22425582
181	0x3e8ed093	0.27893505
182	0x3e22a66e	0.158838
183	0x3da66959	0.08125562
184	0x3e86117f	0.26185223
185	0x3e0f2639	0.13979425
186	0x3c6bd66a	0.014394382
187	0x3e3aed0f	0.18254493
188	0xbe32c951	-0.17459609
189	0x3e5cca24	0.21561486
190	0xbdbf07cd	-0.0932766
191	0x3df37190	0.11886895
192	0xbbb776d0	-0.0055988804
193	0xbe4a425f	-0.19751881
194	0x3dac9068	0.08425981
195	0x3b606776	0.0034241355
196	0x3e699279	0.22809781
197	0x3e90b4ff	0.2826309
198	0x3e21b4cb	0.15791623
199	0x3e25a3ff	0.16175841
200	0xbdc050ba	-0.09390397
201	0xbe903369	-0.28164223
202	0xbe61630c	-0.2201044
203	0xbdb0d5d2	-0.08634533
204	0xbe2b973a	-0.16756907
205	0x3ddb721d	0.10715125
206	0xbe4c68c1	-0.19961835
207	0x3e0a2a90	0.13492799
208	0xbe64cd6a	-0.22343984
209	0xbe413be1	-0.18870498
210	0xbda39a1d	-0.07988379
211	0xbe30577d	-0.17220874
212	0xbd30cafa	-0.043162324
213	0x3dd129b7	0.102130346
214	0xbdaa40c7	-0.083131365
215	0xbe63d42f	-0.2224891
216	0x3cd9da97	0.02659349
217	0xbe76ca51	-0.24100615
218	0x3e2a3f02	0.16625598
219	0x3d120ab9	0.035654757
220	0xbc1e7f63	-0.009673926
221	0x3d3cb377	0.04606959
222	0x3e93a64b	0.2883781
223	0xbe6296b1	-0.22127797
224	0xbdd3f4a4	-0.10349396
225	0x3e89a703	0.26885232
226	0xbd154d51	-0.036450688
227	0xbd354711	-0.044257227
228	0x3d87045d	0.06592629
229	0xbe28a624	-0.16469628
230	0xbe4c4e7e	-0.19951817
231	0xbe87da28	-0.26533628
232	0x3d8f6294	0.07001224
233	0xbe2810a1	-0.16412593
234	0x3e7d00bc	0.24707311
235	0xbe5446f0	-0.20730186
236	0x3d8c1dd9	0.068416305
237	0x3de1b7f4	0.110214144
238	0x3e545bdf	0.20738171
239	0x3d90d3ae	0.07071625
240	0xbe223ce5	-0.15843542
241	0xbdbd94f7	-0.092569284
242	0x3e897eee	0.26854652
243	0xbd228fa5	-0.03968777
244	0xbe7bc22b	-0.24585788
245	0xbd26350d	-0.040577937
246	0xbe71c2bd	-0.23609443
247	0xbdc407de	-0.09571813
248	0x3ce3c570	0.027804106
249	0x3d5b6549	0.05356339
250	0xbe8d3498	-0.27579188
251	0xbe587cca	-0.21141353
252	0x3d7a4119	0.06109724
253	0xbde8f8fe	-0.113756165
254	0xbe4713ba	-0.19441119
255	0x3e43b068	0.19110262

fc1.bias f4 [48]
0	0xbe4cbb50	-0.19993329
1	0xbdcfcdc8	-0.101466715
2	0xbe80cb9b	-0.2515534
3	0x3e8eee60	0.2791624
4	0x3e078847	0.1323558
5	0xbe537777	-0.20651041
6	0xbe4072cc	-0.18793792
7	0xbe8fc3a8	-0.2807896
8	0x3ca56ce3	0.020193523
9	0xbd27a841	-0.040931944
10	0x3e0946ca	0.1340591
11	0x3e310963	0.17288737
12	0x3e1dee96	0.15423045
13	0xbe5c1ec5	-0.21496113
14	0xbe92841c	-0.28616416
15	0xbe286431	-0.1644447
16	0xbe929407	-0.2862856
17	0x3e7dd651	0.24788786
18	0x3e1a1773	0.15048008
19	0x3de90902	0.11378671
20	0x3e41fcda	0.18944111
21	0xbdbbfc3b	-0.091789685
22	0x3db77238	0.089573324
23	0x3db7067a	0.08936782
24	0x3e1b8aba	0.15189639
25	0x3e2ae7ab	0.16689937
26	0x3e77449f	0.2414727
27	0xbd8ef5bb	-0.06980463
28	0xbe801759	-0.25017813
29	0x3e791b12	0.24326733
30	0x3da0e5a7	0.07856303
31	0xbe41267a	-0.18862334
32	0xbe5bfdfd	-0.21483608
33	0x3df29c8d	0.11846266
34	0xbe17eb87	-0.1483594
35	0xbdec7c37	-0.115471296
36	0x3e246252	0.16053131
37	0x3e21812d	0.15771933
38	0xbe87999a	-0.26484376
39	0xbde8b1fe	-0.11362074
40	0x3e295eca	0.16540065
41	0xbe04ef68	-0.12981951
42	0x3deb1f24	0.11480549
43	0xbe423ec6	-0.18969259
44	0xbe4db29a	-0.20087662
45	0x3dc8218c	0.097720236
46	0xbcb7dac7	-0.022443188
47	0xbde2ffba	-0.11083932

fc2.weight f4 [96, 48]
0	0xbdd3bf4c	-0.10339221
1	0x3dd0f072	0.10202111
2	0x3cd17771	0.02556965
3	0x3dee74af	0.116433494
4	0x3dccf55f	0.10007738
5	0xbb5454c7	-0.0032399164
6	0x3d8f63a9	0.070014305
7	0x3dda3dd8	0.10656327
8	0x3d031fc1	0.032012705
9	0xbd3b45d5	-0.045720894
10	0x3e0528b1	0.13003804
11	0x3dedaf04	0.11605647
12	0x388e7196	6.792245e-05
13	0x3cf04281	0.029328587
14	0x3c962ada	0.01833098
15	0xbd736176	-0.059419118
16	0xbd2015b1	-0.039083187
17	0xbdc88eba	-0.09792848
18	0xbd711093	-0.058853697
19	0x3d255c94	0.040371493
20	0xbdbcf197	-0.09225767
21	0x3d450b59	0.048106525
22	0xbe060ea4	-0.13091522
23	0xbdc8df48	-0.098082125
24	0xbe0fb18b	-0.14032571
25	0xbde3ad60	-0.11117053
26	0xbd8ecc3a	-0.06972547
27	0xbcef3217	-0.02919869
28	0x3dead32c	0.11466059
29	0x3e0d6ad1	0.13810278
30	0x3db3a6ac	0.087720245
31	0xbdb49b38	-0.08818668
32	0x3d838f61	0.06423832
33	0x3dee6f10	0.11642277
34	0xbc5226df	-0.01282665
35	0x3d5c5c4a	0.05379895
36	0xbcba2dd7	-0.022726936
37	0x3db310d6	0.087434456
38	0xbda00304	-0.07813075
39	0xbd9ec47e	-0.07752322
40	0x3d8acccd	0.06777344
41	0xbc16f294	-0.009213109
42	0xbdd08275	-0.10181133
43	0xbdbdccab	-0.09267553
44	0x3e06e838	0.13174522
45	0x3d1f5048	0.03889492
46	0x3daea5f1	0.085277446
47	0x3e0414fa	0.12898627
48	0xbe0d48d6	-0.13797316
49	0xbac8d579	-0.0015322409
50	0x3d33a970	0.04386276
51	0xbe11e4a8	-0.14247382
52	0x3d454fd8	0.048171848
53	0xbde0cd09	-0.10976607
54	0x3d590ddc	0.052991733
55	0xbbae5249	-0.0053198677
56	0x3ddc96aa	0.107709244
57	0x3d9b7c53	0.07592072
58	0x3dc6351b	0.09678098
59	0x3d9abaca	0.075551584
60	0x3ba804e0	0.0051275343
61	0xbcb502fb	-0.022096148
62	0x3dd49bfd	0.10381315
63	0x3c11d2f2	0.008900391
64	0x3defde52	0.11712326
65	0xbdb01a38	-0.08598751
66	0xbd3fd678	-0.046835393
67	0xbe07fe7f	-0.13280676
68	0x3d3e9dc4	0.046537176
69	0xbe121934	-0.14267427
70	0x3ddae705	0.10688595
71	0xbd1fb87a	-0.03899429
72	0xbd7341a5	-0.059388775
73	0x3dda42f7	0.10657304
74	0xbdf0f6aa	-0.117657974
75	0xbd4e13f7	-0.05031201
76	0x3e0af140	0.13568592
77	0xbd382d3a	-0.044965006
78	0xbde01487	-0.10941415
79	0x3de5c8b0	0.11219919
80	0xbe134234	-0.14380723
81	0xbd80f13c	-0.06296012
82	0x3b9dd24f	0.0048163305
83	0x3d313534	0.04326363
84	0xbd9b65bd	-0.075877644
85	0x3d883b7e	0.06651972
86	0x3bb0d602	0.0053966055
87	0xbdc984e8	-0.09839803
88	0xbd9fce3b	-0.07803007
89	0x3da42b1d	0.08016036
90	0x3d246433	0.04013462
91	0xbe0035a6	-0.12520465
92	0xbdf64f3c	-0.120268315
93	0xbce09f32	-0.02741966
94	0xbdcc6b5f	-0.09981417
95	0x3dd4b87f	0.10386752
96	0xbdf4c0d6	-0.11950843
97	0xbe05f765	-0.13082655
98	0xbd265fd6	-0.04061874
99	0xbd9679d7	-0.07347458
100	0x3cab0bfc	0.020879738
101	0xbd3a6ef2	-0.045515962
102	0xba6525fa	-0.00087413157
103	0xbe06ca50	-0.13163114
104	0x3d7e0899	0.062019918
105	0x3cd97b17	0.026547952
106	0xbd3679f6	-0.044549905
107	0x3da54e1c	0.08071539
108	0xbd9fad2e	-0.07796703
109	0x3dd06395	0.10175244
110	0x3d3ef621	0.046621446
111	0xbda2339a	-0.079199985
112	0x3caaba4c	0.020840786
113	0x3d3e9093	0.046524595
114	0xbd2f2fc1	-0.04277015
115	0x3e075b2e	0.13218376
116	0xbe0d9d4d	-0.13829537
117	0x3dff16b8	0.12455505
118	0x3e0eb64d	0.1393673
119	0x3ae54687	0.0017492332
120	0xbd83699b	-0.06416627
121	0xbdfd2101	-0.123598106
122	0xbcd48b95	-0.025945464
123	0x3db17dbc	0.0866656
124	0xbd53e970	-0.051736295
125	0x3c751f01	0.014961005
126	0x3d573514	0.052540854
127	0x3de80833	0.11329689
128	0x3dd8a1a6	0.10577707
129	0x3dc3e19c	0.09564516
130	0xbbd72104	-0.006565215
131	0x3c2297c2	0.009923877
132	0xbe08c431	-0.13356091
133	0x3da08396	0.07837598
134	0xbb805961	-0.003916905
135	0xbdc0aa3a	-0.09407468
136	0x3c433efd	0.011916873
137	0xbd5b6934	-0.053567126
138	0x3d8e4644	0.06946996
139	0xbd9296d4	-0.071576744
140	0x3dda1a80	0.10649586
141	0x3db17213	0.08664336
142	0x3d074369	0.03302327
143	0x3dc40ca5	0.09572724
144	0xbd514407	-0.051090267
145	0xbe03416d	-0.12817927
146	0x3ce9ff84	0.028564222
147	0xbdfab944	-0.12242368
148	0xbd1403d2	-0.036136456
149	0x3dd7c570	0.10535705
150	0x3d20cbe0	0.03925693
151	0xbcec1e2d	-0.028822983
152	0xbe10363f	-0.14083193
153	0x3c31920b	0.010838042
154	0x3d89a314	0.06720558
155	0xbd0d5714	-0.034506872
156	0xbdb15260	-0.0865829
157	0xbc4d92d9	-0.012547218
158	0xbcb33753	-0.021876967
159	0x3c483b94	0.012221236
160	0x3cd0276f	0.025409428
161	0xbd758caa	-0.0599486
162	0x3ce6b64c	0.028163098
163	0x3d22d586	0.039754413
164	0x3d2295bf	0.03969359
165	0xbe0e39b1	-0.13889195
166	0xbe0243d5	-0.12721188
167	0x3e0842b9	0.13306703
168	0xbde371ee	-0.11105715
169	0xbda53d82	-0.08068372
170	0x3c7e24d3	0.015511709
171	0xbd69aa20	-0.05704701
172	0x3e11226e	0.1417329
173	0xbdff1de9	-0.12456877
174	0xbd92d4e2	-0.071695104
175	0x3df6a5d2	0.120433465
176	0x3e071c90	0.1319449
177	0xbcc9beef	-0.024627177
178	0xbdf2b952	-0.11851753
179	0x3d82e971	0.06392182
180	0xbb9187ff	-0.004441261
181	0xbbaee191	-0.005336948
182	0x3d5dbe4a	0.054136552
183	0xbd3fd326	-0.046832226
184	0x3e111c9c	0.1417107
185	0x3df7f3eb	0.121070705
186	0xbcc832fb	-0.024438372
187	0x3d2691d5	0.04066642
188	0x3cebf9d8	0.028805658
189	0x3e0996d8	0.13436449
190	0xbd7042ac	-0.058657333
191	0xbdf445ea	-0.119273975
192	0xbd45e9fe	-0.048318855
193	0xbde880f0	-0.11352718
194	0xbd496b72	-0.049174733
195	0xbd647167	-0.05577221
196	0x3d18d9d6	0.03731712
197	0x3df2a478	0.11847776
198	0x3d663394	0.056201532
199	0x3d9da56c	0.07697567
200	0xbdc93727	-0.098249726
201	0xbd848859	-0.06471319
202	0xbdea7b38	-0.11449283
203	0x3df012ac	0.117223114
204	0xbd637a4b	-0.05553655
205	0xbdc67265	-0.09689788
206	0x3cd07cb4	0.025450088
207	0x3e13a8d8	0.14419878
208	0x3d6fb32e	0.05852049
209	0x3e096e6d	0.1342103
210	0xbdc14351	-0.09436668
211	0x3b339930	0.002740454
212	0xbd9074b4	-0.07053509
213	0x3ddde2bb	0.10834261
214	0xbdd517ec	-0.10404953
215	0x3b0aa28a	0.002115401
216	0xbcb1a30a	-0.021684188
217	0xbe0f78a2	-0.14010862
218	0xbe0ac0dc	-0.13550133
219	0xbd8655e2	-0.065593496
220	0xbe0d5145	-0.13800533
221	0x3d2100da	0.039307453
222	0xbd91a753	-0.07111993
223	0x3c8486b3	0.01617751
224	0x3d4da0cc	0.050202176
225	0xbccbb029	-0.024864273
226	0x3d9dff93	0.077147625
227	0x3dbb8692	0.091565266
228	0xbcfcd3dc	-0.030862741
229	0x3cd6a944	0.026203759
230	0x3ccddf1c	0.0251308
231	0x3dbfcb5f	0.09364962
232	0x3c90fcaf	0.017698614
233	0x3d668294	0.056276873
234	0x3cafef51	0.02147642
235	0x3dc0ff0e	0.09423648
236	0x3e0df4fa	0.13862982
237	0xbe0892dd	-0.13337274
238	0x3d5a1c36	0.05324956
239	0x3de64fb0	0.11245668
240	0xbd052a65	-0.032511134
241	0xbdbe7004	-0.09298709
242	0xbd82fcc7	-0.0639587
243	0xbe0eed45	-0.13957699
244	0x3dbb0f34	0.09133759
245	0xbe09d404	-0.13459784
246	0xbda901e8	-0.08252317
247	0xbd5d71f8	-0.054063767
248	0x3dee16fe	0.11625479
249	0x3dbdde29	0.09270889
250	0xbddc06ed	-0.107435085
251	0x3e0595cd	0.13045426
252	0x3e00e2e4	0.12586552
253	0xbdfd3f7d	-0.12365625
254	0x3dc9b284	0.09848502
255	0x3d4e87e8	0.05042258

fc2.bias f4 [96]
0	0x3e0c4036	0.1369637
1	0xbd7bca20	-0.06147206
2	0xbdd64ebd	-0.10464237
3	0x3cd061da	0.025437284
4	0xbdc34794	-0.09535137
5	0xbda23144	-0.07919553
6	0xbe0ca671	-0.13735367
7	0xbdf4efbc	-0.11959788
8	0xbd196376	-0.03744837
9	0x3cd71bd4	0.026258387
10	0x3c459a26	0.012060678
11	0xbd838be9	-0.0642317
12	0x3daf3c0b	0.08556374
13	0xbdc66244	-0.096867114
14	0xbda8a69e	-0.08234905
15	0x3c72ec9b	0.014826919
16	0xbdbad39c	-0.091223925
17	0x3d4de287	0.05026486
18	0x3da1152a	0.07865365
19	0xbda32d91	-0.079676755
20	0x3dafcce4	0.08584002
21	0xbdafa918	-0.08577174
22	0xbdfbb900	-0.12291145
23	0x3cebe405	0.028795252
24	0xbdfe3970	-0.12413299
25	0x3e05dd81	0.13072778
26	0x3dbc7884	0.09202674
27	0x3decd344	0.11563733
28	0xbe132106	-0.14368066
29	0x3dfa7800	0.122299194
30	0xba05c6b5	-0.0005103157
31	0xbd61b5d6	-0.055105053
32	0x3e0bab23	0.13639502
33	0x3bbdde32	0.00579431
34	0xbd641d76	-0.05569216
35	0xbc72aa87	-0.014811165
36	0x3e096ca4	0.1342035
37	0x3deab763	0.114607595
38	0x3be2d404	0.006922247
39	0x3cf31413	0.029672658
40	0x3e047e74	0.12938863
41	0xbc2b30a9	-0.010448613
42	0xbdd42b1d	-0.10359786
43	0x3dd57188	0.10422045
44	0xbb9ae118	-0.0047265403
45	0xbd6e6917	-0.05820569
46	0x3d7b889c	0.061409578
47	0x3e02a41f	0.1275792
48	0xbdad38b5	-0.08458082
49	0xbd75d1d0	-0.060014546
50	0x3d526b64	0.051371947
51	0xbd073b40	-0.03301549
52	0xbdde76f6	-0.10862534
53	0x3d5af729	0.053458367
54	0x3e12954c	0.14314765
55	0x3d8bad4a	0.06820162
56	0xbd50badf	-0.050959464
57	0xbda72f50	-0.08163321
58	0xbd282d91	-0.04105908
59	0xbd0a99af	-0.03383797
60	0x3ce5b5ae	0.028040733
61	0x3d11b9ac	0.03557746
62	0xbda7c5c3	-0.08192017
63	0xbd950c00	-0.072776794
64	0xbd8ecccd	-0.069726564
65	0xbc0cf3f0	-0.008603081
66	0xbdc6e02c	-0.09710726
67	0x3c5cc3f6	0.013474455
68	0xbe0bd275	-0.13654502
69	0x3dff73cb	0.12473258
70	0x3d612b3e	0.05497288
71	0xbda8d10e	-0.08242999
72	0x3d9f39d5	0.077747025
73	0x3dc28c49	0.094994135
74	0x3dd8c856	0.10585086
75	0xbd82f05c	-0.06393501
76	0x3dd6d97c	0.104907006
77	0x3def7019	0.11691303
78	0xbcab3f86	-0.020904314
79	0xbcc703a8	-0.024293736
80	0x3dadbe8c	0.084836096
81	0x3d459854	0.048240975
82	0xbdec5408	-0.11539465
83	0x3bbe9aea	0.005816807
84	0xbce6bca9	-0.028166132
85	0x3bd968bf	0.006634801
86	0xbcfad71d	-0.030620152
87	0xbde4a0e1	-0.11163498
88	0xbdb6c0fd	-0.08923528
89	0xbcfdc4a3	-0.030977553
90	0xbd495d36	-0.04916116
91	0x3acfed7e	0.0015863625
92	0xbbd8657e	-0.0066038957
93	0x3d64da2b	0.055872124
94	0x3d31e2a0	0.043429017
95	0x3bda8027	0.006668109

fc3.weight f4 [24, 96]
0	0x3ca7a925	0.020466397
1	0x3c86b67d	0.016444439
2	0xbcd7bbca	-0.026334662
3	0xbdc1bed3	-0.09460225
4	0xbbb8acd5	-0.0056358376
5	0x3d319305	0.0433531
6	0xbd365b3d	-0.044520605
7	0x3d595df6	0.053068124
8	0xbc9d23bc	-0.019182079
9	0x3b9cd3fe	0.0047860136
10	0x3d5e89ac	0.054330513
11	0xbd9afbd0	-0.07567561
12	0xbca9b79c	-0.020717435
13	0xbcfdbb7d	-0.03097319
14	0xbcf730b2	-0.030174587
15	0x3db6715f	0.089083426
16	0xbd0e7dad	-0.034787823
17	0x3cca2e18	0.024680182
18	0x3d55e3d0	0.052219212
19	0xbd95adf2	-0.07308568
20	0x3d98d01e	0.0746157
21	0x3d439fbc	0.047759756
22	0x3d8547c4	0.06507829
23	0x3d98334b	0.07431658
24	0xbbded6f9	-0.006800529
25	0xbcfa03be	-0.030519363
26	0xbdcbfa93	-0.099599026
27	0xbd2df62b	-0.042471092
28	0x3da052db	0.078283034
29	0xbdc2543b	-0.09488722
30	0x3d60a3bb	0.054843646
31	0xbd3cbc8b	-0.046078246
32	0xbd8a1744	-0.06742719
33	0x3d5b749b	0.053578
34	0xbccbc513	-0.024874246
35	0x36e07186	6.688936e-06
36	0xbd007fa9	-0.031371746
37	0x3dc07956	0.09398143
38	0xbd8b7801	-0.06809998
39	0xbca5b4ba	-0.020227779
40	0xbd1945d6	-0.037420116
41	0xbd4c3e09	-0.04986385
42	0xbd66ded5	-0.056364853
43	0xbd5c458f	-0.053777274
44	0xbdbd50b3	-0.09243908
45	0x3d99f7fa	0.07518001
46	0xbce69ae3	-0.028150028
47	0x3dbdd83d	0.0926976
48	0x3d6eabb7	0.05826923
49	0x3d756f18	0.0599204
50	0x3c2f7c77	0.010710827
51	0xbd372492	-0.04471261
52	0x3d8ee5dc	0.06977436
53	0x3c8bf8e3	0.017086452
54	0x3ca6a4b7	0.020342214
55	0xbd4fca17	-0.050729837
56	0xbd1f71d8	-0.03892693
57	0xbd0f55ba	-0.034993865
58	0x3d0ce1f4	0.034395173
59	0x3d8cf959	0.06883497
60	0xbd59768a	-0.053091563
61	0x3c5e1d01	0.01355672
62	0x3cc9c947	0.02463211
63	0xbd044fcd	-0.032302666
64	0xbd8a612c	-0.06756815
65	0x3d9f74dd	0.07785962
66	0xbc6d85bc	-0.014497217
67	0x3dbf14b4	0.09330121
68	0xbda3c634	-0.079967886
69	0x3d88c203	0.0667763
70	0x3dbd21ba	0.092349485
71	0x3dbe1073	0.09280481
72	0x3d059d98	0.032620996
73	0xbdb936e1	-0.090436704
74	0xbd4461dd	-0.047944892
75	0x3dc04226	0.09387617
76	0xbc7a5d9e	-0.015281109
77	0x3d32d99b	0.043664556
78	0x3c611160	0.013737053
79	0x3d873b9b	0.06603166
80	0xbdbc8bcf	-0.09206354
81	0xbda5211e	-0.08062957
82	0xbaedb5d3	-0.0018135853
83	0xbc9e2c9e	-0.019308385
84	0x3b0430ed	0.0020170764
85	0xbd935eda	-0.07195826
86	0x3cf01d84	0.02931095
87	0xbd4945a0	-0.049138665
88	0x3d253b11	0.040339533
89	0xbdb003c5	-0.08594469
90	0xbda96ff5	-0.08273307
91	0x3cefe1d9	0.029282497
92	0xbd13b80c	-0.036064193
93	0x3d2ffb4c	0.042964265
94	0xbb2c0c1b	-0.0026252333
95	0xbcbe7f5e	-0.023254093
96	0x3d19b198	0.037522882
97	0xbccc2483	-0.024919754
98	0x3d6c77a0	0.05773127
99	0xbda39658	-0.0798766
100	0x3dc80e3f	0.09768342
101	0x3dca1f65	0.09869269
102	0x3c873aa7	0.01650746
103	0x3cca688f	0.02470806
104	0xbd16da68	-0.036829382
105	0xbd91a5c8	-0.071116984
106	0x3cb87f2d	0.02252158
107	0x3daadfdf	0.08343481
108	0x3daff030	0.08590734
109	0x3c954e17	0.018225713
110	0xbdb20cfa	-0.08693881
111	0x3c53615a	0.012901628
112	0x3d960d82	0.07326795
113	0x3dca80ed	0.09887872
114	0x3dbc2a77	0.09187787
115	0x3cbd4685	0.023104915
116	0xbd8e940f	-0.06961834
117	0x3d719315	0.05897816
118	0x3d63ddee	0.05563157
119	0x3d410f3d	0.047133673
120	0x3d1ccebe	0.038283102
121	0xbd44d726	-0.048056744
122	0xbd5d4083	-0.0540166
123	0xbd20073a	-0.03906939
124	0x3dc1b3f7	0.09458154
125	0xbd718146	-0.058961175
126	0xbd3b82ff	-0.045779224
127	0xbcc7fc25	-0.024412224
128	0x3d9cc862	0.076554075
129	0x3da23ff3	0.079223536
130	0x3d652061	0.055939082
131	0x3dce65a0	0.10077977
132	0x3d7a9fca	0.061187543
133	0x3daf7470	0.085671306
134	0x3b495517	0.0030720884
135	0x3d8f37ba	0.06993051
136	0xbdb7e7fa	-0.08979793
137	0xbbc83216	-0.0061094863
138	0x3d3e3cae	0.046444587
139	0xbd94ca2d	-0.072651245
140	0xbd45e48f	-0.048313674
141	0x3da2d415	0.07950608
142	0x3d5c2c42	0.053753145
143	0x3d936f4f	0.07198965
144	0xbb8b44f4	-0.004250163
145	0x3d3a7515	0.045521814
146	0xbd7ac960	-0.061227202
147	0x3d9bab5d	0.07601044
148	0x3d9d8327	0.07691031
149	0x3d591acc	0.05300407
150	0x3d5c9a61	0.053858165
151	0x3d91046e	0.07080923
152	0xbb0fe189	-0.0021954498
153	0xbd85d4ec	-0.06534752
154	0xbdcf8ad5	-0.10133902
155	0xbda958f7	-0.08268922
156	0xbdac913a	-0.08426137
157	0xbda4768e	-0.08030425
158	0xbdb12104	-0.08648875
159	0x3d5bfd9b	0.053708654
160	0x3cfaac05	0.030599603
161	0xbd726a10	-0.05918318
162	0x3d5cab7c	0.053874478
163	0x3d60b4da	0.054859973
164	0x3da7dfff	0.08197021
165	0xbd355141	-0.044266943
166	0xbd38af81	-0.04508925
167	0xbcbf28d8	-0.023334906
168	0xbce9654c	-0.028490685
169	0xbc84419d	-0.016144568
170	0x3ab756ba	0.0013987639
171	0x3d97878a	0.07398899
172	0x3c2791eb	0.010227661
173	0xbb38d922	-0.0028205593
174	0xbc3fdc97	-0.011710308
175	0xbc24add2	-0.010051208
176	0xbda25e4a	-0.079281405
177	0xbdb9e073	-0.090760134
178	0x3d5cca58	0.053903908
179	0x3d34fb9c	0.044185266
180	0xbda30b97	-0.07961195
181	0xbd823987	-0.06358629
182	0xbdb8622b	-0.09003099
183	0xb9a9e12b	-0.00032401955
184	0xbcad3b2a	-0.021146376
185	0xbd5137d5	-0.051078636
186	0x3d82af1a	0.06381054
187	0x3dc7a666	0.09748535
188	0x3d2a6106	0.041596435
189	0xbd1c6ea4	-0.038191453
190	0xbc3e50e8	-0.011615969
191	0xbda3daf6	-0.08000748
192	0xbd0f5209	-0.034990344
193	0xbd6cc64c	-0.057806298
194	0xbd5f2c98	-0.054485887
195	0xbd5b3dd9	-0.05352578
196	0x3d35a617	0.04434785
197	0x3d6e7f35	0.058226783
198	0xbcaa5830	-0.020794004
199	0x3dbc73de	0.092017874
200	0x3d56682f	0.05234545
201	0xbdca48cf	-0.098771684
202	0xbdaa78fa	-0.08323856
203	0xbb7c6d8c	-0.0038517443
204	0x3bb1bf52	0.0054244185
205	0xbd1bd207	-0.038042095
206	0xbdbb6dbc	-0.091517895
207	0xbc92dd5f	-0.017927824
208	0x3da33805	0.07969669
209	0xbd6a8914	-0.057259634
210	0xbcd5100a	-0.026008625
211	0xbd414a1c	-0.047189817
212	0x3da04b62	0.07826878
213	0xbdad9520	-0.08475709
214	0x3dbdcaa4	0.09267166
215	0x3d7c714b	0.061631482
216	0x3d383ac4	0.04497792
217	0xbd1cdeff	-0.038298603
218	0x3dbeac36	0.093101904
219	0xbd2c27b4	-0.04203005
220	0xbd36fbeb	-0.04467384
221	0x3d217ab4	0.03942366
222	0xbdc9f170	-0.09860504
223	0xbd0e7c5b	-0.034786563
224	0xbdc00d09	-0.09377486
225	0x3d3894a9	0.04506365
226	0xbd870865	-0.06593398
227	0x3cdbb1c9	0.026818173
228	0xbdba486f	-0.09095847
229	0x3dac301e	0.08407615
230	0xbd3d5cf8	-0.04623124
231	0x3d07e241	0.033174757
232	0x3c6f38f8	0.014600985
233	0x3d9bc178	0.076052606
234	0x3cebaa1a	0.028767634
235	0x3c88dd41	0.016707065
236	0xbd0932a0	-0.033495545
237	0x3d96aed6	0.07357566
238	0xbcdcfe5f	-0.026976762
239	0x3d2704df	0.04077613
240	0xbd0a1743	-0.03371359
241	0xbdac7665	-0.084210195
242	0xbd977f9a	-0.07397385
243	0xbdab57f4	-0.08366385
244	0x3ccd0a17	0.025029225
245	0xbdc7098d	-0.097186185
246	0xbdc6ee0e	-0.09713374
247	0x3d3c3bb9	0.045955393
248	0x3c5e9f67	0.013587809
249	0x3d9e0cac	0.07717261
250	0xbc5d1274	-0.013493169
251	0x3d610a1f	0.054941293
252	0xbcd7ef77	-0.026359303
253	0x3db00f50	0.08596671
254	0x3d0574f7	0.03258225
255	0xbd8dca53	-0.06923356

fc3.bias f4 [24]
0	0xbc45e1d4	-0.012077767
1	0x3dcb2e0c	0.09920892
2	0x3cd04785	0.025424728
3	0x3d8b8a80	0.06813526
4	0xbd66705e	-0.056259505
5	0x3d17e175	0.037080247
6	0x3d1a8ad9	0.03773007
7	0xbd9c681f	-0.07637047
8	0x3c5fbe13	0.013656157
9	0xbd9d0863	-0.07667615
10	0xbd6d3b94	-0.057918146
11	0xbd78a19a	-0.06070099
12	0x3d8bca05	0.068256415
13	0xbd893931	-0.067003615
14	0xbd3f7849	-0.046745572
15	0x3d1e3cc9	0.038632188
16	0x3ca386dd	0.019961769
17	0x3d16b40d	0.036792804
18	0x3c6ee396	0.014580628
19	0x3d62c0ac	0.055359527
20	0xbc4d8497	-0.012543819
21	0xbd2286ca	-0.039679326
22	0xbd31d0ea	-0.043412127
23	0xbdc1a286	-0.09454827

fc4.weight f4 [2, 24]
0	0xbd134f64	-0.035964385
1	0xbe0d3520	-0.13789797
2	0x3dff4aab	0.12465414
3	0xbe44fe61	-0.19237663
4	0xbe3ea072	-0.18615893
5	0xbe0908fc	-0.13382334
6	0x3e065d86	0.13121614
7	0xbdaf58a7	-0.08561831
8	0xbe1b6550	-0.15175366
9	0x3de4b711	0.1116773
10	0x3d4fc5c6	0.05072572
11	0xbe06889b	-0.13138048
12	0x3e127d17	0.1430553
13	0x3d30544a	0.043049134
14	0xbe3b7c9f	-0.18309258
15	0xbda2315f	-0.07919573
16	0x3cb59585	0.022166023
17	0xbe29906f	-0.16559003
18	0xbd3ceb72	-0.046122976
19	0xbdfd02d8	-0.12354058
20	0xbe34a9a0	-0.17642832
21	0xbc95f88f	-0.018306999
22	0x3cf38e5f	0.029730974
23	0x3e1758c2	0.14779952
24	0x3df44d28	0.11928779
25	0xbdb936e8	-0.09043676
26	0x3e188bec	0.14897126
27	0xbbdd0aa0	-0.0067456514
28	0x3e206c52	0.15666321
29	0xbd95edf7	-0.07320779
30	0x3e338815	0.1753238
31	0xbb0834c2	-0.00207834
32	0x3e0273b8	0.12739456
33	0xbe25488e	-0.16140959
34	0x3e3a24d3	0.1817811
35	0x3d8ce3d9	0.06879396
36	0x3e320e58	0.17388284
37	0xbe416c18	-0.1888889
38	0x3e14177c	0.14462084
39	0xbde4d43d	-0.11173294
40	0x3d5e09c2	0.054208525
41	0xbd6fc549	-0.058537755
42	0x3e1b6215	0.15174134
43	0xbd80d2cc	-0.06290206
44	0x3e131864	0.14364773
45	0x3d5f3349	0.05449227
46	0x3e3c7377	0.18403421
47	0x3b8a65e8	0.004223574

fc4.bias f4 [2]
0	0xbd0583f5	-0.032596547
1	0xbdc6a3d5	-0.09699217

fc5.weight f4 [1, 2]
0	0x3e92f102	0.286995
1	0x3de7ee6e	0.11324774
