T3-2024/Federated_Learning/Improved_FL/SRC/meta_parameters/client0.pth (torch, 34104 bytes, 9 tensors)

fc1.weight f4 [48, 12]
0	0x3e266542	0.16249564
1	0x3b861e60	0.0040929765
2	0xbe5429fc	-0.20719141
3	0xbe08d512	-0.1336253
4	0x3e024729	0.12722458
5	0x3e73f6ec	0.23824662
6	0x3d1053f0	0.0352363
7	0x3e0f5e77	0.14000879
8	0xbe8d6932	-0.2761932
9	0x3e231131	0.15924527
10	0x3e8c1c69	0.27365425
11	0xbddbdada	-0.10735102
12	0x3e5417f3	0.20712261
13	0xbe93c4b0	-0.28860998
14	0x3e10a41f	0.14125107
15	0xbbcb22a3	-0.0061991974
16	0x3e4b873b	0.19875805
17	0xbe60ca8d	-0.21952267
18	0xbde87c90	-0.113518834
19	0xbdfd673d	-0.12373207
20	0x3e8f8c35	0.28036657
21	0x3dbed2f8	0.09317583
22	0xbd7d1124	-0.061783925
23	0xbe8d8602	-0.27641302
24	0xbe30c472	-0.17262438
25	0xbdd00f7a	-0.10159202
26	0xbdfc80ad	-0.123292305
27	0xbdbcefce	-0.092254266
28	0x3e3b0587	0.18263827
29	0xbcfd8cf8	-0.030951008
30	0x3e255530	0.16145778
31	0x3e89a7c0	0.26885796
32	0x3dfd6792	0.1237327
33	0x3dcf61db	0.10126086
34	0x3d264520	0.040593266
35	0xbe1cd901	-0.15317155
36	0xbe627bc5	-0.22117527
37	0xbe720b8f	-0.23637222
38	0xbdf168d0	-0.117875695
39	0x3e81a144	0.25318348
40	0xbe91447b	-0.2837256
41	0x3e17e93b	0.14835064
42	0x3dd84e6b	0.10561832
43	0xbe85182c	-0.25995004
44	0xbde87097	-0.113496
45	0xbe3f53bb	-0.18684284
46	0xbe913b2a	-0.2836545
47	0xbe272bca	-0.16325298
48	0xbe042dfb	-0.12908165
49	0x3d6556b5	0.055990893
50	0xbdbd5708	-0.092451155
51	0x3dc82f6f	0.09774672
52	0x3e3bf102	0.18353656
53	0x3e34830e	0.17628118
54	0x3e13e7c8	0.14443886
55	0xbe19a9d1	-0.15006186
56	0xbd6f3130	-0.05839652
57	0x3e05b11b	0.13055842
58	0x3daa3227	0.08310347
59	0xbe2e29e5	-0.17008169
60	0x3e324df1	0.17412545
61	0x3e0fc889	0.14041342
62	0xbe4ff695	-0.20308907
63	0xbcb49c50	-0.022047192
64	0xbdc5146b	-0.09623035
65	0x3e553c8b	0.20823877
66	0xbe3c7d28	-0.18407118
67	0x3e1835cb	0.1486427
68	0x3e3a1b5d	0.18174501
69	0x3e28a180	0.16467857
70	0xbc85921c	-0.016305022
71	0x3db0fa50	0.08641493
72	0x3deb794f	0.11497747
73	0x3e24a3be	0.16078088
74	0xbe3fe87f	-0.18741034
75	0xbddb9f02	-0.10723688
76	0xbd350e78	-0.04420325
77	0x3c93ab14	0.018025912
78	0xbdb19102	-0.08670236
79	0xbdb5b936	-0.08873217
80	0xbd7cdeec	-0.061736032
81	0xbe04adc0	-0.12956905
82	0x3ca4e310	0.020127803
83	0xbe35320d	-0.17694874
84	0x3e8e6e32	0.27818447
85	0x3dbe09aa	0.09279187
86	0x3de86a5d	0.11348412
87	0xbd94f93d	-0.07274101
88	0x3c8092f9	0.015695082
89	0xbe754ee7	-0.2395588
90	0xbda10a53	-0.07863297
91	0xbda9e248	-0.08295113
92	0x3d985819	0.07438678
93	0xbe85fc0a	-0.26168853
94	0x3e75f7da	0.24020329
95	0xbe17fe69	-0.14843144
96	0x3e2cb0f4	0.16864377
97	0x3d1b69ee	0.03794282
98	0xbe5cdfff	-0.21569823
99	0x3e84a960	0.25910473
100	0x3de743df	0.11292242
101	0x3d9e9199	0.07742614
102	0xbd1fc9cf	-0.03901082
103	0x3d16079c	0.03662835
104	0x3dab9538	0.083780706
105	0x3e8d553d	0.27604094
106	0xbe407773	-0.18795566
107	0x3dda1121	0.10647798
108	0x3e4b7dda	0.19872227
109	0x3d28c2c9	0.041201387
110	0x3e92c8c9	0.28668812
111	0x3e92a188	0.28638864
112	0x3d431d32	0.047635265
113	0xbd06101b	-0.032730203
114	0x3e902cb0	0.28159094
115	0x3e257f39	0.16161813
116	0xbc8e2ca1	-0.017355265
117	0xbdb1e38a	-0.08685978
118	0x3deb313a	0.114839986
119	0x3e81c29f	0.25343797
120	0x3e920340	0.28518105
121	0xbe4d4945	-0.20047481
122	0x3d84aca0	0.06478238
123	0x3e005840	0.12533665
124	0xbd3336b2	-0.043753333
125	0xbe7489c6	-0.23880681
126	0x3e404bd1	0.18778922
127	0xbd56eaf9	-0.05247018
128	0xbe8f0d4a	-0.27939826
129	0xbe5ad29d	-0.21369405
130	0x3d9a0fd2	0.07522549
131	0x3db7eb5c	0.08980438
132	0xbe537012	-0.2064822
133	0xbe636126	-0.22205028
134	0x3e546952	0.20743302
135	0x3d79b7a2	0.06096614
136	0xbe4b609f	-0.19861077
137	0x3c5b9e75	0.013404478
138	0xbe822e26	-0.25425833
139	0xbe01c5a8	-0.12673056
140	0xbd354f75	-0.04426523
141	0x3a882cdb	0.0010389345
142	0xbe65042e	-0.22364876
143	0x3e28ef81	0.16497613
144	0x3e88561f	0.26628205
145	0x3e1f1526	0.15535411
146	0x3e00fbd4	0.12596065
147	0x3dc4f356	0.09616725
148	0xbd7f4a7e	-0.0623269
149	0xbe48dd2f	-0.19615625
150	0x3c40bba3	0.011763486
151	0x3e81ef7b	0.25378022
152	0x3d0a2f08	0.03373626
153	0x3d5d25a0	0.05399096
154	0xbe2abe37	-0.16674124
155	0x3d8be503	0.0683079
156	0x3d9064db	0.07050487
157	0x3e8452a5	0.25844303
158	0xb8a4fe5f	-7.86751e-05
159	0x3e0b423a	0.13599482
160	0x3e8a5ecb	0.27025446
161	0xbe76fea3	-0.24120574
162	0x3e5af767	0.21383439
163	0xbe2520b8	-0.16125762
164	0x3d5a8bc1	0.053355936
165	0x3dc85b3f	0.09783029
166	0x3da54cc0	0.080712795
167	0xbe8e1d8c	-0.27756917
168	0xbe843168	-0.25818944
169	0x3c4b36f7	0.012403241
170	0xbe5f5624	-0.21810204
171	0x3c68e2ab	0.014214198
172	0xbc200e91	-0.009769098
173	0x3e3465bc	0.17616934
174	0x3dcbe873	0.099564455
175	0x3e9302ce	0.28713077
176	0xbda189a7	-0.07887583
177	0xbe6bd44d	-0.23030205
178	0xbe05a185	-0.13049896
179	0x3dcbd346	0.099524066
180	0x3e65a345	0.22425564
181	0x3e8ed08f	0.27893493
182	0x3e22a670	0.15883803
183	0x3da66974	0.08125582
184	0x3e86117e	0.2618522
185	0x3e0f2639	0.13979425
186	0x3c6bd5cb	0.014394234
187	0x3e3aed09	0.18254484
188	0xbe32c943	-0.17459588
189	0x3e5cca12	0.21561459
190	0xbdbf07e2	-0.093276754
191	0x3df3714e	0.118868455
192	0xbbb77715	-0.0055989125
193	0xbe4a4266	-0.19751891
194	0x3dac9057	0.08425968
195	0x3b60670e	0.0034241113
196	0x3e69927e	0.22809789
197	0x3e90b4fb	0.28263077
198	0x3e21b4c2	0.1579161
199	0x3e25a3f5	0.16175826
200	0xbdc050b7	-0.09390395
201	0xbe903369	-0.28164223
202	0xbe61630c	-0.2201044
203	0xbdb0d5e4	-0.086345464
204	0xbe2b9734	-0.16756898
205	0x3ddb7226	0.107151315
206	0xbe4c68bc	-0.19961828
207	0x3e0a2a96	0.13492808
208	0xbe64cd6c	-0.22343987
209	0xbe413bdb	-0.1887049
210	0xbda399fc	-0.079883546
211	0xbe30577d	-0.17220874
212	0xbd30cadd	-0.043162216
213	0x3dd129d1	0.10213054
214	0xbdaa40c4	-0.08313134
215	0xbe63d42c	-0.22248906
216	0x3cd9d9ab	0.02659305
217	0xbe76ca6d	-0.24100657
218	0x3e2a3ee7	0.16625558
219	0x3d120a47	0.035654332
220	0xbc1e7f8c	-0.009673964
221	0x3d3cb343	0.046069395
222	0x3e93a636	0.28837746
223	0xbe6296bf	-0.22127818
224	0xbdd3f4c9	-0.103494234
225	0x3e89a704	0.26885235
226	0xbd154d5b	-0.036450725
227	0xbd354721	-0.044257287
228	0x3d870428	0.065925896
229	0xbe28a63c	-0.16469663
230	0xbe4c4e8c	-0.19951838
231	0xbe87da3a	-0.2653368
232	0x3d8f625f	0.07001185
233	0xbe2810ad	-0.16412611
234	0x3e7d0096	0.24707255
235	0xbe5446f5	-0.20730193
236	0x3d8c1db9	0.06841607
237	0x3de1b7c0	0.11021376
238	0x3e545bcf	0.20738147
239	0x3d90d35e	0.07071565
240	0xbe223ce3	-0.15843539
241	0xbdbd94f0	-0.09256923
242	0x3e897ef1	0.2685466
243	0xbd228f92	-0.0396877
244	0xbe7bc22a	-0.24585786
245	0xbd263502	-0.040577896
246	0xbe71c2ba	-0.23609439
247	0xbdc407dd	-0.09571812
248	0x3ce3c58e	0.027804162
249	0x3d5b6549	0.05356339
250	0xbe8d3498	-0.27579188
251	0xbe587cc7	-0.21141349
252	0x3d7a40f9	0.06109712
253	0xbde8f918	-0.11375636
254	0xbe4713bc	-0.19441122
255	0x3e43b05d	0.19110246

fc1.bias f4 [48]
0	0xbe4cbb4c	-0.19993323
1	0xbdcfcd9f	-0.10146641
2	0xbe80cb9d	-0.25155345
3	0x3e8eee51	0.27916196
4	0x3e07887f	0.13235663
5	0xbe537750	-0.20650983
6	0xbe4072cc	-0.18793792
7	0xbe8fc3ab	-0.2807897
8	0x3ca56c3e	0.020193215
9	0xbd27a7a2	-0.04093135
10	0x3e0946fb	0.13405983
11	0x3e31096b	0.17288749
12	0x3e1deeb0	0.15423083
13	0xbe5c1ec7	-0.21496116
14	0xbe92841c	-0.28616416
15	0xbe286426	-0.16444454
16	0xbe929408	-0.28628564
17	0x3e7dd662	0.24788812
18	0x3e1a1735	0.15047915
19	0x3de908a1	0.11378599
20	0x3e41fce1	0.18944122
21	0xbdbbfc60	-0.09178996
22	0x3db77225	0.08957318
23	0x3db7064b	0.08936747
24	0x3e1b8aac	0.15189618
25	0x3e2ae7b9	0.16689958
26	0x3e77447b	0.24147217
27	0xbd8ef5bd	-0.069804646
28	0xbe801759	-0.25017813
29	0x3e791b28	0.24326766
30	0x3da0e5e5	0.07856349
31	0xbe41268d	-0.18862362
32	0xbe5bfe07	-0.21483622
33	0x3df29c30	0.11846197
34	0xbe17eb92	-0.14835957
35	0xbdec7c48	-0.11547142
36	0x3e246288	0.16053212
37	0x3e218130	0.15771937
38	0xbe87999a	-0.26484376
39	0xbde8b206	-0.1136208
40	0x3e295eff	0.16540144
41	0xbe04ef7b	-0.1298198
42	0x3deb1f2c	0.11480555
43	0xbe423ec6	-0.18969259
44	0xbe4db29a	-0.20087662
45	0x3dc8218a	0.09772022
46	0xbcb7d94d	-0.022442484
47	0xbde2ff93	-0.11083903

fc2.weight f4 [96, 48]
0	0xbdd3bf50	-0.10339224
1	0x3dd0f07d	0.102021195
2	0x3cd17770	0.025569648
3	0x3dee74ab	0.116433464
4	0x3dccf574	0.10007754
5	0xbb5451bd	-0.0032397353
6	0x3d8f63a9	0.070014305
7	0x3dda3dd8	0.10656327
8	0x3d031ff0	0.03201288
9	0xbd3b45a4	-0.04572071
10	0x3e0528ca	0.13003841
11	0x3dedaf0d	0.11605654
12	0x388fc68d	6.855754e-05
13	0x3cf04263	0.02932853
14	0x3c962ada	0.01833098
15	0xbd7360a8	-0.05941835
16	0xbd2015b6	-0.039083205
17	0xbdc88ec2	-0.09792854
18	0xbd7110c2	-0.058853872
19	0x3d255cb2	0.040371604
20	0xbdbcf1a0	-0.09225774
21	0x3d450b3e	0.048106425
22	0xbe060ea4	-0.13091522
23	0xbdc8df37	-0.098082
24	0xbe0fb18b	-0.14032571
25	0xbde3ad55	-0.11117045
26	0xbd8ecc0d	-0.06972513
27	0xbcef3217	-0.02919869
28	0x3dead32c	0.11466059
29	0x3e0d6ad0	0.13810277
30	0x3db3a6c2	0.08772041
31	0xbdb49b3d	-0.08818672
32	0x3d838f94	0.0642387
33	0x3dee6f0a	0.11642273
34	0xbc5226bb	-0.012826617
35	0x3d5c5c43	0.053798925
36	0xbcba2d13	-0.022726571
37	0x3db310dd	0.08743451
38	0xbda00304	-0.07813075
39	0xbd9ec47e	-0.07752322
40	0x3d8acceb	0.06777366
41	0xbc16f27f	-0.009213089
42	0xbdd08275	-0.10181133
43	0xbdbdccab	-0.09267553
44	0x3e06e838	0.13174522
45	0x3d1f5041	0.038894895
46	0x3daea62d	0.08527789
47	0x3e0414fa	0.12898627
48	0xbe0d48d6	-0.13797316
49	0xbac8d52d	-0.001532232
50	0x3d33a970	0.04386276
51	0xbe11e4a7	-0.1424738
52	0x3d454ff0	0.048171937
53	0xbde0cd11	-0.10976613
54	0x3d590ddc	0.052991733
55	0xbbae5248	-0.0053198673
56	0x3ddc96b3	0.10770931
57	0x3d9b7c2c	0.07592043
58	0x3dc63533	0.09678116
59	0x3d9abac0	0.07555151
60	0x3ba8026d	0.0051272423
61	0xbcb502fa	-0.022096146
62	0x3dd49bfd	0.10381315
63	0x3c11d2e6	0.00890038
64	0x3defde50	0.117123246
65	0xbdb01a39	-0.085987516
66	0xbd3fd684	-0.046835437
67	0xbe07fe7c	-0.13280672
68	0x3d3e9dbf	0.046537157
69	0xbe121932	-0.14267424
70	0x3ddae705	0.10688595
71	0xbd1fb87d	-0.0389943
72	0xbd7341af	-0.059388813
73	0x3dda42f5	0.10657302
74	0xbdf0f6b8	-0.11765808
75	0xbd4e13f7	-0.05031201
76	0x3e0af140	0.13568592
77	0xbd382d30	-0.04496497
78	0xbde0148e	-0.109414205
79	0x3de5c8a5	0.112199105
80	0xbe134235	-0.14380725
81	0xbd80f155	-0.062960304
82	0x3b9dd24b	0.0048163286
83	0x3d313529	0.043263588
84	0xbd9b65ab	-0.07587751
85	0x3d883b7c	0.06651971
86	0x3bb0d601	0.005396605
87	0xbdc984e8	-0.09839803
88	0xbd9fce3d	-0.07803009
89	0x3da42b16	0.080160305
90	0x3d246433	0.04013462
91	0xbe0035a6	-0.12520465
92	0xbdf64f3c	-0.120268315
93	0xbce09f49	-0.027419703
94	0xbdcc6b62	-0.09981419
95	0x3dd4b886	0.103867576
96	0xbdf4c0d6	-0.11950843
97	0xbe05f767	-0.13082658
98	0xbd265fd6	-0.04061874
99	0xbd9679d7	-0.07347458
100	0x3cab0c05	0.020879755
101	0xbd3a6eff	-0.04551601
102	0xba6525fa	-0.00087413157
103	0xbe06ca50	-0.13163114
104	0x3d7e0820	0.062019467
105	0x3cd979cf	0.02654734
106	0xbd367a01	-0.044549946
107	0x3da54e16	0.08071534
108	0xbd9fad24	-0.07796696
109	0x3dd0638f	0.10175239
110	0x3d3ef621	0.046621446
111	0xbda233b1	-0.079200156
112	0x3caaba4c	0.020840786
113	0x3d3e9093	0.046524595
114	0xbd2f2fd6	-0.04277023
115	0x3e075b2a	0.1321837
116	0xbe0d9d4f	-0.1382954
117	0x3dff169f	0.124554865
118	0x3e0eb64c	0.13936728
119	0x3ae5471c	0.0017492506
120	0xbd8369a5	-0.064166345
121	0xbdfd2101	-0.123598106
122	0xbcd48bd6	-0.025945585
123	0x3db17dbc	0.0866656
124	0xbd53e970	-0.051736295
125	0x3c751eca	0.014960954
126	0x3d573514	0.052540854
127	0x3de80837	0.11329692
128	0x3dd8a18c	0.105776876
129	0x3dc3e13f	0.09564447
130	0xbbd7211f	-0.0065652276
131	0x3c2297ba	0.00992387
132	0xbe08c437	-0.133561
133	0x3da08394	0.078375965
134	0xbb805965	-0.0039169067
135	0xbdc0aa3a	-0.09407468
136	0x3c433ef3	0.011916864
137	0xbd5b6940	-0.05356717
138	0x3d8e4644	0.06946996
139	0xbd9296d4	-0.071576744
140	0x3dda1a80	0.10649586
141	0x3db1720b	0.0866433
142	0x3d074348	0.03302315
143	0x3dc40ca8	0.095727265
144	0xbd51440a	-0.051090278
145	0xbe03416a	-0.12817922
146	0x3ce9ff84	0.028564222
147	0xbdfab93f	-0.12242364
148	0xbd14040c	-0.036136672
149	0x3dd7c558	0.10535687
150	0x3d20cbe0	0.03925693
151	0xbcec1e2c	-0.02882298
152	0xbe10364f	-0.14083217
153	0x3c3190ac	0.010837715
154	0x3d89a300	0.06720543
155	0xbd0d571d	-0.034506906
156	0xbdb15258	-0.08658284
157	0xbc4d921b	-0.012547041
158	0xbcb33754	-0.021876968
159	0x3c483c22	0.012221368
160	0x3cd02710	0.025409251
161	0xbd758cbb	-0.059948664
162	0x3ce6b659	0.028163122
163	0x3d22d55b	0.039754253
164	0x3d2295af	0.03969353
165	0xbe0e39a6	-0.13889179
166	0xbe0243d5	-0.12721188
167	0x3e0842b4	0.13306695
168	0xbde371e7	-0.111057095
169	0xbda53d81	-0.080683716
170	0x3c7e2293	0.015511173
171	0xbd69aa20	-0.05704701
172	0x3e11226e	0.1417329
173	0xbdff1ded	-0.1245688
174	0xbd92d4ea	-0.071695164
175	0x3df6a5c0	0.12043333
176	0x3e071c90	0.1319449
177	0xbcc9be93	-0.024627006
178	0xbdf2b952	-0.11851753
179	0x3d82e95a	0.063921645
180	0xbb9185b2	-0.0044409866
181	0xbbaee1a0	-0.005336955
182	0x3d5dbe4c	0.05413656
183	0xbd3fd326	-0.046832226
184	0x3e111c9e	0.14171073
185	0x3df7f3f0	0.12107074
186	0xbcc832fb	-0.024438372
187	0x3d2691d5	0.04066642
188	0x3cebf9d8	0.028805658
189	0x3e0996dd	0.13436456
190	0xbd704330	-0.058657825
191	0xbdf445e5	-0.11927394
192	0xbd45e9fe	-0.048318855
193	0xbde880f0	-0.11352718
194	0xbd496b72	-0.049174733
195	0xbd647167	-0.05577221
196	0x3d18d9d2	0.037317105
197	0x3df2a478	0.11847776
198	0x3d663394	0.056201532
199	0x3d9da56c	0.07697567
200	0xbdc93725	-0.09824971
201	0xbd848856	-0.064713165
202	0xbdea7b3d	-0.11449287
203	0x3df012a9	0.11722309
204	0xbd637a54	-0.055536583
205	0xbdc67264	-0.09689787
206	0x3cd07cb4	0.025450088
207	0x3e13a8d9	0.14419879
208	0x3d6fb32f	0.058520492
209	0x3e096e6d	0.1342103
210	0xbdc14345	-0.09436659
211	0x3b339967	0.0027404667
212	0xbd9074b4	-0.07053509
213	0x3ddde2c2	0.10834266
214	0xbdd517ec	-0.10404953
215	0x3b0aa255	0.0021153886
216	0xbcb1a30a	-0.021684188
217	0xbe0f78a2	-0.14010862
218	0xbe0ac0db	-0.13550131
219	0xbd8655e2	-0.065593496
220	0xbe0d5145	-0.13800533
221	0x3d2100df	0.03930747
222	0xbd91a756	-0.07111995
223	0x3c8486b4	0.016177513
224	0x3d4da0d4	0.050202206
225	0xbccbaff5	-0.024864176
226	0x3d9dff91	0.07714761
227	0x3dbb8696	0.091565296
228	0xbcfcd3ec	-0.030862771
229	0x3cd6a945	0.02620376
230	0x3ccddf1e	0.025130805
231	0x3dbfcb5f	0.09364962
232	0x3c90fcb0	0.017698616
233	0x3d668295	0.056276876
234	0x3cafef51	0.02147642
235	0x3dc0ff0e	0.09423648
236	0x3e0df4fa	0.13862982
237	0xbe0892dd	-0.13337274
238	0x3d5a1c2c	0.053249523
239	0x3de64fb2	0.112456694
240	0xbd052a63	-0.032511126
241	0xbdbe7001	-0.09298707
242	0xbd82fcc7	-0.0639587
243	0xbe0eed46	-0.139577
244	0x3dbb0f62	0.091337934
245	0xbe09d3fd	-0.13459773
246	0xbda901e8	-0.08252317
247	0xbd5d71f4	-0.054063752
248	0x3dee170b	0.11625489
249	0x3dbdde77	0.092709474
250	0xbddc06d0	-0.10743487
251	0x3e0595d6	0.13045439
252	0x3e00e2c8	0.1258651
253	0xbdfd3f7c	-0.12365624
254	0x3dc9b284	0.09848502
255	0x3d4e886d	0.050423075

fc2.bias f4 [96]
0	0x3e0c4078	0.13696468
1	0xbd7bca20	-0.06147206
2	0xbdd64f29	-0.10464317
3	0x3cd0611f	0.025436936
4	0xbdc3478e	-0.09535132
5	0xbda23113	-0.079195164
6	0xbe0ca678	-0.13735378
7	0xbdf4eff9	-0.11959834
8	0xbd196333	-0.03744812
9	0x3cd71aa5	0.026257822
10	0x3c4598cf	0.012060358
11	0xbd838c0e	-0.06423198
12	0x3daf3c2c	0.08556399
13	0xbdc66227	-0.0968669
14	0xbda8a6b4	-0.08234921
15	0x3c72f0c8	0.014827915
16	0xbdbad398	-0.091223896
17	0x3d4de30f	0.050265368
18	0x3da1153d	0.07865379
19	0xbda32d90	-0.07967675
20	0x3dafcd27	0.085840516
21	0xbdafa98a	-0.08577259
22	0xbdfbb8e8	-0.122911274
23	0x3cebe30a	0.028794784
24	0xbdfe397d	-0.12413309
25	0x3e05dd68	0.13072741
26	0x3dbc78f3	0.09202757
27	0x3decd32b	0.115637146
28	0xbe132107	-0.14368068
29	0x3dfa77b8	0.12229866
30	0xba05af24	-0.00050996454
31	0xbd61b5ac	-0.055104896
32	0x3e0bab03	0.13639455
33	0x3bbde1a5	0.005794721
34	0xbd641d63	-0.055692088
35	0xbc72ab23	-0.01481131
36	0x3e096cef	0.13420461
37	0x3deab7c4	0.11460832
38	0x3be2da13	0.006922969
39	0x3cf3145c	0.029672794
40	0x3e047e5b	0.12938826
41	0xbc2b2b0c	-0.010447275
42	0xbdd42b52	-0.10359825
43	0x3dd570f5	0.104219355
44	0xbb9ae879	-0.00472742
45	0xbd6e687b	-0.05820511
46	0x3d7b8890	0.061409533
47	0x3e02a40f	0.12757896
48	0xbdad38bf	-0.08458089
49	0xbd75d0d7	-0.06001362
50	0x3d526b82	0.05137206
51	0xbd073b5a	-0.033015586
52	0xbdde7714	-0.10862556
53	0x3d5af8c3	0.053459894
54	0x3e12956c	0.14314812
55	0x3d8bad79	0.06820197
56	0xbd50baf3	-0.05095954
57	0xbda72f9c	-0.08163378
58	0xbd282da3	-0.041059148
59	0xbd0a9a32	-0.03383846
60	0x3ce5b5cf	0.028040795
61	0x3d11b900	0.03557682
62	0xbda7c5b9	-0.081920095
63	0xbd950b93	-0.07277598
64	0xbd8ecce4	-0.069726735
65	0xbc0cf4a7	-0.008603252
66	0xbdc6dfa7	-0.09710627
67	0x3c5cc683	0.013475063
68	0xbe0bd22e	-0.13654396
69	0x3dff7357	0.12473171
70	0x3d612b7a	0.054973103
71	0xbda8d0ee	-0.08242975
72	0x3d9f39c5	0.077746905
73	0x3dc28c3f	0.09499406
74	0x3dd8c878	0.105851114
75	0xbd82f037	-0.063934736
76	0x3dd6d989	0.1049071
77	0x3def6fc7	0.11691242
78	0xbcab3f87	-0.020904316
79	0xbcc70293	-0.02429322
80	0x3dadbeae	0.08483635
81	0x3d4597fd	0.04824065
82	0xbdec53f0	-0.11539447
83	0x3bbe957f	0.005816161
84	0xbce6bc8e	-0.028166082
85	0x3bd9673f	0.0066346223
86	0xbcfad643	-0.030619746
87	0xbde4a10c	-0.1116353
88	0xbdb6c0df	-0.08923506
89	0xbcfdc4c8	-0.030977622
90	0xbd495cd8	-0.04916081
91	0x3acfe888	0.0015862146
92	0xbbd86cdc	-0.006604774
93	0x3d64d9a0	0.055871606
94	0x3d31e2be	0.04342913
95	0x3bda741e	0.0066666743

fc3.weight f4 [24, 96]
0	0x3ca7a8f4	0.020466305
1	0x3c86b67d	0.016444439
2	0xbcd7bbc4	-0.02633465
3	0xbdc1bed3	-0.09460225
4	0xbbb8acf6	-0.005635853
5	0x3d31930b	0.04335312
6	0xbd365b40	-0.044520617
7	0x3d595df0	0.0530681
8	0xbc9d23b7	-0.01918207
9	0x3b9cd426	0.0047860323
10	0x3d5e89ac	0.054330513
11	0xbd9afbd7	-0.07567566
12	0xbca9b79a	-0.02071743
13	0xbcfdbb78	-0.030973181
14	0xbcf730b2	-0.030174587
15	0x3db6715e	0.08908342
16	0xbd0e7dad	-0.034787823
17	0x3cca2e1a	0.024680186
18	0x3d55e3cc	0.052219197
19	0xbd95adf0	-0.073085666
20	0x3d98d01e	0.0746157
21	0x3d439fc5	0.04775979
22	0x3d8547c3	0.06507828
23	0x3d98334c	0.07431659
24	0xbbded6f7	-0.006800528
25	0xbcfa03c3	-0.030519372
26	0xbdcbfa91	-0.09959901
27	0xbd2df626	-0.042471074
28	0x3da052d9	0.07828302
29	0xbdc2543e	-0.09488724
30	0x3d60a3cf	0.05484372
31	0xbd3cbc88	-0.046078235
32	0xbd8a1743	-0.06742718
33	0x3d5b749a	0.053577997
34	0xbccbc514	-0.024874248
35	0x36e0ea09	6.7029655e-06
36	0xbd007faf	-0.03137177
37	0x3dc07956	0.09398143
38	0xbd8b77f8	-0.068099916
39	0xbca5b4bd	-0.020227784
40	0xbd1945d9	-0.037420128
41	0xbd4c3e05	-0.049863834
42	0xbd66ded4	-0.05636485
43	0xbd5c459e	-0.05377733
44	0xbdbd50b1	-0.09243906
45	0x3d99f7fa	0.07518001
46	0xbce69aeb	-0.028150043
47	0x3dbdd83c	0.09269759
48	0x3d6eabb8	0.058269233
49	0x3d756f15	0.05992039
50	0x3c2f7c8c	0.010710847
51	0xbd372496	-0.044712625
52	0x3d8ee5dc	0.06977436
53	0x3c8bf8bb	0.017086377
54	0x3ca6a4a2	0.020342175
55	0xbd4fca1a	-0.05072985
56	0xbd1f71cf	-0.038926896
57	0xbd0f55bb	-0.03499387
58	0x3d0ce1f3	0.03439517
59	0x3d8cf959	0.06883497
60	0xbd59768c	-0.05309157
61	0x3c5e1cc8	0.013556667
62	0x3cc9c94f	0.024632124
63	0xbd044fce	-0.03230267
64	0xbd8a612c	-0.06756815
65	0x3d9f74e3	0.07785966
66	0xbc6d85aa	-0.0144972
67	0x3dbf14b3	0.0933012
68	0xbda3c632	-0.07996787
69	0x3d88c206	0.06677632
70	0x3dbd21bb	0.09234949
71	0x3dbe1071	0.0928048
72	0x3d059d8c	0.03262095
73	0xbdb936ea	-0.09043677
74	0xbd4461d6	-0.047944866
75	0x3dc04227	0.093876176
76	0xbc7a5ddd	-0.015281168
77	0x3d32d98a	0.043664493
78	0x3c61117a	0.013737077
79	0x3d873b96	0.06603162
80	0xbdbc8bd6	-0.09206359
81	0xbda52126	-0.08062963
82	0xbaedb5cd	-0.0018135846
83	0xbc9e2cb8	-0.019308433
84	0x3b0430e9	0.0020170754
85	0xbd935ed6	-0.07195823
86	0x3cf01d71	0.029310914
87	0xbd4945a2	-0.049138673
88	0x3d253b15	0.04033955
89	0xbdb003c9	-0.08594472
90	0xbda96ffb	-0.08273312
91	0x3cefe1dd	0.029282505
92	0xbd13b806	-0.03606417
93	0x3d2ffb54	0.042964295
94	0xbb2c0c93	-0.0026252612
95	0xbcbe7f55	-0.023254076
96	0x3d19b341	0.037524465
97	0xbccc2494	-0.024919786
98	0x3d6c777e	0.057731144
99	0xbda3964c	-0.07987651
100	0x3dc80e50	0.09768355
101	0x3dca1f71	0.09869278
102	0x3c873ab6	0.016507488
103	0x3cca6a36	0.024708848
104	0xbd16da50	-0.036829293
105	0xbd91a5ec	-0.07111725
106	0x3cb87f16	0.022521537
107	0x3daae018	0.08343524
108	0x3daff03f	0.08590745
109	0x3c954da0	0.018225491
110	0xbdb20cf5	-0.086938776
111	0x3c5362b6	0.0129019525
112	0x3d960d81	0.073267944
113	0x3dca8114	0.09887901
114	0x3dbc2aea	0.09187873
115	0x3cbd469c	0.023104958
116	0xbd8e9405	-0.06961826
117	0x3d7192c5	0.05897786
118	0x3d63de0c	0.055631682
119	0x3d410fd4	0.047134236
120	0x3d1ccec2	0.038283117
121	0xbd44d6e8	-0.048056513
122	0xbd5d4148	-0.054017335
123	0xbd2007eb	-0.03907005
124	0x3dc1b40d	0.0945817
125	0xbd718081	-0.05896044
126	0xbd3b828a	-0.04577879
127	0xbcc7fd81	-0.024412872
128	0x3d9cc84f	0.07655393
129	0x3da23ff6	0.07922356
130	0x3d65207e	0.05593919
131	0x3dce659a	0.10077973
132	0x3d7aa11d	0.061188806
133	0x3daf7494	0.085671574
134	0x3b494f93	0.0030717596
135	0x3d8f37b3	0.06993046
136	0xbdb7e7d7	-0.08979767
137	0xbbc834a5	-0.0061097913
138	0x3d3e3c8a	0.046444453
139	0xbd94c9e1	-0.07265068
140	0xbd45e479	-0.04831359
141	0x3da2d439	0.079506345
142	0x3d5c2c8b	0.053753417
143	0x3d936f7f	0.071990006
144	0xbb8b42ea	-0.00424992
145	0x3d3a74f1	0.04552168
146	0xbd7ac950	-0.061227143
147	0x3d9bab59	0.07601041
148	0x3d9d8302	0.076910034
149	0x3d591b0d	0.053004313
150	0x3d5c9aeb	0.05385868
151	0x3d9104dd	0.07081006
152	0xbb0fe855	-0.002195855
153	0xbd85d4e2	-0.06534745
154	0xbdcf8ad5	-0.10133902
155	0xbda958f1	-0.08268917
156	0xbdac9127	-0.08426123
157	0xbda47634	-0.08030358
158	0xbdb12100	-0.086488724
159	0x3d5bfdd5	0.05370887
160	0x3cfaabed	0.030599559
161	0xbd726a84	-0.059183612
162	0x3d5cab61	0.053874377
163	0x3d60b4d7	0.054859962
164	0x3da7e015	0.08197037
165	0xbd354fd0	-0.04426557
166	0xbd38af7a	-0.045089222
167	0xbcbf294e	-0.023335125
168	0xbce963e0	-0.028490007
169	0xbc84404f	-0.016143946
170	0x3ab74e3b	0.0013985106
171	0x3d978799	0.0739891
172	0x3c2792a6	0.010227835
173	0xbb38d2e5	-0.0028201875
174	0xbc3fdbd0	-0.011710122
175	0xbc24ad7a	-0.010051126
176	0xbda25e3b	-0.07928129
177	0xbdb9e045	-0.09075979
178	0x3d5cca59	0.05390391
179	0x3d34fc0a	0.044185676
180	0xbda30b9a	-0.07961197
181	0xbd82396a	-0.06358607
182	0xbdb861d9	-0.09003038
183	0xb9a9d90d	-0.00032395907
184	0xbcad3b2a	-0.021146376
185	0xbd5137d7	-0.051078644
186	0x3d82af2c	0.06381068
187	0x3dc7a5e2	0.097484365
188	0x3d2a607f	0.041595932
189	0xbd1c6fa5	-0.03819241
190	0xbc3e4ff1	-0.011615739
191	0xbda3db0b	-0.080007635
192	0xbd0f529b	-0.034990888
193	0xbd6cc635	-0.057806212
194	0xbd5f2c79	-0.05448577
195	0xbd5b3d88	-0.053525478
196	0x3d35a605	0.04434778
197	0x3d6e7f60	0.058226943
198	0xbcaa5834	-0.020794012
199	0x3dbc73bc	0.09201762
200	0x3d56687b	0.052345734
201	0xbdca48d0	-0.09877169
202	0xbdaa7901	-0.08323861
203	0xbb7c7829	-0.003852377
204	0x3bb1bea7	0.005424339
205	0xbd1bd1e9	-0.038041983
206	0xbdbb6db0	-0.091517806
207	0xbc92de6a	-0.01792832
208	0x3da33805	0.07969669
209	0xbd6a890f	-0.057259616
210	0xbcd511d6	-0.026009481
211	0xbd4149aa	-0.047189392
212	0x3da04b4c	0.07826862
213	0xbdad94d2	-0.08475651
214	0x3dbdca9b	0.092671596
215	0x3d7c7123	0.061631333
216	0x3d383abe	0.044977896
217	0xbd1cded6	-0.03829845
218	0x3dbeade3	0.0931051
219	0xbd2c2671	-0.042028848
220	0xbd36fbe7	-0.044673827
221	0x3d217ac5	0.039423723
222	0xbdc9f17d	-0.09860513
223	0xbd0e7b7d	-0.034785736
224	0xbdc00d0a	-0.09377487
225	0x3d389499	0.04506359
226	0xbd87086e	-0.06593405
227	0x3cdbb24b	0.026818415
228	0xbdba4937	-0.09095996
229	0x3dac3017	0.0840761
230	0xbd3d5d29	-0.046231423
231	0x3d07e25d	0.03317486
232	0x3c6f36c5	0.01460046
233	0x3d9bc1d6	0.07605331
234	0x3cebaa16	0.028767627
235	0x3c88de43	0.016707545
236	0xbd093289	-0.03349546
237	0x3d96aed6	0.07357566
238	0xbcdcfea7	-0.026976896
239	0x3d27056e	0.040776663
240	0xbd0a1781	-0.03371382
241	0xbdac764c	-0.08421001
242	0xbd977fd8	-0.07397431
243	0xbdab57f1	-0.08366383
244	0x3ccd0a57	0.025029344
245	0xbdc70ad4	-0.09718862
246	0xbdc6ee5b	-0.097134314
247	0x3d3c3b9a	0.045955278
248	0x3c5ea32e	0.01358871
249	0x3d9e0c86	0.077172324
250	0xbc5d1289	-0.013493189
251	0x3d610a1f	0.054941293
252	0xbcd7ef5a	-0.026359249
253	0x3db00f3b	0.08596655
254	0x3d057522	0.03258241
255	0xbd8dca82	-0.06923391

fc3.bias f4 [24]
0	0xbc45e262	-0.0120779
1	0x3dcb2f13	0.09921088
2	0x3cd045dd	0.025423938
3	0x3d8b8b50	0.06813681
4	0xbd666e3f	-0.056257483
5	0x3d17e369	0.03708211
6	0x3d1a89e6	0.037729166
7	0xbd9c6818	-0.07637042
8	0x3c5fc1b5	0.013657023
9	0xbd9d087a	-0.076676324
10	0xbd6d3be6	-0.05791845
11	0xbd789e5a	-0.06069789
12	0x3d8bc842	0.068253055
13	0xbd893982	-0.06700422
14	0xbd3f7825	-0.046745438
15	0x3d1e3e79	0.038633797
16	0x3ca387e2	0.019962255
17	0x3d16b43d	0.036792982
18	0x3c6ee30c	0.014580499
19	0x3d62c31d	0.055361856
20	0xbc4d7890	-0.012540951
21	0xbd2286d5	-0.039679367
22	0xbd31d13e	-0.04341244
23	0xbdc1a44c	-0.09455165

fc4.weight f4 [2, 24]
0	0xbd136def	-0.035993513
1	0xbe0d3bcb	-0.1379234
2	0x3dff4930	0.12465131
3	0xbe4502e9	-0.19239391
4	0xbe3ea82e	-0.18618843
5	0xbe090f4c	-0.13384742
6	0x3e065b31	0.13120724
7	0xbdaf593e	-0.085619435
8	0xbe1b6a4e	-0.15177271
9	0x3de4b266	0.11166839
10	0x3d4fc113	0.05072124
11	0xbe0698cd	-0.13144226
12	0x3e1273c8	0.1430198
13	0x3d3074ad	0.04308002
14	0xbe3b7d65	-0.18309553
15	0xbda240c0	-0.07922506
16	0x3cb5cb1a	0.022191573
17	0xbe299087	-0.16559039
18	0xbd3d07bc	-0.046149954
19	0xbdfd1341	-0.12357188
20	0xbe34b5af	-0.17647432
21	0xbc96384c	-0.018337391
22	0x3cf382ff	0.02972555
23	0x3e174cb1	0.14775349
24	0x3df44770	0.11927688
25	0xbdb93ba9	-0.090445824
26	0x3e188b62	0.1489692
27	0xbbdd44ac	-0.006752571
28	0x3e206968	0.1566521
29	0xbd95f35b	-0.07321807
30	0x3e338771	0.17532136
31	0xbb0844a6	-0.002079287
32	0x3e027193	0.12738638
33	0xbe2549a0	-0.16141367
34	0x3e3a2455	0.18177922
35	0x3d8cd681	0.06876851
36	0x3e320ac2	0.17386916
37	0xbe416889	-0.18887533
38	0x3e1416e8	0.14461863
39	0xbde4d9d0	-0.11174357
40	0x3d5e126b	0.054216783
41	0xbd6fc690	-0.058538973
42	0x3e1b5f7f	0.15173148
43	0xbd80d99e	-0.06291507
44	0x3e131372	0.14362887
45	0x3d5f26c0	0.054480314
46	0x3e3c72e6	0.18403205
47	0x3b89d30f	0.0042060683

fc4.bias f4 [2]
0	0xbd05ac76	-0.032635175
1	0xbdc6ac18	-0.09700793

fc5.weight f4 [1, 2]
0	0x3e92d832	0.2868057
1	0x3de71052	0.1128241
