T3-2024/Federated_Learning/Improved_FL/SRC/meta_parameters/client7.pth (torch, 34104 bytes, 9 tensors)

fc1.weight f4 [48, 12]
0	0x3e266549	0.16249575
1	0x3b861ee7	0.0040930393
2	0xbe5429fd	-0.20719142
3	0xbe08d50f	-0.13362525
4	0x3e024729	0.12722458
5	0x3e73f6ec	0.23824662
6	0x3d10541c	0.035236463
7	0x3e0f5e72	0.14000872
8	0xbe8d6932	-0.2761932
9	0x3e231133	0.1592453
10	0x3e8c1c6b	0.2736543
11	0xbddbdad9	-0.10735101
12	0x3e5417f1	0.20712258
13	0xbe93c4b1	-0.28861
14	0x3e10a425	0.14125116
15	0xbbcb21f6	-0.006199117
16	0x3e4b873d	0.19875808
17	0xbe60ca8f	-0.2195227
18	0xbde87c7c	-0.113518685
19	0xbdfd673e	-0.123732075
20	0x3e8f8c39	0.2803667
21	0x3dbed305	0.093175925
22	0xbd7d112a	-0.061783947
23	0xbe8d85fe	-0.2764129
24	0xbe30c46f	-0.17262433
25	0xbdd00f71	-0.10159195
26	0xbdfc80ac	-0.1232923
27	0xbdbcefce	-0.092254266
28	0x3e3b058b	0.18263833
29	0xbcfd8cf4	-0.030951
30	0x3e255535	0.16145785
31	0x3e89a7c1	0.268858
32	0x3dfd6799	0.12373275
33	0x3dcf61dc	0.10126087
34	0x3d264520	0.040593266
35	0xbe1cd901	-0.15317155
36	0xbe627bb1	-0.22117497
37	0xbe720b7e	-0.23637196
38	0xbdf168c8	-0.117875636
39	0x3e81a149	0.25318363
40	0xbe914476	-0.28372544
41	0x3e17e93d	0.14835067
42	0x3dd84e87	0.10561853
43	0xbe85182f	-0.25995013
44	0xbde87084	-0.11349586
45	0xbe3f53b4	-0.18684274
46	0xbe913b2a	-0.2836545
47	0xbe272bc5	-0.1632529
48	0xbe042def	-0.12908147
49	0x3d6556dc	0.05599104
50	0xbdbd56c5	-0.092450656
51	0x3dc82f8e	0.09774695
52	0x3e3bf121	0.18353702
53	0x3e34831d	0.17628141
54	0x3e13e7c7	0.14443885
55	0xbe19a9c4	-0.15006167
56	0xbd6f3101	-0.058396343
57	0x3e05b10a	0.13055816
58	0x3daa3230	0.08310354
59	0xbe2e29dd	-0.17008157
60	0x3e324de7	0.1741253
61	0x3e0fc884	0.14041334
62	0xbe4ff69d	-0.20308919
63	0xbcb49c45	-0.022047171
64	0xbdc51466	-0.09623031
65	0x3e553c7b	0.20823853
66	0xbe3c7d36	-0.18407139
67	0x3e1835c4	0.1486426
68	0x3e3a1b35	0.18174441
69	0x3e28a1a7	0.16467915
70	0xbc85921f	-0.016305028
71	0x3db0fa4c	0.0864149
72	0x3deb794f	0.11497747
73	0x3e24a3be	0.16078088
74	0xbe3fe87f	-0.18741034
75	0xbddb9f02	-0.10723688
76	0xbd350e78	-0.04420325
77	0x3c93ab14	0.018025912
78	0xbdb19102	-0.08670236
79	0xbdb5b936	-0.08873217
80	0xbd7cdeec	-0.061736032
81	0xbe04adc0	-0.12956905
82	0x3ca4e310	0.020127803
83	0xbe35320d	-0.17694874
84	0x3e8e6e33	0.2781845
85	0x3dbe09a5	0.09279183
86	0x3de86a60	0.113484144
87	0xbd94f93b	-0.072740994
88	0x3c8092f9	0.015695082
89	0xbe754ee7	-0.2395588
90	0xbda10a5c	-0.07863304
91	0xbda9e246	-0.08295111
92	0x3d985829	0.0743869
93	0xbe85fc0a	-0.26168853
94	0x3e75f7da	0.24020329
95	0xbe17fe66	-0.14843139
96	0x3e2cb101	0.16864397
97	0x3d1b6a2a	0.037943043
98	0xbe5cdff6	-0.2156981
99	0x3e84a967	0.25910494
100	0x3de74417	0.11292284
101	0x3d9e9186	0.077426
102	0xbd1fc973	-0.039010476
103	0x3d1607a1	0.03662837
104	0x3dab9573	0.083781146
105	0x3e8d553a	0.27604085
106	0xbe407778	-0.18795574
107	0x3dda114e	0.10647832
108	0x3e4b7dd6	0.19872221
109	0x3d28c2c2	0.04120136
110	0x3e92c8c7	0.28668806
111	0x3e92a186	0.28638858
112	0x3d431cf4	0.047635034
113	0xbd06100d	-0.03273015
114	0x3e902ca3	0.28159055
115	0x3e257f32	0.16161802
116	0xbc8e2c2b	-0.017355045
117	0xbdb1e360	-0.086859465
118	0x3deb314d	0.11484013
119	0x3e81c2a4	0.25343812
120	0x3e920347	0.28518125
121	0xbe4d4937	-0.2004746
122	0x3d84aca4	0.06478241
123	0x3e005844	0.1253367
124	0xbd3336a7	-0.043753292
125	0xbe7489cd	-0.23880692
126	0x3e404bee	0.18778965
127	0xbd56ead9	-0.052470062
128	0xbe8f0d49	-0.27939823
129	0xbe5ad2a7	-0.2136942
130	0x3d9a0fee	0.075225696
131	0x3db7eb84	0.08980468
132	0xbe53701a	-0.20648232
133	0xbe636133	-0.22205047
134	0x3e546940	0.20743275
135	0x3d79b74b	0.060965817
136	0xbe4b60a6	-0.19861087
137	0x3c5b9e20	0.013404399
138	0xbe822e25	-0.2542583
139	0xbe01c5a8	-0.12673056
140	0xbd354f9e	-0.044265382
141	0x3a88289e	0.0010388081
142	0xbe650431	-0.2236488
143	0x3e28ef71	0.1649759
144	0x3e88561f	0.26628205
145	0x3e1f1529	0.15535416
146	0x3e00fbeb	0.12596099
147	0x3dc4f36f	0.09616744
148	0xbd7f4a42	-0.062326677
149	0xbe48dd2c	-0.1961562
150	0x3c40be05	0.011764054
151	0x3e81ef77	0.2537801
152	0x3d0a2f4a	0.033736505
153	0x3d5d25a5	0.05399098
154	0xbe2abe2a	-0.16674104
155	0x3d8be536	0.06830828
156	0x3d9064ee	0.07050501
157	0x3e8452a8	0.25844312
158	0xb8a49d27	-7.849401e-05
159	0x3e0b4247	0.13599502
160	0x3e8a5ed2	0.27025467
161	0xbe76fea2	-0.24120572
162	0x3e5af768	0.2138344
163	0xbe2520b6	-0.1612576
164	0x3d5a8baa	0.05335585
165	0x3dc85b3e	0.09783028
166	0x3da54cb2	0.08071269
167	0xbe8e1d8d	-0.2775692
168	0xbe843168	-0.25818944
169	0x3c4b36f7	0.012403241
170	0xbe5f5624	-0.21810204
171	0x3c68e2ab	0.014214198
172	0xbc200e91	-0.009769098
173	0x3e3465bc	0.17616934
174	0x3dcbe873	0.099564455
175	0x3e9302ce	0.28713077
176	0xbda189a7	-0.07887583
177	0xbe6bd44d	-0.23030205
178	0xbe05a185	-0.13049896
179	0x3dcbd346	0.099524066
180	0x3e65a317	0.22425495
181	0x3e8ed07b	0.27893433
182	0x3e22a65f	0.15883778
183	0x3da6690e	0.08125506
184	0x3e861164	0.26185143
185	0x3e0f263e	0.13979432
186	0x3c6bd2f4	0.014393557
187	0x3e3aed07	0.18254481
188	0xbe32c92f	-0.17459558
189	0x3e5cca21	0.21561481
190	0xbdbf07c2	-0.093276516
191	0x3df37127	0.118868165
192	0xbbb777cf	-0.005598999
193	0xbe4a4268	-0.19751894
194	0x3dac904f	0.08425962
195	0x3b606835	0.00342418
196	0x3e699277	0.22809778
197	0x3e90b4fb	0.28263077
198	0x3e21b4b5	0.1579159
199	0x3e25a3f8	0.1617583
200	0xbdc050ba	-0.09390397
201	0xbe903369	-0.28164223
202	0xbe61630c	-0.2201044
203	0xbdb0d5fb	-0.086345635
204	0xbe2b9736	-0.16756901
205	0x3ddb7227	0.10715132
206	0xbe4c68c0	-0.19961834
207	0x3e0a2a94	0.13492805
208	0xbe64cd67	-0.2234398
209	0xbe413be0	-0.18870497
210	0xbda39a0e	-0.07988368
211	0xbe30577f	-0.17220877
212	0xbd30cade	-0.04316222
213	0x3dd129bc	0.10213038
214	0xbdaa40c6	-0.08313136
215	0xbe63d42e	-0.22248909
216	0x3cd9da25	0.026593277
217	0xbe76ca59	-0.24100627
218	0x3e2a3f17	0.1662563
219	0x3d120af3	0.035654973
220	0xbc1e7e85	-0.009673719
221	0x3d3cb3bb	0.04606984
222	0x3e93a64b	0.2883781
223	0xbe6296c0	-0.22127819
224	0xbdd3f496	-0.103493854
225	0x3e89a709	0.2688525
226	0xbd154d0b	-0.036450427
227	0xbd354684	-0.044256702
228	0x3d870479	0.0659265
229	0xbe28a619	-0.16469611
230	0xbe4c4e76	-0.19951805
231	0xbe87da29	-0.2653363
232	0x3d8f62d8	0.07001275
233	0xbe2810a8	-0.16412604
234	0x3e7d00d2	0.24707344
235	0xbe5446f1	-0.20730187
236	0x3d8c1dd5	0.068416275
237	0x3de1b7d6	0.11021392
238	0x3e545bcb	0.20738141
239	0x3d90d384	0.070715934
240	0xbe223cea	-0.1584355
241	0xbdbd9505	-0.09256939
242	0x3e897eec	0.26854646
243	0xbd228fb4	-0.039687827
244	0xbe7bc22c	-0.2458579
245	0xbd263520	-0.040578008
246	0xbe71c2b8	-0.23609436
247	0xbdc407de	-0.09571813
248	0x3ce3c579	0.027804123
249	0x3d5b6530	0.053563297
250	0xbe8d3498	-0.27579188
251	0xbe587cd4	-0.21141368
252	0x3d7a413a	0.06109736
253	0xbde8f903	-0.1137562
254	0xbe4713bf	-0.19441126
255	0x3e43b066	0.1911026

fc1.bias f4 [48]
0	0xbe4cbb49	-0.19993319
1	0xbdcfcd9a	-0.10146637
2	0xbe80cb9b	-0.2515534
3	0x3e8eee56	0.2791621
4	0x3e0788aa	0.13235727
5	0xbe537758	-0.20650995
6	0xbe4072cc	-0.18793792
7	0xbe8fc3ac	-0.28078973
8	0x3ca56d0b	0.020193597
9	0xbd27a7ba	-0.04093144
10	0x3e09470d	0.1340601
11	0x3e31094a	0.172887
12	0x3e1deeca	0.15423122
13	0xbe5c1eb1	-0.21496083
14	0xbe92841c	-0.28616416
15	0xbe286472	-0.16444567
16	0xbe92940d	-0.2862858
17	0x3e7dd65e	0.24788806
18	0x3e1a177a	0.15048018
19	0x3de90919	0.11378688
20	0x3e41fcce	0.18944094
21	0xbdbbfc47	-0.091789775
22	0x3db7723a	0.08957334
23	0x3db706a8	0.089368165
24	0x3e1b8aa0	0.151896
25	0x3e2ae7c4	0.16689974
26	0x3e774482	0.24147227
27	0xbd8ef5be	-0.06980465
28	0xbe801759	-0.25017813
29	0x3e791b33	0.24326782
30	0x3da0e632	0.07856406
31	0xbe412692	-0.1886237
32	0xbe5bfdea	-0.2148358
33	0x3df29c3d	0.11846206
34	0xbe17eb8e	-0.1483595
35	0xbdec7bef	-0.11547076
36	0x3e24626f	0.16053174
37	0x3e218137	0.15771948
38	0xbe87999a	-0.26484376
39	0xbde8b1fd	-0.113620736
40	0x3e295ee1	0.165401
41	0xbe04ef5c	-0.12981933
42	0x3deb1f29	0.11480553
43	0xbe423ec6	-0.18969259
44	0xbe4db29a	-0.20087662
45	0x3dc821a3	0.09772041
46	0xbcb7d75e	-0.022441562
47	0xbde2ffa3	-0.11083915

fc2.weight f4 [96, 48]
0	0xbdd3bf4e	-0.10339223
1	0x3dd0f086	0.10202126
2	0x3cd1776e	0.025569644
3	0x3dee74c6	0.116433665
4	0x3dccf596	0.10007779
5	0xbb54522b	-0.0032397609
6	0x3d8f63a9	0.070014305
7	0x3dda3dd7	0.10656326
8	0x3d031fff	0.032012936
9	0xbd3b4593	-0.045720648
10	0x3e0528b2	0.13003805
11	0x3dedaefc	0.11605641
12	0x388fc511	6.855478e-05
13	0x3cf042e2	0.029328767
14	0x3c962ada	0.01833098
15	0xbd73612e	-0.05941885
16	0xbd2015a8	-0.039083153
17	0xbdc88eac	-0.097928375
18	0xbd71106a	-0.058853544
19	0x3d255ceb	0.040371817
20	0xbdbcf195	-0.092257656
21	0x3d450b98	0.04810676
22	0xbe060eaa	-0.13091531
23	0xbdc8df4c	-0.098082155
24	0xbe0fb186	-0.14032564
25	0xbde3ad55	-0.11117045
26	0xbd8ecbf1	-0.069724925
27	0xbcef3216	-0.029198688
28	0x3dead32c	0.11466059
29	0x3e0d6ad3	0.13810281
30	0x3db3a6bf	0.08772039
31	0xbdb49b09	-0.08818633
32	0x3d838f8f	0.06423866
33	0x3dee6f38	0.11642307
34	0xbc5226aa	-0.012826601
35	0x3d5c5c20	0.053798795
36	0xbcba2d10	-0.022726566
37	0x3db310e1	0.08743454
38	0xbda00304	-0.07813075
39	0xbd9ec47e	-0.07752322
40	0x3d8accde	0.067773566
41	0xbc16f1f7	-0.009212962
42	0xbdd08275	-0.10181133
43	0xbdbdccab	-0.09267553
44	0x3e06e838	0.13174522
45	0x3d1f506a	0.03889505
46	0x3daea66c	0.08527836
47	0x3e0414fc	0.1289863
48	0xbe0d48d5	-0.13797314
49	0xbac8d5e8	-0.0015322538
50	0x3d33a970	0.04386276
51	0xbe11e4aa	-0.14247385
52	0x3d454fce	0.04817181
53	0xbde0cd0b	-0.10976609
54	0x3d590ddc	0.052991733
55	0xbbae5254	-0.005319873
56	0x3ddc96b7	0.10770934
57	0x3d9b7c53	0.07592072
58	0x3dc6351a	0.09678097
59	0x3d9ababf	0.0755515
60	0x3ba80396	0.0051273806
61	0xbcb502e3	-0.022096103
62	0x3dd49bfd	0.10381315
63	0x3c11d409	0.008900651
64	0x3defde53	0.11712327
65	0xbdb01a3a	-0.08598752
66	0xbd3fd66d	-0.04683535
67	0xbe07fe83	-0.13280682
68	0x3d3e9dc5	0.04653718
69	0xbe121936	-0.1426743
70	0x3ddae706	0.106885955
71	0xbd1fb883	-0.038994323
72	0xbd7341a6	-0.05938878
73	0x3dda42f3	0.10657301
74	0xbdf0f6c2	-0.11765815
75	0xbd4e13f7	-0.05031201
76	0x3e0af140	0.13568592
77	0xbd382d2a	-0.044964947
78	0xbde01487	-0.10941415
79	0x3de5c89f	0.11219906
80	0xbe134235	-0.14380725
81	0xbd80f149	-0.062960215
82	0x3b9dd247	0.004816327
83	0x3d313520	0.043263555
84	0xbd9b65b7	-0.0758776
85	0x3d883b7d	0.066519715
86	0x3bb0d601	0.005396605
87	0xbdc984e8	-0.09839803
88	0xbd9fce3e	-0.078030095
89	0x3da42b1d	0.08016036
90	0x3d246433	0.04013462
91	0xbe0035a6	-0.12520465
92	0xbdf64f3c	-0.120268315
93	0xbce09f32	-0.02741966
94	0xbdcc6b60	-0.09981418
95	0x3dd4b881	0.10386754
96	0xbdf4c0d6	-0.11950843
97	0xbe05f766	-0.13082656
98	0xbd265fd6	-0.04061874
99	0xbd9679d3	-0.07347455
100	0x3cab0c46	0.020879876
101	0xbd3a6efa	-0.04551599
102	0xba6525fa	-0.00087413157
103	0xbe06ca50	-0.13163114
104	0x3d7e085b	0.062019687
105	0x3cd97a21	0.026547493
106	0xbd3679e0	-0.044549823
107	0x3da54e1a	0.08071537
108	0xbd9fad26	-0.07796697
109	0x3dd063af	0.10175263
110	0x3d3ef621	0.046621446
111	0xbda233a3	-0.07920005
112	0x3caaba52	0.020840798
113	0x3d3e9090	0.046524584
114	0xbd2f2fba	-0.042770125
115	0x3e075b28	0.13218367
116	0xbe0d9d4e	-0.13829538
117	0x3dff16b5	0.12455503
118	0x3e0eb64c	0.13936728
119	0x3ae547ff	0.001749277
120	0xbd83699b	-0.06416627
121	0xbdfd2101	-0.123598106
122	0xbcd48bba	-0.025945533
123	0x3db17dbc	0.0866656
124	0xbd53e970	-0.051736295
125	0x3c751eeb	0.014960985
126	0x3d573510	0.05254084
127	0x3de80833	0.11329689
128	0x3dd8a1a2	0.10577704
129	0x3dc3e156	0.09564464
130	0xbbd7211f	-0.0065652276
131	0x3c229796	0.009923836
132	0xbe08c434	-0.13356096
133	0x3da08394	0.078375965
134	0xbb805964	-0.003916906
135	0xbdc0aa3a	-0.09407468
136	0x3c433f03	0.011916879
137	0xbd5b6941	-0.053567175
138	0x3d8e4644	0.06946996
139	0xbd9296d4	-0.071576744
140	0x3dda1a80	0.10649586
141	0x3db17209	0.086643286
142	0x3d074330	0.03302306
143	0x3dc40caa	0.09572728
144	0xbd514406	-0.051090263
145	0xbe034169	-0.1281792
146	0x3ce9ff89	0.028564231
147	0xbdfab94f	-0.12242376
148	0xbd1403b2	-0.036136337
149	0x3dd7c565	0.10535697
150	0x3d20cbe0	0.03925693
151	0xbcec1e29	-0.028822975
152	0xbe103653	-0.14083223
153	0x3c319589	0.010838875
154	0x3d89a315	0.067205586
155	0xbd0d572a	-0.034506954
156	0xbdb15245	-0.0865827
157	0xbc4d9202	-0.012547018
158	0xbcb33754	-0.021876968
159	0x3c483d32	0.012221621
160	0x3cd0273b	0.025409332
161	0xbd758cae	-0.059948616
162	0x3ce6b628	0.02816303
163	0x3d22d571	0.039754335
164	0x3d2295ba	0.03969357
165	0xbe0e39b1	-0.13889195
166	0xbe0243d2	-0.12721184
167	0x3e0842b0	0.1330669
168	0xbde371f0	-0.11105716
169	0xbda53d84	-0.08068374
170	0x3c7e2663	0.015512082
171	0xbd69aa20	-0.05704701
172	0x3e11226e	0.1417329
173	0xbdff1ddd	-0.12456868
174	0xbd92d4d9	-0.07169504
175	0x3df6a5d2	0.120433465
176	0x3e071c8e	0.13194486
177	0xbcc9bf07	-0.024627222
178	0xbdf2b952	-0.11851753
179	0x3d82e97d	0.063921906
180	0xbb91814e	-0.004440463
181	0xbbaee19d	-0.005336954
182	0x3d5dbe4c	0.05413656
183	0xbd3fd327	-0.04683223
184	0x3e111ca2	0.14171079
185	0x3df7f3f5	0.12107078
186	0xbcc832fb	-0.024438372
187	0x3d2691d5	0.04066642
188	0x3cebf9d8	0.028805658
189	0x3e0996dc	0.13436455
190	0xbd70430a	-0.058657683
191	0xbdf445e6	-0.119273946
192	0xbd45e9ff	-0.04831886
193	0xbde880f0	-0.11352718
194	0xbd496b72	-0.049174733
195	0xbd647166	-0.055772208
196	0x3d18d9b1	0.03731698
197	0x3df2a475	0.11847774
198	0x3d663394	0.056201532
199	0x3d9da56c	0.07697567
200	0xbdc93731	-0.0982498
201	0xbd84885b	-0.0647132
202	0xbdea7b3c	-0.11449286
203	0x3df012a8	0.117223084
204	0xbd637a5c	-0.055536613
205	0xbdc67266	-0.096897885
206	0x3cd07cb4	0.025450088
207	0x3e13a8c0	0.14419842
208	0x3d6fb32d	0.058520485
209	0x3e096e6e	0.13421032
210	0xbdc14353	-0.09436669
211	0x3b33988d	0.002740416
212	0xbd9074b4	-0.07053509
213	0x3ddde2b9	0.108342595
214	0xbdd517ec	-0.10404953
215	0x3b0aa209	0.002115371
216	0xbcb1a30a	-0.021684188
217	0xbe0f78a2	-0.14010862
218	0xbe0ac0de	-0.13550135
219	0xbd8655e2	-0.065593496
220	0xbe0d5145	-0.13800533
221	0x3d2100de	0.039307468
222	0xbd91a756	-0.07111995
223	0x3c8486a0	0.016177475
224	0x3d4da0be	0.050202124
225	0xbccbb03c	-0.024864309
226	0x3d9dff8e	0.07714759
227	0x3dbb868c	0.09156522
228	0xbcfcd429	-0.030862885
229	0x3cd6a944	0.026203759
230	0x3ccddf1e	0.025130805
231	0x3dbfcb5f	0.09364962
232	0x3c90fcad	0.01769861
233	0x3d668295	0.056276876
234	0x3cafef51	0.02147642
235	0x3dc0ff0e	0.09423648
236	0x3e0df4fa	0.13862982
237	0xbe0892de	-0.13337275
238	0x3d5a1bf7	0.053249326
239	0x3de64fb2	0.112456694
240	0xbd052a67	-0.03251114
241	0xbdbe7006	-0.092987105
242	0xbd82fcc7	-0.0639587
243	0xbe0eed4a	-0.13957706
244	0x3dbb0f5c	0.09133789
245	0xbe09d400	-0.13459778
246	0xbda901e8	-0.08252317
247	0xbd5d71f5	-0.054063756
248	0x3dee171f	0.11625504
249	0x3dbdde54	0.09270921
250	0xbddc06bf	-0.10743474
251	0x3e0595c7	0.13045417
252	0x3e00e2e3	0.1258655
253	0xbdfd3f79	-0.12365622
254	0x3dc9b284	0.09848502
255	0x3d4e8817	0.050422754

fc2.bias f4 [96]
0	0x3e0c40b1	0.13696553
1	0xbd7bca20	-0.06147206
2	0xbdd64ef0	-0.10464275
3	0x3cd06218	0.0254374
4	0xbdc347b3	-0.0953516
5	0xbda2312a	-0.079195336
6	0xbe0ca652	-0.13735321
7	0xbdf4effb	-0.11959835
8	0xbd1963ae	-0.037448578
9	0x3cd71c58	0.026258633
10	0x3c4599c9	0.012060591
11	0xbd838c39	-0.0642323
12	0x3daf3c1a	0.08556385
13	0xbdc661fb	-0.09686657
14	0xbda8a678	-0.082348764
15	0x3c72f019	0.014827752
16	0xbdbad3a3	-0.09122398
17	0x3d4de250	0.050264657
18	0x3da1154a	0.07865389
19	0xbda32d2f	-0.079676025
20	0x3dafcd08	0.085840285
21	0xbdafa896	-0.08577077
22	0xbdfbb8a5	-0.122910775
23	0x3cebe34d	0.028794909
24	0xbdfe3972	-0.124133006
25	0x3e05dd6b	0.13072746
26	0x3dbc78dc	0.092027396
27	0x3decd346	0.11563735
28	0xbe1320f5	-0.14368041
29	0x3dfa777b	0.1222982
30	0xba05bc4b	-0.0005101605
31	0xbd61b6cc	-0.05510597
32	0x3e0bab43	0.1363955
33	0x3bbde145	0.0057946765
34	0xbd641d6f	-0.055692133
35	0xbc72aa3c	-0.014811095
36	0x3e096cd0	0.13420415
37	0x3deab7f0	0.114608645
38	0x3be2d46f	0.0069222967
39	0x3cf314ad	0.029672945
40	0x3e047e6c	0.12938851
41	0xbc2b2ed2	-0.010448175
42	0xbdd42b17	-0.10359781
43	0x3dd570ff	0.10421943
44	0xbb9ae54d	-0.004727042
45	0xbd6e6991	-0.058206145
46	0x3d7b887e	0.061409466
47	0x3e02a42c	0.12757939
48	0xbdad38ab	-0.08458074
49	0xbd75d0be	-0.060013525
50	0x3d526b9c	0.051372156
51	0xbd073bb4	-0.03301592
52	0xbdde771f	-0.10862564
53	0x3d5af826	0.05345931
54	0x3e12951c	0.14314693
55	0x3d8bada8	0.06820232
56	0xbd50bac4	-0.050959364
57	0xbda72f6a	-0.081633404
58	0xbd282db5	-0.041059215
59	0xbd0a9a87	-0.033838775
60	0x3ce5b62f	0.028040973
61	0x3d11ba26	0.035577916
62	0xbda7c5b5	-0.081920065
63	0xbd950bed	-0.07277665
64	0xbd8eccde	-0.06972669
65	0xbc0cf4e8	-0.008603312
66	0xbdc6dfd7	-0.09710663
67	0x3c5cc7da	0.013475383
68	0xbe0bd243	-0.13654427
69	0x3dff73ed	0.12473283
70	0x3d612af0	0.05497259
71	0xbda8d14a	-0.08243044
72	0x3d9f3939	0.07774586
73	0x3dc28c9e	0.09499477
74	0x3dd8c7d5	0.1058499
75	0xbd82f058	-0.06393498
76	0x3dd6d9e5	0.10490779
77	0x3def703f	0.11691331
78	0xbcab4295	-0.020905772
79	0xbcc702e3	-0.024293369
80	0x3dadbec0	0.08483648
81	0x3d4597f8	0.04824063
82	0xbdec543b	-0.11539503
83	0x3bbe9920	0.0058165938
84	0xbce6bc6b	-0.028166017
85	0x3bd968f1	0.0066348244
86	0xbcfad605	-0.03061963
87	0xbde4a105	-0.111635245
88	0xbdb6c0fc	-0.089235276
89	0xbcfdc59e	-0.03097802
90	0xbd495d24	-0.04916109
91	0x3acfee32	0.0015863834
92	0xbbd864c2	-0.006603808
93	0x3d64d9e6	0.055871867
94	0x3d31e294	0.043428972
95	0x3bda7db7	0.0066678184

fc3.weight f4 [24, 96]
0	0x3ca7a8cc	0.02046623
1	0x3c86b678	0.01644443
2	0xbcd7bbc9	-0.02633466
3	0xbdc1bed0	-0.09460223
4	0xbbb8ad01	-0.005635858
5	0x3d31930b	0.04335312
6	0xbd365b3b	-0.044520598
7	0x3d595df4	0.053068116
8	0xbc9d23b7	-0.01918207
9	0x3b9cd398	0.004785966
10	0x3d5e89ac	0.054330513
11	0xbd9afbd1	-0.075675614
12	0xbca9b79d	-0.020717436
13	0xbcfdbb7a	-0.030973185
14	0xbcf730bc	-0.030174606
15	0x3db6715d	0.08908341
16	0xbd0e7dad	-0.034787823
17	0x3cca2e16	0.024680179
18	0x3d55e3c9	0.052219186
19	0xbd95adf3	-0.07308569
20	0x3d98d017	0.07461565
21	0x3d439fba	0.04775975
22	0x3d8547c3	0.06507828
23	0x3d98334d	0.0743166
24	0xbbded6f8	-0.0068005286
25	0xbcfa03ba	-0.030519355
26	0xbdcbfaa6	-0.09959917
27	0xbd2df638	-0.04247114
28	0x3da052da	0.07828303
29	0xbdc25440	-0.09488726
30	0x3d60a3ba	0.05484364
31	0xbd3cbc92	-0.046078272
32	0xbd8a174d	-0.067427255
33	0x3d5b749d	0.053578008
34	0xbccbc51d	-0.024874264
35	0x36e01873	6.6785665e-06
36	0xbd007f90	-0.031371653
37	0x3dc0794e	0.09398137
38	0xbd8b77fb	-0.06809994
39	0xbca5b4be	-0.020227786
40	0xbd1945ce	-0.037420087
41	0xbd4c3e18	-0.049863905
42	0xbd66ded2	-0.05636484
43	0xbd5c4598	-0.053777307
44	0xbdbd50af	-0.09243905
45	0x3d99f7fa	0.07518001
46	0xbce69af1	-0.028150054
47	0x3dbdd837	0.09269755
48	0x3d6eabbb	0.058269244
49	0x3d756f10	0.05992037
50	0x3c2f7c66	0.010710811
51	0xbd372496	-0.044712625
52	0x3d8ee5dc	0.06977436
53	0x3c8bf8ae	0.017086353
54	0x3ca6a482	0.020342115
55	0xbd4fca0e	-0.050729804
56	0xbd1f71de	-0.03892695
57	0xbd0f55b9	-0.03499386
58	0x3d0ce1f5	0.034395177
59	0x3d8cf957	0.06883495
60	0xbd597693	-0.053091597
61	0x3c5e1cfc	0.013556715
62	0x3cc9c94e	0.024632122
63	0xbd044fd0	-0.032302678
64	0xbd8a612b	-0.067568146
65	0x3d9f74dd	0.07785962
66	0xbc6d85df	-0.014497249
67	0x3dbf14b1	0.093301184
68	0xbda3c630	-0.07996786
69	0x3d88c202	0.06677629
70	0x3dbd21bc	0.0923495
71	0x3dbe106f	0.09280478
72	0x3d059d84	0.03262092
73	0xbdb936df	-0.09043669
74	0xbd4461d7	-0.04794487
75	0x3dc04225	0.09387616
76	0xbc7a5dcb	-0.015281151
77	0x3d32d989	0.04366449
78	0x3c61111a	0.0137369875
79	0x3d873b9e	0.06603168
80	0xbdbc8be7	-0.09206372
81	0xbda5211f	-0.08062958
82	0xbaedb5b4	-0.0018135817
83	0xbc9e2cb9	-0.019308435
84	0x3b0430f0	0.002017077
85	0xbd935ed4	-0.071958214
86	0x3cf01d84	0.02931095
87	0xbd4945a2	-0.049138673
88	0x3d253b1a	0.040339567
89	0xbdb003c5	-0.08594469
90	0xbda96ff9	-0.0827331
91	0x3cefe1cc	0.029282473
92	0xbd13b806	-0.03606417
93	0x3d2ffb4e	0.042964272
94	0xbb2c0cba	-0.0026252703
95	0xbcbe7f65	-0.023254106
96	0x3d19b42e	0.03752535
97	0xbccc248e	-0.024919774
98	0x3d6c778e	0.057731204
99	0xbda3967f	-0.07987689
100	0x3dc80e46	0.097683474
101	0x3dca1fad	0.09869323
102	0x3c873a85	0.016507396
103	0x3cca68fa	0.02470826
104	0xbd16da00	-0.036828995
105	0xbd91a57d	-0.071116425
106	0x3cb87e84	0.022521265
107	0x3daae00d	0.083435155
108	0x3daff03b	0.08590742
109	0x3c954e44	0.018225797
110	0xbdb20cf7	-0.08693879
111	0x3c5362bf	0.012901961
112	0x3d960d83	0.07326796
113	0x3dca80d2	0.09887852
114	0x3dbc2b2b	0.09187921
115	0x3cbd46aa	0.023104984
116	0xbd8e93d6	-0.06961791
117	0x3d719389	0.05897859
118	0x3d63de07	0.055631664
119	0x3d410fb3	0.047134113
120	0x3d1ccebe	0.038283102
121	0xbd44d6fb	-0.048056584
122	0xbd5d4017	-0.0540162
123	0xbd200720	-0.039069295
124	0x3dc1b3ff	0.0945816
125	0xbd718101	-0.05896092
126	0xbd3b826b	-0.045778673
127	0xbcc7f9f7	-0.024411185
128	0x3d9cc8cc	0.076554865
129	0x3da24005	0.07922367
130	0x3d6520b7	0.055939402
131	0x3dce65bb	0.10077997
132	0x3d7aa044	0.061187997
133	0x3daf74b8	0.08567184
134	0x3b4952d0	0.0030719526
135	0x3d8f37ba	0.06993051
136	0xbdb7e7f4	-0.089797884
137	0xbbc82927	-0.0061084214
138	0x3d3e3cb9	0.04644463
139	0xbd94ca17	-0.07265108
140	0xbd45e3c4	-0.048312917
141	0x3da2d441	0.079506405
142	0x3d5c2c69	0.05375329
143	0x3d936f9a	0.07199021
144	0xbb8b44b3	-0.004250133
145	0x3d3a7562	0.0455221
146	0xbd7ac93f	-0.06122708
147	0x3d9bab64	0.076010495
148	0x3d9d8301	0.07691003
149	0x3d591c6f	0.053005632
150	0x3d5c9c1d	0.05385982
151	0x3d91048b	0.07080945
152	0xbb0fe8bf	-0.0021958796
153	0xbd85d4e0	-0.06534743
154	0xbdcf8adc	-0.10133907
155	0xbda958e4	-0.08268908
156	0xbdac90fd	-0.08426092
157	0xbda476ba	-0.08030458
158	0xbdb120ee	-0.08648859
159	0x3d5bfdf6	0.053708993
160	0x3cfaacb2	0.030599926
161	0xbd726a2c	-0.059183285
162	0x3d5cabb0	0.05387467
163	0x3d60b498	0.054859728
164	0x3da7dfe7	0.08197003
165	0xbd355050	-0.044266045
166	0xbd38afc5	-0.045089502
167	0xbcbf28d9	-0.023334907
168	0xbce96373	-0.028489804
169	0xbc8441a8	-0.016144589
170	0x3ab77218	0.0013995795
171	0x3d97878a	0.07398899
172	0x3c2792ce	0.010227872
173	0xbb38d799	-0.0028204678
174	0xbc3fda3a	-0.011709744
175	0xbc24ac48	-0.010050841
176	0xbda25d64	-0.07927969
177	0xbdb9e082	-0.090760246
178	0x3d5cca51	0.05390388
179	0x3d34fc25	0.044185776
180	0xbda30b9b	-0.07961198
181	0xbd823979	-0.06358618
182	0xbdb86243	-0.09003117
183	0xb9a9d3e2	-0.00032392057
184	0xbcad3b89	-0.021146553
185	0xbd513782	-0.051078327
186	0x3d82af27	0.06381064
187	0x3dc7a64f	0.09748518
188	0x3d2a60b2	0.041596122
189	0xbd1c6ef6	-0.038191758
190	0xbc3e504b	-0.011615823
191	0xbda3daf0	-0.080007434
192	0xbd0f53d3	-0.03499205
193	0xbd6cc646	-0.057806276
194	0xbd5f2c59	-0.054485653
195	0xbd5b3d6e	-0.05352538
196	0x3d35a5f9	0.044347737
197	0x3d6e7ef0	0.058226526
198	0xbcaa5829	-0.020793991
199	0x3dbc73cc	0.09201774
200	0x3d566824	0.05234541
201	0xbdca490a	-0.09877212
202	0xbdaa78cc	-0.083238214
203	0xbb7c7755	-0.0038523276
204	0x3bb1bfb2	0.005424463
205	0xbd1bd1d9	-0.038041923
206	0xbdbb6dc0	-0.091517925
207	0xbc92ddb0	-0.017927974
208	0x3da33803	0.07969668
209	0xbd6a88ff	-0.057259556
210	0xbcd512f1	-0.026010009
211	0xbd414a1e	-0.047189824
212	0x3da04b28	0.07826835
213	0xbdad9535	-0.084757246
214	0x3dbdcab6	0.0926718
215	0x3d7c717a	0.061631657
216	0x3d383ac5	0.044977922
217	0xbd1cdece	-0.03829842
218	0x3dbeac65	0.093102254
219	0xbd2c2786	-0.04202988
220	0xbd36fbf0	-0.04467386
221	0x3d217a07	0.039423015
222	0xbdc9f1be	-0.09860562
223	0xbd0e7c7a	-0.03478668
224	0xbdc00d32	-0.09377517
225	0x3d38949b	0.045063596
226	0xbd870859	-0.06593389
227	0x3cdbb1e0	0.026818216
228	0xbdba4889	-0.09095866
229	0x3dac3023	0.08407619
230	0xbd3d5d38	-0.04623148
231	0x3d07e263	0.033174884
232	0x3c6f38c0	0.014600933
233	0x3d9bc15a	0.07605238
234	0x3cebaa5b	0.028767755
235	0x3c88dea0	0.016707718
236	0xbd093355	-0.03349622
237	0x3d96aec1	0.073575504
238	0xbcdcfe66	-0.026976775
239	0x3d2704b5	0.040775973
240	0xbd0a1775	-0.033713777
241	0xbdac7674	-0.08421031
242	0xbd977fb6	-0.07397406
243	0xbdab57f1	-0.08366383
244	0x3ccd0a07	0.025029195
245	0xbdc70a00	-0.09718704
246	0xbdc6ee37	-0.097134046
247	0x3d3c3c6c	0.04595606
248	0x3c5ea0b8	0.013588123
249	0x3d9e0cb0	0.07717264
250	0xbc5d121e	-0.013493089
251	0x3d610a44	0.05494143
252	0xbcd7f03f	-0.026359675
253	0x3db00fdf	0.08596777
254	0x3d0574f1	0.032582227
255	0xbd8dca81	-0.0692339

fc3.bias f4 [24]
0	0xbc45e305	-0.012078051
1	0x3dcb3071	0.09921349
2	0x3cd04225	0.025422165
3	0x3d8b8b82	0.068137184
4	0xbd666ffa	-0.056259133
5	0x3d17e35f	0.037082072
6	0x3d1a8973	0.037728738
7	0xbd9c67e9	-0.07637007
8	0x3c5fc541	0.013657869
9	0xbd9d0891	-0.076676495
10	0xbd6d3d73	-0.05791993
11	0xbd78a143	-0.060700666
12	0x3d8bc72f	0.06825101
13	0xbd8938f8	-0.06700319
14	0xbd3f7551	-0.04674274
15	0x3d1e3f6f	0.038634714
16	0x3ca3860b	0.019961378
17	0x3d16b73d	0.036795843
18	0x3c6ee2f7	0.01458048
19	0x3d62c318	0.055361837
20	0xbc4d7d75	-0.012542118
21	0xbd2286e1	-0.03967941
22	0xbd31d280	-0.04341364
23	0xbdc1a30b	-0.09454926

fc4.weight f4 [2, 24]
0	0xbd138a74	-0.03602071
1	0xbe0d4414	-0.13795501
2	0x3dff3d43	0.124628566
3	0xbe450427	-0.19239865
4	0xbe3ea1b3	-0.18616371
5	0xbe090f6d	-0.1338479
6	0x3e0659b3	0.13120155
7	0xbdaf5d66	-0.08562736
8	0xbe1b6dc1	-0.15178587
9	0x3de4ad61	0.11165882
10	0x3d4faa87	0.050699737
11	0xbe068a99	-0.13138808
12	0x3e126f92	0.14300373
13	0x3d3030ac	0.043015167
14	0xbe3b88b7	-0.18313871
15	0xbda246f3	-0.07923689
16	0x3cb571e3	0.022149032
17	0xbe29986b	-0.16562049
18	0xbd3cfe8e	-0.0461412
19	0xbdfd1439	-0.12357373
20	0xbe34b121	-0.17645694
21	0xbc964071	-0.018341275
22	0x3cf351d8	0.029702112
23	0x3e175567	0.14778672
24	0x3df441c0	0.11926603
25	0xbdb9433c	-0.09046027
26	0x3e188925	0.14896066
27	0xbbdd5727	-0.006754774
28	0x3e206c3f	0.15666293
29	0xbd95f44a	-0.07321985
30	0x3e3386d3	0.175319
31	0xbb0897c6	-0.0020842417
32	0x3e02704e	0.12738153
33	0xbe254aa9	-0.16141762
34	0x3e3a21c3	0.18176942
35	0x3d8ce1db	0.06879016
36	0x3e3208a0	0.17386103
37	0xbe416f47	-0.18890105
38	0x3e1412a6	0.14460239
39	0xbde4dcad	-0.11174903
40	0x3d5e01c1	0.05420089
41	0xbd6fd451	-0.05855209
42	0x3e1b601f	0.15173386
43	0xbd80d9b7	-0.06291526
44	0x3e13153d	0.1436357
45	0x3d5f2373	0.054477166
46	0x3e3c7098	0.18402326
47	0x3b8a30af	0.0042172293

fc4.bias f4 [2]
0	0xbd05b2bd	-0.03264116
1	0xbdc6ad71	-0.0970105

fc5.weight f4 [1, 2]
0	0x3e92d380	0.28676987
1	0x3de70793	0.112807415
