T3-2024/Federated_Learning/Improved_FL/SRC/meta_parameters/client2.pth (torch, 34104 bytes, 9 tensors)

fc1.weight f4 [48, 12]
0	0x3e266541	0.16249563
1	0x3b861e3a	0.0040929588
2	0xbe5429ff	-0.20719145
3	0xbe08d513	-0.13362531
4	0x3e024727	0.12722455
5	0x3e73f6eb	0.2382466
6	0x3d10541b	0.03523646
7	0x3e0f5e70	0.14000869
8	0xbe8d6931	-0.27619317
9	0x3e231132	0.15924528
10	0x3e8c1c69	0.27365425
11	0xbddbdadf	-0.10735106
12	0x3e541808	0.20712292
13	0xbe93c4a7	-0.2886097
14	0x3e10a429	0.14125122
15	0xbbcb213f	-0.0061990316
16	0x3e4b873a	0.19875804
17	0xbe60ca89	-0.21952261
18	0xbde87c63	-0.1135185
19	0xbdfd6741	-0.1237321
20	0x3e8f8c3f	0.28036687
21	0x3dbed2fd	0.093175866
22	0xbd7d1123	-0.06178392
23	0xbe8d85ff	-0.27641293
24	0xbe30c471	-0.17262436
25	0xbdd00f76	-0.10159199
26	0xbdfc80ac	-0.1232923
27	0xbdbcefcd	-0.09225426
28	0x3e3b0589	0.1826383
29	0xbcfd8cf1	-0.030950995
30	0x3e255532	0.1614578
31	0x3e89a7c0	0.26885796
32	0x3dfd6799	0.12373275
33	0x3dcf61d8	0.10126084
34	0x3d264520	0.040593266
35	0xbe1cd901	-0.15317155
36	0xbe627bb4	-0.22117501
37	0xbe720b84	-0.23637205
38	0xbdf168db	-0.11787578
39	0x3e81a147	0.25318357
40	0xbe914478	-0.2837255
41	0x3e17e933	0.14835052
42	0x3dd84e60	0.10561824
43	0xbe85182e	-0.2599501
44	0xbde870b9	-0.11349625
45	0xbe3f53b9	-0.18684281
46	0xbe913b2a	-0.2836545
47	0xbe272bc8	-0.16325295
48	0xbe042e0b	-0.12908189
49	0x3d655679	0.05599067
50	0xbdbd56f1	-0.092450984
51	0x3dc82f47	0.097746424
52	0x3e3bf0eb	0.18353622
53	0x3e348310	0.17628121
54	0x3e13e78e	0.144438
55	0xbe19a9ce	-0.15006182
56	0xbd6f3151	-0.05839664
57	0x3e05b0fc	0.13055795
58	0x3daa321c	0.08310339
59	0xbe2e29df	-0.1700816
60	0x3e324dcb	0.17412488
61	0x3e0fc865	0.14041288
62	0xbe4ff6b5	-0.20308955
63	0xbcb49d63	-0.022047704
64	0xbdc514a0	-0.096230745
65	0x3e553c6c	0.2082383
66	0xbe3c7d45	-0.18407162
67	0x3e1835be	0.14864251
68	0x3e3a1b1a	0.18174401
69	0x3e28a179	0.16467847
70	0xbc8592b2	-0.016305301
71	0x3db0f9ef	0.08641421
72	0x3deb794f	0.11497747
73	0x3e24a3be	0.16078088
74	0xbe3fe87f	-0.18741034
75	0xbddb9f02	-0.10723688
76	0xbd350e78	-0.04420325
77	0x3c93ab14	0.018025912
78	0xbdb19102	-0.08670236
79	0xbdb5b936	-0.08873217
80	0xbd7cdeec	-0.061736032
81	0xbe04adc0	-0.12956905
82	0x3ca4e310	0.020127803
83	0xbe35320d	-0.17694874
84	0x3e8e6e36	0.2781846
85	0x3dbe09b9	0.09279198
86	0x3de86a69	0.11348421
87	0xbd94f939	-0.07274098
88	0x3c80931e	0.015695151
89	0xbe754ee3	-0.23955874
90	0xbda10a54	-0.07863298
91	0xbda9e246	-0.08295111
92	0x3d985843	0.074387096
93	0xbe85fc0a	-0.26168853
94	0x3e75f7db	0.2402033
95	0xbe17fe68	-0.14843142
96	0x3e2cb104	0.16864401
97	0x3d1b6a2a	0.037943043
98	0xbe5cdff8	-0.21569812
99	0x3e84a964	0.25910485
100	0x3de743f1	0.11292256
101	0x3d9e919d	0.07742617
102	0xbd1fc9cb	-0.039010804
103	0x3d1607bf	0.03662848
104	0x3dab953d	0.08378074
105	0x3e8d5542	0.2760411
106	0xbe407772	-0.18795565
107	0x3dda1125	0.10647801
108	0x3e4b7dd4	0.19872218
109	0x3d28c2c3	0.041201364
110	0x3e92c8c5	0.286688
111	0x3e92a18d	0.28638878
112	0x3d431d77	0.04763552
113	0xbd06101d	-0.03273021
114	0x3e902caa	0.28159076
115	0x3e257f38	0.16161811
116	0xbc8e2c12	-0.017354999
117	0xbdb1e390	-0.08685982
118	0x3deb3149	0.1148401
119	0x3e81c2a7	0.2534382
120	0x3e92034c	0.2851814
121	0xbe4d492a	-0.20047441
122	0x3d84ac88	0.0647822
123	0x3e005850	0.12533689
124	0xbd333622	-0.043752797
125	0xbe7489cd	-0.23880692
126	0x3e404bdb	0.18778937
127	0xbd56ead5	-0.052470047
128	0xbe8f0d41	-0.279398
129	0xbe5ad2a4	-0.21369416
130	0x3d9a0fca	0.07522543
131	0x3db7eba0	0.08980489
132	0xbe53700e	-0.20648214
133	0xbe636125	-0.22205026
134	0x3e546944	0.2074328
135	0x3d79b77d	0.060966004
136	0xbe4b609d	-0.19861074
137	0x3c5b9df5	0.013404359
138	0xbe822e26	-0.25425833
139	0xbe01c5a7	-0.12673055
140	0xbd354f6f	-0.044265207
141	0x3a882a39	0.001038856
142	0xbe650431	-0.2236488
143	0x3e28ef74	0.16497594
144	0x3e885612	0.26628166
145	0x3e1f150a	0.1553537
146	0x3e00fbbd	0.1259603
147	0x3dc4f336	0.09616701
148	0xbd7f4aeb	-0.062327307
149	0xbe48dd33	-0.19615631
150	0x3c40b9ee	0.011763079
151	0x3e81ef78	0.25378013
152	0x3d0a2eca	0.033736028
153	0x3d5d258b	0.053990882
154	0xbe2abe35	-0.1667412
155	0x3d8be4bc	0.06830737
156	0x3d9064e6	0.07050495
157	0x3e8452a9	0.25844315
158	0xb8a4f8d6	-7.866479e-05
159	0x3e0b4232	0.1359947
160	0x3e8a5ed1	0.27025464
161	0xbe76fea6	-0.24120578
162	0x3e5af74d	0.213834
163	0xbe2520b3	-0.16125755
164	0x3d5a8b8c	0.05335574
165	0x3dc85b42	0.09783031
166	0x3da54cc4	0.080712825
167	0xbe8e1d90	-0.2775693
168	0xbe843168	-0.25818944
169	0x3c4b36f7	0.012403241
170	0xbe5f5624	-0.21810204
171	0x3c68e2ab	0.014214198
172	0xbc200e90	-0.009769097
173	0x3e3465bc	0.17616934
174	0x3dcbe873	0.099564455
175	0x3e9302ce	0.28713077
176	0xbda189a7	-0.07887583
177	0xbe6bd44d	-0.23030205
178	0xbe05a185	-0.13049896
179	0x3dcbd346	0.099524066
180	0x3e65a33f	0.22425555
181	0x3e8ed08d	0.27893487
182	0x3e22a66b	0.15883796
183	0x3da6694b	0.08125552
184	0x3e86117a	0.2618521
185	0x3e0f263e	0.13979432
186	0x3c6bd496	0.014393946
187	0x3e3aed0e	0.18254492
188	0xbe32c93d	-0.17459579
189	0x3e5cca0e	0.21561453
190	0xbdbf07e8	-0.0932768
191	0x3df3717e	0.11886881
192	0xbbb777ae	-0.0055989837
193	0xbe4a4269	-0.19751896
194	0x3dac9055	0.08425967
195	0x3b606746	0.0034241243
196	0x3e699282	0.22809795
197	0x3e90b4fc	0.2826308
198	0x3e21b4be	0.15791604
199	0x3e25a3f5	0.16175826
200	0xbdc050ba	-0.09390397
201	0xbe903369	-0.28164223
202	0xbe61630c	-0.2201044
203	0xbdb0d5d1	-0.08634532
204	0xbe2b9734	-0.16756898
205	0x3ddb7227	0.10715132
206	0xbe4c68be	-0.19961831
207	0x3e0a2a90	0.13492799
208	0xbe64cd67	-0.2234398
209	0xbe413bde	-0.18870494
210	0xbda39a19	-0.07988376
211	0xbe30577e	-0.17220876
212	0xbd30caf3	-0.043162297
213	0x3dd129bc	0.10213038
214	0xbdaa40c6	-0.08313136
215	0xbe63d430	-0.22248912
216	0x3cd9d9fb	0.026593199
217	0xbe76ca60	-0.24100637
218	0x3e2a3ef2	0.16625574
219	0x3d120ab2	0.03565473
220	0xbc1e7ef6	-0.0096738245
221	0x3d3cb36e	0.046069555
222	0x3e93a63d	0.28837767
223	0xbe6296bf	-0.22127818
224	0xbdd3f4c0	-0.10349417
225	0x3e89a70c	0.2688526
226	0xbd154cf8	-0.036450356
227	0xbd354678	-0.044256657
228	0x3d870458	0.065926254
229	0xbe28a621	-0.16469623
230	0xbe4c4e81	-0.19951822
231	0xbe87da31	-0.26533654
232	0x3d8f627d	0.07001207
233	0xbe2810a3	-0.16412596
234	0x3e7d00ab	0.24707286
235	0xbe5446f3	-0.2073019
236	0x3d8c1dce	0.06841622
237	0x3de1b7f6	0.11021416
238	0x3e545bdc	0.20738167
239	0x3d90d383	0.07071593
240	0xbe223ce3	-0.15843539
241	0xbdbd94f8	-0.09256929
242	0x3e897eee	0.26854652
243	0xbd228fa4	-0.039687768
244	0xbe7bc22b	-0.24585788
245	0xbd263516	-0.04057797
246	0xbe71c2b6	-0.23609433
247	0xbdc407d9	-0.09571809
248	0x3ce3c566	0.027804088
249	0x3d5b6539	0.05356333
250	0xbe8d3498	-0.27579188
251	0xbe587ccd	-0.21141358
252	0x3d7a415a	0.06109748
253	0xbde8f8e9	-0.11375601
254	0xbe4713c2	-0.19441131
255	0x3e43b074	0.1911028

fc1.bias f4 [48]
0	0xbe4cbb4d	-0.19993325
1	0xbdcfcd71	-0.10146607
2	0xbe80cb9c	-0.25155342
3	0x3e8eee4f	0.2791619
4	0x3e078872	0.13235644
5	0xbe537791	-0.2065108
6	0xbe4072cc	-0.18793792
7	0xbe8fc3a4	-0.2807895
8	0x3ca56c91	0.02019337
9	0xbd27a764	-0.04093112
10	0x3e094718	0.13406026
11	0x3e31095c	0.17288727
12	0x3e1dee8e	0.15423033
13	0xbe5c1ec1	-0.21496107
14	0xbe92841c	-0.28616416
15	0xbe28643c	-0.16444486
16	0xbe929407	-0.2862856
17	0x3e7dd65b	0.24788801
18	0x3e1a1756	0.15047964
19	0x3de908d7	0.11378639
20	0x3e41fcd8	0.18944108
21	0xbdbbfc0f	-0.09178936
22	0x3db77250	0.0895735
23	0x3db70684	0.0893679
24	0x3e1b8aa4	0.15189606
25	0x3e2ae7b5	0.16689952
26	0x3e774473	0.24147205
27	0xbd8ef5ba	-0.06980462
28	0xbe801759	-0.25017813
29	0x3e791b2f	0.24326776
30	0x3da0e5d7	0.078563385
31	0xbe4126d7	-0.18862472
32	0xbe5bfdf0	-0.21483588
33	0x3df29c0e	0.11846171
34	0xbe17eb89	-0.14835943
35	0xbdec7c1d	-0.1154711
36	0x3e246226	0.16053066
37	0x3e218134	0.15771943
38	0xbe87999b	-0.2648438
39	0xbde8b1fe	-0.11362074
40	0x3e295eed	0.16540118
41	0xbe04ef81	-0.12981988
42	0x3deb1f33	0.1148056
43	0xbe423ec6	-0.18969259
44	0xbe4db29a	-0.20087662
45	0x3dc82192	0.09772028
46	0xbcb7d765	-0.022441575
47	0xbde2ffb6	-0.11083929

fc2.weight f4 [96, 48]
0	0xbdd3bf4c	-0.10339221
1	0x3dd0f07b	0.10202118
2	0x3cd1776f	0.025569646
3	0x3dee74ba	0.116433576
4	0x3dccf56f	0.1000775
5	0xbb54521b	-0.0032397571
6	0x3d8f63a9	0.070014305
7	0x3dda3dd8	0.10656327
8	0x3d032005	0.032012958
9	0xbd3b4520	-0.04572022
10	0x3e0528f0	0.13003898
11	0x3dedaf0d	0.11605654
12	0x389184ea	6.938896e-05
13	0x3cf042a1	0.029328646
14	0x3c962ada	0.01833098
15	0xbd7360bc	-0.059418425
16	0xbd20159e	-0.039083116
17	0xbdc88eb9	-0.09792847
18	0xbd711056	-0.05885347
19	0x3d255cba	0.040371634
20	0xbdbcf19f	-0.09225773
21	0x3d450b54	0.048106506
22	0xbe060ea3	-0.13091521
23	0xbdc8df46	-0.09808211
24	0xbe0fb18a	-0.1403257
25	0xbde3ad5c	-0.1111705
26	0xbd8ecbf5	-0.069724955
27	0xbcef3215	-0.029198686
28	0x3dead32c	0.11466059
29	0x3e0d6ad6	0.13810286
30	0x3db3a6ba	0.08772035
31	0xbdb49b0d	-0.08818636
32	0x3d838f73	0.06423845
33	0x3dee6f3c	0.1164231
34	0xbc5226d2	-0.012826638
35	0x3d5c5c2f	0.05379885
36	0xbcba2cbf	-0.022726415
37	0x3db310d9	0.08743448
38	0xbda00304	-0.07813075
39	0xbd9ec47e	-0.07752322
40	0x3d8acced	0.06777368
41	0xbc16f1f7	-0.009212962
42	0xbdd08275	-0.10181133
43	0xbdbdccab	-0.09267553
44	0x3e06e838	0.13174522
45	0x3d1f505c	0.038894996
46	0x3daea662	0.08527829
47	0x3e0414f9	0.12898625
48	0xbe0d48d6	-0.13797316
49	0xbac8d569	-0.001532239
50	0x3d33a970	0.04386276
51	0xbe11e4a8	-0.14247382
52	0x3d454fd6	0.04817184
53	0xbde0cd0c	-0.109766096
54	0x3d590ddc	0.052991733
55	0xbbae524e	-0.00531987
56	0x3ddc96af	0.10770928
57	0x3d9b7c33	0.075920485
58	0x3dc63524	0.096781045
59	0x3d9abac7	0.07555156
60	0x3ba80217	0.0051272023
61	0xbcb50326	-0.022096228
62	0x3dd49bfd	0.10381315
63	0x3c11d211	0.008900181
64	0x3defde52	0.11712326
65	0xbdb01a39	-0.085987516
66	0xbd3fd669	-0.046835337
67	0xbe07fe7f	-0.13280676
68	0x3d3e9dc2	0.04653717
69	0xbe121933	-0.14267425
70	0x3ddae707	0.10688596
71	0xbd1fb87e	-0.038994305
72	0xbd7341a5	-0.059388775
73	0x3dda42f1	0.10657299
74	0xbdf0f6ae	-0.117658004
75	0xbd4e13f6	-0.050312005
76	0x3e0af140	0.13568592
77	0xbd382d2b	-0.04496495
78	0xbde0148f	-0.10941421
79	0x3de5c8ac	0.11219916
80	0xbe134233	-0.14380722
81	0xbd80f13c	-0.06296012
82	0x3b9dd254	0.004816333
83	0x3d31352c	0.0432636
84	0xbd9b65ca	-0.07587774
85	0x3d883b7d	0.066519715
86	0x3bb0d602	0.0053966055
87	0xbdc984e8	-0.09839803
88	0xbd9fce3c	-0.07803008
89	0x3da42b1c	0.08016035
90	0x3d246433	0.04013462
91	0xbe0035a6	-0.12520465
92	0xbdf64f3c	-0.120268315
93	0xbce09f3a	-0.027419675
94	0xbdcc6b60	-0.09981418
95	0x3dd4b882	0.103867546
96	0xbdf4c0d6	-0.11950843
97	0xbe05f767	-0.13082658
98	0xbd265fd6	-0.04061874
99	0xbd9679d4	-0.073474556
100	0x3cab0be5	0.020879695
101	0xbd3a6efe	-0.045516007
102	0xba6525fa	-0.00087413157
103	0xbe06ca50	-0.13163114
104	0x3d7e0892	0.062019892
105	0x3cd97aa0	0.02654773
106	0xbd3679e9	-0.044549856
107	0x3da54e1b	0.08071538
108	0xbd9fad3b	-0.07796713
109	0x3dd06390	0.1017524
110	0x3d3ef621	0.046621446
111	0xbda23378	-0.07919973
112	0x3caaba4e	0.02084079
113	0x3d3e9090	0.046524584
114	0xbd2f2f9d	-0.042770017
115	0x3e075b32	0.13218382
116	0xbe0d9d4e	-0.13829538
117	0x3dff16c1	0.12455512
118	0x3e0eb64c	0.13936728
119	0x3ae54b2e	0.0017493719
120	0xbd83699b	-0.06416627
121	0xbdfd2101	-0.123598106
122	0xbcd48bbc	-0.025945537
123	0x3db17dbc	0.0866656
124	0xbd53e970	-0.051736295
125	0x3c751f27	0.014961041
126	0x3d573517	0.052540865
127	0x3de80841	0.11329699
128	0x3dd8a18e	0.10577689
129	0x3dc3e11f	0.09564423
130	0xbbd720f6	-0.0065652085
131	0x3c2297a7	0.009923852
132	0xbe08c439	-0.13356103
133	0x3da08396	0.07837598
134	0xbb805960	-0.0039169043
135	0xbdc0aa3a	-0.09407468
136	0x3c433ef7	0.011916867
137	0xbd5b6930	-0.05356711
138	0x3d8e4644	0.06946996
139	0xbd9296d4	-0.071576744
140	0x3dda1a80	0.10649586
141	0x3db17215	0.086643375
142	0x3d074334	0.033023074
143	0x3dc40ca7	0.09572726
144	0xbd51440a	-0.051090278
145	0xbe03416a	-0.12817922
146	0x3ce9ff83	0.02856422
147	0xbdfab952	-0.12242378
148	0xbd1403dd	-0.036136497
149	0x3dd7c558	0.10535687
150	0x3d20cbe0	0.03925693
151	0xbcec1e29	-0.028822975
152	0xbe10365b	-0.14083235
153	0x3c31941f	0.0108385375
154	0x3d89a2e7	0.06720524
155	0xbd0d572b	-0.034506958
156	0xbdb15252	-0.086582795
157	0xbc4d9235	-0.0125470655
158	0xbcb33753	-0.021876967
159	0x3c483a4d	0.012220931
160	0x3cd02714	0.025409259
161	0xbd758cb1	-0.059948627
162	0x3ce6b521	0.02816254
163	0x3d22d574	0.039754346
164	0x3d2295b5	0.039693553
165	0xbe0e39bb	-0.1388921
166	0xbe0243d5	-0.12721188
167	0x3e0842b3	0.13306694
168	0xbde371e8	-0.1110571
169	0xbda53d7f	-0.0806837
170	0x3c7e23a3	0.015511426
171	0xbd69aa20	-0.05704701
172	0x3e11226e	0.1417329
173	0xbdff1df0	-0.12456882
174	0xbd92d4d9	-0.07169504
175	0x3df6a5d4	0.12043348
176	0x3e071c7e	0.13194463
177	0xbcc9bf3d	-0.024627322
178	0xbdf2b954	-0.11851755
179	0x3d82e965	0.06392173
180	0xbb9183bd	-0.0044407533
181	0xbbaee1a5	-0.0053369575
182	0x3d5dbe4a	0.054136552
183	0xbd3fd326	-0.046832226
184	0x3e111c98	0.14171064
185	0x3df7f3df	0.121070616
186	0xbcc832fb	-0.024438372
187	0x3d2691d5	0.04066642
188	0x3cebf9d8	0.028805658
189	0x3e0996d5	0.13436444
190	0xbd704370	-0.058658063
191	0xbdf445e1	-0.11927391
192	0xbd45e9fe	-0.048318855
193	0xbde880f0	-0.11352718
194	0xbd496b72	-0.049174733
195	0xbd647167	-0.05577221
196	0x3d18d9b7	0.037317004
197	0x3df2a473	0.118477724
198	0x3d663394	0.056201532
199	0x3d9da56c	0.07697567
200	0xbdc9372b	-0.098249756
201	0xbd84885e	-0.064713225
202	0xbdea7b3c	-0.11449286
203	0x3df012a9	0.11722309
204	0xbd637a61	-0.05553663
205	0xbdc67264	-0.09689787
206	0x3cd07cb4	0.025450088
207	0x3e13a8c8	0.14419854
208	0x3d6fb32e	0.05852049
209	0x3e096e6d	0.1342103
210	0xbdc1434d	-0.09436665
211	0x3b33990b	0.0027404453
212	0xbd9074b4	-0.07053509
213	0x3ddde2bc	0.10834262
214	0xbdd517ec	-0.10404953
215	0x3b0aa21c	0.0021153754
216	0xbcb1a30a	-0.021684188
217	0xbe0f78a2	-0.14010862
218	0xbe0ac0db	-0.13550131
219	0xbd8655e2	-0.065593496
220	0xbe0d5145	-0.13800533
221	0x3d2100e2	0.039307483
222	0xbd91a755	-0.07111994
223	0x3c84869e	0.016177472
224	0x3d4da0d7	0.050202217
225	0xbccbb01b	-0.024864247
226	0x3d9dff8f	0.077147596
227	0x3dbb868e	0.09156524
228	0xbcfcd3f8	-0.030862793
229	0x3cd6a944	0.026203759
230	0x3ccddf1c	0.0251308
231	0x3dbfcb5f	0.09364962
232	0x3c90fcaf	0.017698614
233	0x3d668294	0.056276873
234	0x3cafef51	0.02147642
235	0x3dc0ff0e	0.09423648
236	0x3e0df4fa	0.13862982
237	0xbe0892dd	-0.13337274
238	0x3d5a1c06	0.05324938
239	0x3de64fb0	0.11245668
240	0xbd052a66	-0.032511137
241	0xbdbe6fff	-0.09298705
242	0xbd82fcc8	-0.063958704
243	0xbe0eed4b	-0.13957708
244	0x3dbb0f6d	0.091338016
245	0xbe09d402	-0.13459781
246	0xbda901e8	-0.08252317
247	0xbd5d71f7	-0.054063763
248	0x3dee16f1	0.116254695
249	0x3dbdde5d	0.09270928
250	0xbddc0705	-0.10743526
251	0x3e0595c9	0.1304542
252	0x3e00e29b	0.12586443
253	0xbdfd3f8e	-0.12365638
254	0x3dc9b284	0.09848502
255	0x3d4e883c	0.050422892

fc2.bias f4 [96]
0	0x3e0c40ab	0.13696544
1	0xbd7bca5c	-0.06147228
2	0xbdd64eff	-0.10464286
3	0x3cd0611f	0.025436936
4	0xbdc347a8	-0.09535152
5	0xbda23163	-0.07919576
6	0xbe0ca672	-0.13735369
7	0xbdf4effc	-0.11959836
8	0xbd19634d	-0.037448216
9	0x3cd71a8f	0.026257781
10	0x3c459926	0.012060439
11	0xbd838bf1	-0.06423176
12	0x3daf3c09	0.08556373
13	0xbdc66253	-0.096867226
14	0xbda8a683	-0.082348846
15	0x3c72ef21	0.014827521
16	0xbdbad3ad	-0.09122405
17	0x3d4de23b	0.05026458
18	0x3da114f7	0.07865327
19	0xbda32dc4	-0.079677135
20	0x3dafcd35	0.08584062
21	0xbdafa8de	-0.08577131
22	0xbdfbb905	-0.12291149
23	0x3cebdfbf	0.028793214
24	0xbdfe3975	-0.12413303
25	0x3e05dd75	0.1307276
26	0x3dbc7875	0.09202663
27	0x3decd317	0.115637
28	0xbe13210d	-0.14368077
29	0x3dfa781a	0.12229939
30	0xba059780	-0.00050961226
31	0xbd61b5b5	-0.05510493
32	0x3e0bab45	0.13639553
33	0x3bbde1fd	0.005794762
34	0xbd641e00	-0.055692673
35	0xbc72abc4	-0.01481146
36	0x3e096ce0	0.13420439
37	0x3deab7d3	0.11460843
38	0x3be2d94d	0.006922877
39	0x3cf31489	0.029672878
40	0x3e047e79	0.1293887
41	0xbc2b2d04	-0.010447744
42	0xbdd42afb	-0.103597604
43	0x3dd5716a	0.10422023
44	0xbb9ae77e	-0.004727303
45	0xbd6e6903	-0.058205616
46	0x3d7b8907	0.061409976
47	0x3e02a406	0.12757882
48	0xbdad38b2	-0.084580794
49	0xbd75d147	-0.060014036
50	0x3d526b88	0.05137208
51	0xbd073bb0	-0.033015907
52	0xbdde76eb	-0.108625256
53	0x3d5af790	0.05345875
54	0x3e129535	0.1431473
55	0x3d8bad87	0.06820207
56	0xbd50bb12	-0.050959654
57	0xbda72f77	-0.0816335
58	0xbd282dc5	-0.041059274
59	0xbd0a998b	-0.033837836
60	0x3ce5b533	0.028040504
61	0x3d11b999	0.03557739
62	0xbda7c5e4	-0.081920415
63	0xbd950c15	-0.07277695
64	0xbd8ecd0e	-0.06972705
65	0xbc0cf5e4	-0.008603547
66	0xbdc6dfd3	-0.0971066
67	0x3c5cc919	0.01347568
68	0xbe0bd233	-0.13654403
69	0x3dff73dd	0.12473271
70	0x3d612b58	0.054972976
71	0xbda8d14c	-0.08243045
72	0x3d9f393a	0.07774587
73	0x3dc28cab	0.094994865
74	0x3dd8c91c	0.105852336
75	0xbd82f04f	-0.063934915
76	0x3dd6d98c	0.104907125
77	0x3def7025	0.11691312
78	0xbcab40f2	-0.020904992
79	0xbcc7026e	-0.02429315
80	0x3dadbf13	0.0848371
81	0x3d459856	0.048240982
82	0xbdec53ea	-0.11539443
83	0x3bbe9609	0.0058162254
84	0xbce6bc82	-0.02816606
85	0x3bd9699d	0.0066349045
86	0xbcfad6c6	-0.03061999
87	0xbde4a0f8	-0.11163515
88	0xbdb6c123	-0.08923557
89	0xbcfdc53d	-0.03097784
90	0xbd495d40	-0.049161196
91	0x3acff7e3	0.0015866723
92	0xbbd869ef	-0.006604425
93	0x3d64d996	0.05587157
94	0x3d31e27e	0.04342889
95	0x3bda7aab	0.006667455

fc3.weight f4 [24, 96]
0	0x3ca7a8dc	0.02046626
1	0x3c86b673	0.01644442
2	0xbcd7bbc0	-0.026334643
3	0xbdc1bed4	-0.09460226
4	0xbbb8acf4	-0.005635852
5	0x3d31930d	0.04335313
6	0xbd365b3f	-0.044520613
7	0x3d595dfa	0.05306814
8	0xbc9d23b7	-0.01918207
9	0x3b9cd41e	0.0047860285
10	0x3d5e89a2	0.054330476
11	0xbd9afbd4	-0.07567564
12	0xbca9b79e	-0.020717438
13	0xbcfdbb7d	-0.03097319
14	0xbcf730b3	-0.030174589
15	0x3db6715e	0.08908342
16	0xbd0e7dad	-0.034787823
17	0x3cca2e17	0.02468018
18	0x3d55e3c3	0.052219164
19	0xbd95adf0	-0.073085666
20	0x3d98d01f	0.07461571
21	0x3d439fba	0.04775975
22	0x3d8547c4	0.06507829
23	0x3d983346	0.07431655
24	0xbbded6f1	-0.0068005254
25	0xbcfa03bf	-0.030519364
26	0xbdcbfa8a	-0.09959896
27	0xbd2df625	-0.04247107
28	0x3da052d9	0.07828302
29	0xbdc25440	-0.09488726
30	0x3d60a3c7	0.05484369
31	0xbd3cbc86	-0.046078227
32	0xbd8a174c	-0.06742725
33	0x3d5b7498	0.05357799
34	0xbccbc51c	-0.024874263
35	0x36e0814b	6.690772e-06
36	0xbd007f91	-0.031371657
37	0x3dc07951	0.09398139
38	0xbd8b77fe	-0.06809996
39	0xbca5b4ba	-0.020227779
40	0xbd1945d6	-0.037420116
41	0xbd4c3e08	-0.049863845
42	0xbd66ded3	-0.056364845
43	0xbd5c4588	-0.053777248
44	0xbdbd50b4	-0.092439085
45	0x3d99f7fb	0.07518002
46	0xbce69ae9	-0.028150039
47	0x3dbdd83f	0.09269761
48	0x3d6eabb4	0.058269218
49	0x3d756f12	0.059920378
50	0x3c2f7c66	0.010710811
51	0xbd372493	-0.044712614
52	0x3d8ee5db	0.06977435
53	0x3c8bf88b	0.017086288
54	0x3ca6a493	0.020342147
55	0xbd4fca19	-0.050729845
56	0xbd1f71e1	-0.038926963
57	0xbd0f55bb	-0.03499387
58	0x3d0ce1f4	0.034395173
59	0x3d8cf95a	0.068834975
60	0xbd59768f	-0.053091582
61	0x3c5e1cde	0.013556687
62	0x3cc9c947	0.02463211
63	0xbd044fd2	-0.032302685
64	0xbd8a612e	-0.06756817
65	0x3d9f74e5	0.07785968
66	0xbc6d85a7	-0.014497197
67	0x3dbf14af	0.09330117
68	0xbda3c632	-0.07996787
69	0x3d88c20c	0.066776365
70	0x3dbd21b9	0.09234948
71	0x3dbe106d	0.09280477
72	0x3d059d84	0.03262092
73	0xbdb936e3	-0.09043672
74	0xbd4461c3	-0.047944795
75	0x3dc04225	0.09387616
76	0xbc7a5df7	-0.015281192
77	0x3d32d987	0.04366448
78	0x3c61116d	0.013737065
79	0x3d873b98	0.066031635
80	0xbdbc8bd8	-0.092063606
81	0xbda52124	-0.08062962
82	0xbaedb5e1	-0.0018135869
83	0xbc9e2cac	-0.01930841
84	0x3b0430ed	0.0020170764
85	0xbd935ed6	-0.07195823
86	0x3cf01d62	0.029310886
87	0xbd4945a2	-0.049138673
88	0x3d253b19	0.040339563
89	0xbdb003c8	-0.08594471
90	0xbda96ffc	-0.082733124
91	0x3cefe1ec	0.029282533
92	0xbd13b80b	-0.03606419
93	0x3d2ffb41	0.042964224
94	0xbb2c0c74	-0.002625254
95	0xbcbe7f79	-0.023254143
96	0x3d19b3a9	0.037524853
97	0xbccc24bc	-0.02491986
98	0x3d6c7750	0.057730973
99	0xbda39667	-0.07987671
100	0x3dc80e49	0.0976835
101	0x3dca1f63	0.09869268
102	0x3c873ae7	0.016507579
103	0x3cca693d	0.024708385
104	0xbd16da2d	-0.036829162
105	0xbd91a5e2	-0.07111718
106	0x3cb87e09	0.022521036
107	0x3daae01d	0.083435275
108	0x3daff03c	0.08590743
109	0x3c954dcd	0.018225575
110	0xbdb20cf4	-0.08693877
111	0x3c536227	0.012901819
112	0x3d960d80	0.07326794
113	0x3dca80ff	0.09887885
114	0x3dbc2ae3	0.091878675
115	0x3cbd460f	0.023104696
116	0xbd8e93e5	-0.069618024
117	0x3d7192eb	0.058978003
118	0x3d63ddf0	0.055631578
119	0x3d411001	0.047134403
120	0x3d1ccebe	0.038283102
121	0xbd44d74e	-0.048056893
122	0xbd5d4209	-0.054018054
123	0xbd20086e	-0.03907054
124	0x3dc1b400	0.094581604
125	0xbd718130	-0.058961093
126	0xbd3b8315	-0.045779306
127	0xbcc7fc0e	-0.024412181
128	0x3d9cc885	0.076554336
129	0x3da2400b	0.079223715
130	0x3d652073	0.05593915
131	0x3dce659f	0.100779764
132	0x3d7a9fc2	0.061187513
133	0x3daf74a5	0.0856717
134	0x3b494978	0.0030713957
135	0x3d8f3798	0.069930255
136	0xbdb7e7d4	-0.089797646
137	0xbbc837af	-0.0061101536
138	0x3d3e3ca1	0.04644454
139	0xbd94ca60	-0.072651625
140	0xbd45e3d7	-0.048312988
141	0x3da2d432	0.07950629
142	0x3d5c2c30	0.053753078
143	0x3d936f40	0.07198954
144	0xbb8b41d4	-0.0042497907
145	0x3d3a7566	0.045522116
146	0xbd7ac974	-0.061227277
147	0x3d9bab56	0.07601039
148	0x3d9d8317	0.07691019
149	0x3d591aa3	0.05300392
150	0x3d5c9b21	0.05385888
151	0x3d91047c	0.070809335
152	0xbb0fe57f	-0.0021956859
153	0xbd85d4e0	-0.06534743
154	0xbdcf8ade	-0.10133909
155	0xbda958ee	-0.08268915
156	0xbdac912e	-0.08426128
157	0xbda476de	-0.080304846
158	0xbdb120ed	-0.08648858
159	0x3d5bfda3	0.053708684
160	0x3cfaaca7	0.030599905
161	0xbd726a2b	-0.05918328
162	0x3d5cab4f	0.05387431
163	0x3d60b49b	0.05485974
164	0x3da7dfd4	0.08196989
165	0xbd35516f	-0.044267114
166	0xbd38af8b	-0.045089286
167	0xbcbf28cd	-0.023334885
168	0xbce964c0	-0.028490424
169	0xbc84418a	-0.016144533
170	0x3ab743f1	0.001398204
171	0x3d9787a1	0.07398916
172	0x3c279614	0.0102286525
173	0xbb38d985	-0.0028205824
174	0xbc3fdd3a	-0.011710459
175	0xbc24acf0	-0.010050997
176	0xbda25e81	-0.079281814
177	0xbdb9e0c7	-0.09076076
178	0x3d5cca6e	0.05390399
179	0x3d34fbd3	0.04418547
180	0xbda30b99	-0.079611965
181	0xbd823966	-0.06358604
182	0xbdb861ce	-0.0900303
183	0xb9a9dc11	-0.00032398154
184	0xbcad3b92	-0.02114657
185	0xbd513771	-0.051078264
186	0x3d82af1d	0.063810565
187	0x3dc7a62b	0.09748491
188	0x3d2a607a	0.041595913
189	0xbd1c6f39	-0.038192008
190	0xbc3e50ec	-0.011615973
191	0xbda3daf6	-0.08000748
192	0xbd0f5408	-0.034992248
193	0xbd6cc654	-0.057806328
194	0xbd5f2c63	-0.05448569
195	0xbd5b3d73	-0.0535254
196	0x3d35a5c6	0.044347547
197	0x3d6e7f46	0.058226846
198	0xbcaa588a	-0.020794172
199	0x3dbc73b5	0.09201757
200	0x3d56682d	0.052345444
201	0xbdca48d5	-0.09877173
202	0xbdaa7913	-0.08323874
203	0xbb7c7409	-0.003852131
204	0x3bb1bed5	0.0054243603
205	0xbd1bd21b	-0.03804217
206	0xbdbb6dc5	-0.09151796
207	0xbc92de25	-0.017928192
208	0x3da337fd	0.07969663
209	0xbd6a88da	-0.057259418
210	0xbcd513ec	-0.026010476
211	0xbd4149a2	-0.047189362
212	0x3da04b4c	0.07826862
213	0xbdad9529	-0.08475716
214	0x3dbdca81	0.0926714
215	0x3d7c709c	0.06163083
216	0x3d383ac4	0.04497792
217	0xbd1cded9	-0.03829846
218	0x3dbeacfe	0.093103394
219	0xbd2c2679	-0.042028878
220	0xbd36fbee	-0.044673853
221	0x3d217aec	0.039423868
222	0xbdc9f13f	-0.09860467
223	0xbd0e7b8d	-0.034785796
224	0xbdc00ce4	-0.09377459
225	0x3d38946b	0.045063417
226	0xbd870866	-0.06593399
227	0x3cdbb1e6	0.026818227
228	0xbdba48b6	-0.090959
229	0x3dac3027	0.08407622
230	0xbd3d5d26	-0.04623141
231	0x3d07e24f	0.03317481
232	0x3c6f36e0	0.014600486
233	0x3d9bc18b	0.07605275
234	0x3cebaa3b	0.028767696
235	0x3c88de79	0.016707646
236	0xbd0932f6	-0.033495866
237	0x3d96aeca	0.07357557
238	0xbcdcff1e	-0.026977118
239	0x3d27059b	0.04077683
240	0xbd0a1790	-0.033713877
241	0xbdac7668	-0.08421022
242	0xbd977fa6	-0.07397394
243	0xbdab57e7	-0.083663754
244	0x3ccd0a41	0.025029304
245	0xbdc709c6	-0.09718661
246	0xbdc6ee49	-0.09713418
247	0x3d3c3bd8	0.04595551
248	0x3c5ea07e	0.013588069
249	0x3d9e0c8b	0.07717236
250	0xbc5d128a	-0.01349319
251	0x3d610a72	0.054941602
252	0xbcd7f067	-0.02635975
253	0x3db00f6e	0.08596693
254	0x3d0574f5	0.032582242
255	0xbd8dca6f	-0.06923377

fc3.bias f4 [24]
0	0xbc45e29b	-0.012077953
1	0x3dcb2e6b	0.09920963
2	0x3cd04510	0.025423557
3	0x3d8b8aa0	0.0681355
4	0xbd666eb2	-0.05625791
5	0x3d17e300	0.03708172
6	0x3d1a890c	0.037728354
7	0xbd9c6825	-0.076370515
8	0x3c5fba93	0.013655323
9	0xbd9d08a6	-0.07667665
10	0xbd6d3c21	-0.05791867
11	0xbd78a0e8	-0.060700327
12	0x3d8bc7fe	0.06825255
13	0xbd893970	-0.067004085
14	0xbd3f776a	-0.04674474
15	0x3d1e3d60	0.03863275
16	0x3ca3874d	0.019961977
17	0x3d16b2bb	0.036791544
18	0x3c6ee293	0.014580387
19	0x3d62c128	0.05535999
20	0xbc4d7eee	-0.012542469
21	0xbd2286c8	-0.03967932
22	0xbd31cfd5	-0.043411095
23	0xbdc1a242	-0.09454776

fc4.weight f4 [2, 24]
0	0xbd137aaf	-0.036005672
1	0xbe0d37f8	-0.13790882
2	0x3dff455b	0.124644004
3	0xbe44ff17	-0.19237934
4	0xbe3ea641	-0.18618108
5	0xbe090dee	-0.1338422
6	0x3e0659d8	0.1312021
7	0xbdaf5736	-0.08561556
8	0xbe1b6181	-0.15173914
9	0x3de4ae1a	0.1116602
10	0x3d4fbff7	0.05072018
11	0xbe068c73	-0.13139515
12	0x3e127305	0.14301689
13	0x3d306c1c	0.04307185
14	0xbe3b7faf	-0.18310426
15	0xbda235d4	-0.07920423
16	0x3cb5ab7b	0.022176495
17	0xbe298cb6	-0.16557583
18	0xbd3d0650	-0.0461486
19	0xbdfd05d5	-0.12354628
20	0xbe34af94	-0.17645103
21	0xbc95bd9f	-0.018278895
22	0x3cf3b96d	0.029751504
23	0x3e175a1d	0.14780469
24	0x3df444ee	0.1192721
25	0xbdb9399d	-0.09044192
26	0x3e188acc	0.14896697
27	0xbbdd148f	-0.0067468355
28	0x3e206a41	0.15665533
29	0xbd95f1e3	-0.07321527
30	0x3e33868d	0.17531796
31	0xbb082dba	-0.0020779208
32	0x3e0274ff	0.12739943
33	0xbe2549f2	-0.16141489
34	0x3e3a23db	0.1817774
35	0x3d8ce109	0.068788595
36	0x3e3209f4	0.1738661
37	0xbe41695f	-0.18887852
38	0x3e14165d	0.14461656
39	0xbde4d570	-0.111735225
40	0x3d5e0e11	0.054212634
41	0xbd6fc090	-0.05853325
42	0x3e1b5f32	0.15173033
43	0xbd80d425	-0.06290463
44	0x3e131594	0.143637
45	0x3d5f3d50	0.05450183
46	0x3e3c75cd	0.18404312
47	0x3b8a7c44	0.0042262394

fc4.bias f4 [2]
0	0xbd057ff1	-0.032592718
1	0xbdc6a31b	-0.09699079

fc5.weight f4 [1, 2]
0	0x3e92f594	0.28702986
1	0x3de7c02b	0.1131595
