T3-2024/Federated_Learning/Improved_FL/SRC/meta_parameters/client8.pth (torch, 34104 bytes, 9 tensors)

fc1.weight f4 [48, 12]
00000000: 3b65 263e 931d 863b 002a 54be 18d5 08be
00000010: 1f47 023e e8f6 733e e953 103d 765e 0f3e
00000020: 3269 8dbe 3711 233e 6a1c 8c3e e2da dbbd
00000030: e317 543e b9c4 93be 20a4 103e 1423 cbbb
00000040: 3587 4b3e 91ca 60be 977c e8bd 4467 fdbd
00000050: 2b8c 8f3e 0ed3 be3d 2811 7dbd 0386 8dbe
00000060: 6dc4 30be 6f0f d0bd a980 fcbd c9ef bcbd
00000070: 9205 3b3e ed8c fdbc 3855 253e c0a7 893e
00000080: ae67 fd3d e061 cf3d 2645 263d 01d9 1cbe
00000090: a97b 62be 790b 72be b768 f1bd 53a1 813e
000000a0: 7344 91be 3ee9 173e a84e d83d 2c18 85be
000000b0: 8570 e8bd bb53 3fbe 2a3b 91be b32b 27be
000000c0: ec2d 04be d356 653d f756 bdbd 982f c83d
000000d0: 1ef1 3b3e 1e83 343e c4e7 133e c7a9 19be
000000e0: 0031 6fbd 12b1 053e 2d32 aa3d c929 2ebe
000000f0: e24d 323e 88c8 0f3e a8f6 4fbe af9c b4bc
00000100: 6414 c5bd 793c 553e 277d 3cbe bc35 183e
00000110: 411b 3a3e 92a1 283e 9891 85bc 43fa b03d
00000120: 4f79 eb3d bea3 243e 7fe8 3fbe 029f dbbd
00000130: 780e 35bd 14ab 933c 0291 b1bd 36b9 b5bd
00000140: ecde 7cbd c0ad 04be 10e3 a43c 0d32 35be
00000150: 2e6e 8e3e 9109 be3d 556a e83d 4cf9 94bd
00000160: be92 803c e94e 75be 640a a1bd 46e2 a9bd
00000170: 1158 983d 0bfc 85be d7f7 753e 6afe 17be
00000180: 23b1 2c3e b26a 1b3d e7df 5cbe 7aa9 843e
00000190: 5b44 e73d a391 9e3d 26c9 1fbd a607 163d
000001a0: 8c95 ab3d 3d55 8d3e 6b77 40be 7411 da3d
000001b0: cf7d 4b3e bdc2 283d ccc8 923e 84a1 923e
000001c0: 121d 433d d90f 06bd a92c 903e 327f 253e
000001d0: ab2c 8ebc 7de3 b1bd 4631 eb3d a0c2 813e
000001e0: 4903 923e 3649 4dbe 7cac 843d 4a58 003e
000001f0: 5f36 33bd ce89 74be e34b 403e e5ea 56bd
00000200: 440d 8fbe a2d2 5abe cc0f 9a3d 63eb b73d
00000210: 1670 53be 2e61 63be 4e69 543e 81b7 793d
00000220: ab60 4bbe 449e 5b3c 212e 82be a3c5 01be
00000230: 804f 35bd 232d 883a 2f04 65be 72ef 283e
00000240: 0a56 883e fd14 1f3e c4fb 003e 27f3 c43d
00000250: 184b 7fbd 40dd 48be 02ba 403c 71ef 813e
00000260: 0e2f 0a3d 7c25 5d3d 33be 2abe f0e4 8b3d
00000270: e864 903d a852 843e 29cf a4b8 3442 0b3e
00000280: cc5e 8a3e a5fe 76be 6df7 5a3e b620 25be
00000290: 2f8b 5a3d 5b5b c83d b54c a53d 8f1d 8ebe
000002a0: 6831 84be f736 4b3c 2456 5fbe abe2 683c
000002b0: 910e 20bc bc65 343e 73e8 cb3d ce02 933e
000002c0: a789 a1bd 4dd4 6bbe 85a1 05be 46d3 cb3d
000002d0: 29a3 653e 80d0 8e3e 63a6 223e 1669 a63d
000002e0: 6f11 863e 3f26 0f3e 7cd3 6b3c 03ed 3a3e
000002f0: 29c9 32be 1cca 5c3e c607 bfbd 0e71 f33d
00000300: cd77 b7bb 6c42 4abe 4090 ac3d a465 603b
00000310: 6e92 693e f8b4 903e b4b4 213e f5a3 253e
00000320: b850 c0bd 6933 90be 0c63 61be f0d5 b0bd
00000330: 2e97 2bbe 3272 db3d b868 4cbe a12a 0a3e
00000340: 61cd 64be d93b 41be 079a a3bd 7d57 30be
00000350: ecca 30bd c329 d13d c640 aabd 30d4 63be
00000360: e8d9 d93c 66ca 76be e73e 2a3e 790a 123d
00000370: 8580 1ebc 16b3 3c3d 3ca6 933e bf96 62be
00000380: acf4 d3bd 06a7 893e 324d 15bd af46 35bd
00000390: 5404 873d 27a6 28be 7c4e 4cbe 2fda 87be
000003a0: 8f62 8f3d a710 28be c000 7d3e f546 54be
000003b0: fb1d 8c3d cdb7 e13d d45b 543e 76d3 903d
000003c0: ec3c 22be 0495 bdbd ee7e 893e b48f 22bd
000003d0: 2ac2 7bbe 2235 26bd bbc2 71be d707 c4bd
000003e0: 95c5 e33c 3b65 5b3d 9834 8dbe cc7c 58be
000003f0: 2e41 7a3d 03f9 e8bd c713 47be 69b0 433e
0.16249554 0.004092881 -0.20719147 -0.13362539 0.12722443 0.23824656 0.035236273 0.14000878
-0.2761932 0.15924536 0.27365428 -0.10735108 0.20712237 -0.28861025 0.14125109 -0.00619925
0.19875796 -0.21952273 -0.113518886 -0.12373212 0.28036627 0.09317599 -0.06178394 -0.27641305
-0.1726243 -0.10159194 -0.123292275 -0.09225423 0.18263844 -0.030950988 0.1614579 0.26885796
0.12373291 0.1012609 0.04059329 -0.15317155 -0.22117485 -0.23637189 -0.11787551 0.25318393
-0.28372535 0.14835069 0.105618775 -0.25995004 -0.113495864 -0.18684284 -0.2836545 -0.16325264
-0.12908143 0.055991005 -0.09245103 0.09774703 0.18353698 0.17628142 0.1444388 -0.15006171
-0.05839634 0.13055828 0.083103515 -0.17008127 0.17412522 0.1404134 -0.20308936 -0.022047369
-0.0962303 0.2082385 -0.18407117 0.14864248 0.18174459 0.16467884 -0.016304776 0.08641484
0.11497747 0.16078088 -0.18741034 -0.10723688 -0.04420325 0.018025912 -0.08670236 -0.08873217
-0.061736032 -0.12956905 0.020127803 -0.17694874 0.27818435 0.092791684 0.11348406 -0.07274112
0.015694972 -0.23955883 -0.0786331 -0.08295111 0.07438672 -0.26168856 0.24020325 -0.14843145
0.16864447 0.03794355 -0.21569787 0.2591055 0.11292335 0.07742622 -0.03901019 0.036628388
0.08378133 0.27604094 -0.18795554 0.1064786 0.19872211 0.041201342 0.2866882 0.28638852
0.047635145 -0.032729957 0.28159073 0.16161802 -0.017355284 -0.08685968 0.114840075 0.253438
0.2851813 -0.20047459 0.06478211 0.1253368 -0.043753024 -0.23880693 0.18778948 -0.052470107
-0.27939808 -0.21369413 0.07522544 0.08980443 -0.20648226 -0.2220504 0.20743296 0.06096602
-0.19861095 0.013404433 -0.2542582 -0.12673049 -0.04426527 0.0010389428 -0.22364877 0.16497591
0.26628143 0.1553535 0.12596041 0.0961669 -0.062327474 -0.1961565 0.011763098 0.25377992
0.03373628 0.053990826 -0.16674118 0.06830776 0.07050496 0.25844312 -7.858716e-05 0.13599473
0.2702545 -0.24120577 0.21383448 -0.1612576 0.053355392 0.0978305 0.08071271 -0.27756926
-0.25818944 0.012403241 -0.21810204 0.014214198 -0.009769098 0.17616934 0.099564455 0.28713077
-0.07887583 -0.23030205 -0.13049896 0.099524066 0.22425522 0.27893448 0.15883784 0.08125512
0.26185176 0.13979433 0.0143936835 0.18254475 -0.17459549 0.21561474 -0.093276545 0.11886798
-0.005598998 -0.197519 0.08425951 0.003424027 0.22809765 0.28263068 0.15791589 0.16175826
-0.09390396 -0.28164223 -0.2201044 -0.08634555 -0.16756889 0.107151404 -0.19961822 0.13492824
-0.22343971 -0.18870486 -0.07988363 -0.17220874 -0.04316227 0.102130435 -0.08313136 -0.22248912
0.026593164 -0.24100646 0.16625558 0.03565452 -0.009674196 0.046069227 0.28837764 -0.22127818
-0.10349402 0.2688524 -0.036450572 -0.044256862 0.065926224 -0.16469632 -0.19951814 -0.26533648
0.070012204 -0.16412602 0.24707317 -0.20730193 0.06841656 0.11021385 0.20738155 0.07071583
-0.15843552 -0.09256938 0.26854652 -0.039687827 -0.24585786 -0.040578015 -0.2360944 -0.09571808
0.027804175 0.053563338 -0.27579188 -0.21141356 0.061097316 -0.1137562 -0.19441138 0.19110264

fc1.bias f4 [48]
00000000: 57bb 4cbe b4cd cfbd 98cb 80be 6aee 8e3e
00000010: a288 073e 5e77 53be cc72 40be b4c3 8fbe
00000020: c86e a53c e4a7 27bd 0c47 093e 5f09 313e
00000030: 82ee 1d3e be1e 5cbe 1c84 92be 5a64 28be
00000040: 1194 92be 70d6 7d3e 4a17 1a3e e708 e93d
00000050: d2fc 413e 4dfc bbbd 3172 b73d b106 b73d
00000060: 928a 1b3e b9e7 2a3e 9744 773e c7f5 8ebd
00000070: 5917 80be fe1a 793e 21e6 a03d bd26 41be
00000080: 0dfe 5bbe 9f9c f23d 9beb 17be 467c ecbd
00000090: 9962 243e 3681 213e 9a99 87be 01b2 e8bd
000000a0: f35e 293e 7bef 04be 361f eb3d c63e 42be
000000b0: 9ab2 4dbe a121 c83d 35d7 b7bc bdff e2bd
-0.1999334 -0.10146657 -0.2515533 0.2791627 0.13235715 -0.20651004 -0.18793792 -0.28078997
0.020194426 -0.040931597 0.13406008 0.17288731 0.15423015 -0.21496102 -0.28616416 -0.16444531
-0.2862859 0.24788833 0.15047947 0.11378651 0.189441 -0.09178982 0.08957327 0.08936823
0.15189579 0.16689958 0.24147259 -0.06980472 -0.25017813 0.24326703 0.078563936 -0.18862434
-0.21483631 0.11846279 -0.1483597 -0.11547141 0.16053237 0.15771946 -0.26484376 -0.113620766
0.16540127 -0.1298198 0.114805624 -0.18969259 -0.20087662 0.09772039 -0.022441486 -0.110839345

fc2.weight f4 [96, 48]
00000000: 4fbf d3bd 7cf0 d03d 7577 d13c c174 ee3d
00000010: b7f5 cc3d eb52 54bb a963 8f3d d83d da3d
00000020: d920 033d 1b45 3bbd e928 053e 05af ed3d
00000030: 3c4f 9138 d242 f03c da2a 963c 0f60 73bd
00000040: 9215 20bd b68e c8bd b80f 71bd b25c 253d
00000050: a1f1 bcbd 5c0b 453d a50e 06be 4cdf c8bd
00000060: 89b1 0fbe 4fad e3bd edcb 8ebd 1432 efbc
00000070: 2cd3 ea3d dc6a 0d3e bca6 b33d fa9a b4bd
00000080: b18f 833d 556f ee3d eb26 52bc 415c 5c3d
00000090: f62b babc dd10 b33d 0503 a0bd 7ec4 9ebd
000000a0: f8cc 8a3d b4f2 16bc 7582 d0bd abcc bdbd
000000b0: 38e8 063e 5350 1f3d 6fa6 ae3d fd14 043e
000000c0: d648 0dbe 7ed5 c8ba 70a9 333d a8e4 11be
000000d0: e14f 453d 0bcd e0bd dc0d 593d 4c52 aebb
000000e0: a696 dc3d 307c 9b3d 0935 c63d b6ba 9a3d
000000f0: 2003 a83b e502 b5bc fd9b d43d 56d3 113c
00000100: 55de ef3d 3a1a b0bd 8fd6 3fbd 82fe 07be
00000110: c29d 3e3d 3919 12be 06e7 da3d 7fb8 1fbd
00000120: a841 73bd f742 da3d bdf6 f0bd f813 4ebd
00000130: 40f1 0a3e 2e2d 38bd 8e14 e0bd a9c8 e53d
00000140: 3342 13be 51f1 80bd 5bd2 9d3b 1935 313d
00000150: ca65 9bbd 7d3b 883d 01d6 b03b e884 c9bd
00000160: 3bce 9fbd 1b2b a43d 3364 243d a635 00be
00000170: 3c4f f6bd 459f e0bc 586b ccbd 83b8 d43d
00000180: d4c0 f4bd 68f7 05be d75f 26bd d479 96bd
00000190: f10b ab3c f46e 3abd fa25 65ba 50ca 06be
000001a0: 9e08 7e3d 037a d93c f279 36bd 194e a53d
000001b0: 2fad 9fbd 9663 d03d 21f6 3e3d 9033 a2bd
000001c0: 4dba aa3c 9090 3e3d e02f 2fbd 2c5b 073e
000001d0: 4f9d 0dbe ac16 ff3d 4cb6 0e3e 2848 e53a
000001e0: 9e69 83bd 0221 fdbd cf8b d4bc bc7d b13d
000001f0: 70e9 53bd fa1e 753c 2535 573d 3b08 e83d
00000200: 92a1 d83d 55e1 c33d 1621 d7bb f897 223c
00000210: 32c4 08be 9583 a03d 6759 80bb 3aaa c0bd
00000220: 013f 433c 3f69 5bbd 4446 8e3d d496 92bd
00000230: 801a da3d 0b72 b13d 4d43 073d a60c c43d
00000240: 0d44 51bd 6a41 03be 87ff e93c 44b9 fabd
00000250: e603 14bd 50c5 d73d e0cb 203d 2b1e ecbc
00000260: 5e36 10be b891 313c dea2 893d 0b57 0dbd
00000270: 5252 b1bd f691 4dbc 5537 b3bc 043c 483c
00000280: 2627 d03c b58c 75bd f7b5 e63c 48d5 223d
00000290: ae95 223d ae39 0ebe d443 02be bd42 083e
000002a0: f771 e3bd 7e3d a5bd 0f24 7e3c 21aa 69bd
000002b0: 6e22 113e eb1d ffbd dad4 92bd cda5 f63d
000002c0: 801c 073e 99c0 c9bc 50b9 f2bd 47e9 823d
000002d0: 2785 91bb cbe1 aebb 4cbe 5d3d 26d3 3fbd
000002e0: a11c 113e e9f3 f73d fa32 c8bc d591 263d
000002f0: d8f9 eb3c de96 093e c742 70bd e645 f4bd
00000300: 02ea 45bd f080 e8bd 726b 49bd 6771 64bd
00000310: bfd9 183d 75a4 f23d 9433 663d 6ca5 9d3d
00000320: 3b37 c9bd 6488 84bd 427b eabd ae12 f03d
00000330: 807a 63bd 6a72 c6bd b47c d03c bea8 133e
00000340: 2fb3 6f3d 6d6e 093e 4c43 c1bd dc98 333b
00000350: b474 90bd b0e2 dd3d ec17 d5bd a5a2 0a3b
00000360: 0aa3 b1bc a178 0fbe dec0 0abe e255 86bd
00000370: 4551 0dbe cc00 213d 57a7 91bd 7e86 843c
00000380: c5a0 4d3d 26b0 cbbc 8eff 9d3d 9086 bb3d
00000390: 12d4 fcbc 45a9 d63c 1fdf cd3c 5fcb bf3d
000003a0: affc 903c 9582 663d 51ef af3c 0eff c03d
000003b0: faf4 0d3e dd92 08be eb1b 5a3d b24f e63d
000003c0: 6b2a 05bd 0970 bebd c6fc 82bd 48ed 0ebe
000003d0: 370f bb3d 03d4 09be e801 a9bd f471 5dbd
000003e0: 0817 ee3d 2ade bd3d eb06 dcbd d095 053e
000003f0: a3e2 003e a63f fdbd 84b2 c93d f287 4e3d
-0.103392236 0.10202119 0.025569657 0.11643363 0.10007804 -0.0032398056 0.070014305 0.10656327
0.032013748 -0.0457202 0.13003887 0.11605648 6.928897e-05 0.029328737 0.01833098 -0.05941778
-0.03908307 -0.09792845 -0.05885288 0.040371604 -0.092257746 0.048106536 -0.13091524 -0.098082155
-0.14032568 -0.1111704 -0.069724895 -0.029198684 0.11466059 0.13810295 0.087720364 -0.08818622
0.06423891 0.11642329 -0.012826662 0.053798918 -0.02272604 0.08743451 -0.07813076 -0.07752322
0.06777376 -0.009213138 -0.10181133 -0.09267553 0.13174522 0.038894963 0.085278384 0.12898631
-0.13797316 -0.0015322415 0.04386276 -0.14247382 0.04817188 -0.10976609 0.052991733 -0.005319869
0.107709214 0.07592046 0.096780844 0.075551435 0.0051273257 -0.022096107 0.10381315 0.008900484
0.11712328 -0.08598752 -0.04683548 -0.13280681 0.04653717 -0.14267434 0.106885955 -0.03899431
-0.059388787 0.10657304 -0.117658116 -0.050312012 0.13568592 -0.04496496 -0.109414205 0.112199135
-0.14380722 -0.062960275 0.004816336 0.04326353 -0.07587774 0.066519715 0.005396605 -0.09839803
-0.07803007 0.08016034 0.04013462 -0.12520465 -0.120268315 -0.027419696 -0.09981412 0.10386755
-0.119508415 -0.13082659 -0.040618744 -0.073474556 0.020879718 -0.04551597 -0.00087413157 -0.13163114
0.062019937 0.026547438 -0.04454989 0.080715366 -0.07796704 0.101752445 0.046621446 -0.07919991
0.020840788 0.046524584 -0.042770267 0.13218373 -0.1382954 0.12455496 0.13936728 0.0017492818
-0.06416629 -0.12359811 -0.025945572 0.0866656 -0.051736295 0.014960999 0.052540917 0.11329695
0.10577692 0.09564463 -0.0065652234 0.0099239275 -0.13356093 0.07837597 -0.0039169076 -0.09407468
0.011916877 -0.053567167 0.06946996 -0.071576744 0.10649586 0.0866433 0.033023167 0.09572725
-0.05109029 -0.12817922 0.028564228 -0.12242368 -0.03613653 0.10535681 0.03925693 -0.028822979
-0.1408324 0.010837965 0.067205176 -0.03450684 -0.086582795 -0.012547007 -0.02187697 0.01222134
0.025409292 -0.05994864 0.02816294 0.039754182 0.039693527 -0.1388919 -0.12721187 0.13306709
-0.111057214 -0.08068369 0.015511527 -0.057047013 0.1417329 -0.12456878 -0.071695045 0.12043343
0.13194466 -0.02462797 -0.11851752 0.0639215 -0.004440922 -0.005336975 0.05413656 -0.046832226
0.14171077 0.12107069 -0.02443837 0.04066642 0.028805658 0.13436458 -0.058657434 -0.119273946
-0.04831887 -0.11352718 -0.049174733 -0.05577221 0.037317034 0.11847774 0.056201532 0.07697567
-0.098249875 -0.06471327 -0.11449291 0.11722313 -0.055536747 -0.096897915 0.025450088 0.14419839
0.058520492 0.1342103 -0.09436664 0.0027404344 -0.07053509 0.10834253 -0.10404953 0.0021154073
-0.021684188 -0.1401086 -0.13550135 -0.065593496 -0.13800533 0.0393074 -0.07111996 0.016177412
0.05020215 -0.024864268 0.07714759 0.09156525 -0.030862842 0.02620376 0.025130806 0.09364962
0.017698614 0.056276876 0.02147642 0.09423648 0.13862982 -0.13337274 0.05324928 0.112456694
-0.032511156 -0.09298713 -0.06395869 -0.13957703 0.091337614 -0.13459782 -0.08252317 -0.054063752
0.116254866 0.0927089 -0.10743507 0.1304543 0.12586455 -0.123656556 0.09848502 0.050422616

fc2.bias f4 [96]
00000000: e440 0c3e 59ca 7bbd fa4e d6bd 8d60 d03c
00000010: b847 c3bd 7531 a2bd 69a6 0cbe 30f0 f4bd
00000020: a763 19bd 751c d73c cd9d 453c c28b 83bd
00000030: 073c af3d 1362 c6bd a5a6 a8bd ecee 723c
00000040: a6d3 babd f2e2 4d3d 9c15 a13d 752d a3bd
00000050: 2dcd af3d 4ca8 afbd aeb8 fbbd 3fe2 eb3c
00000060: 7439 febd 80dd 053e c678 bc3d cbd2 ec3d
00000070: 0721 13be 3077 fa3d f9a6 05ba 47b6 61bd
00000080: 2aab 0b3e 6fe4 bd3b 611d 64bd d8a9 72bc
00000090: e16c 093e 1cb8 ea3d f1d5 e23b 4c15 f33c
000000a0: 207e 043e c72e 2bbc 1e2b d4bd a870 d53d
000000b0: 59e3 9abb 5969 6ebd b188 7b3d 26a4 023e
000000c0: b738 adbd d7d0 75bd d06b 523d 453b 07bd
000000d0: f576 debd 46f9 5a3d 5b95 123e e9ac 8b3d
000000e0: 19bb 50bd 782f a7bd e02d 28bd 0b9b 0abd
000000f0: 81b4 e53c 61b8 113d e5c5 a7bd a10b 95bd
00000100: f2cc 8ebd 9cf7 0cbc b3df c6bd 54cd 5c3c
00000110: 33d2 0bbe ad73 ff3d 7e2b 613d 1ed1 a8bd
00000120: 3939 9f3d d28c c23d c5c7 d83d 57f0 82bd
00000130: a0d9 d63d 3070 ef3d 6441 abbc 0602 c7bc
00000140: 02bf ad3d 0b97 453d 3554 ecbd 2092 be3b
00000150: c5bc e6bc 9e65 d93b 6bd6 fabc 15a1 e4bd
00000160: f6c0 b6bd a8c3 fdbc 375d 49bd fbf6 cf3a
00000170: b86b d8bb 90d9 643d fce2 313d d17d da3b
0.13696629 -0.06147227 -0.10464282 0.025436664 -0.09535164 -0.079195894 -0.13735355 -0.11959875
-0.03744855 0.026258687 0.012061548 -0.06423141 0.08556371 -0.09686675 -0.0823491 0.014827471
-0.091224 0.05026526 0.0786545 -0.079676546 0.08584056 -0.08577022 -0.12291084 0.028794406
-0.12413302 0.13072777 0.09202723 0.11563643 -0.14368068 0.122297645 -0.0005098428 -0.055105474
0.13639513 0.0057950537 -0.05569208 -0.014811002 0.1342044 0.11460897 0.0069224765 0.029673241
0.12938738 -0.010448164 -0.103597865 0.10421878 -0.004726809 -0.058205936 0.061409656 0.1275793
-0.08458083 -0.06001362 0.05137235 -0.03301551 -0.10862533 0.053460382 0.14314787 0.06820089
-0.05095968 -0.08163351 -0.041059375 -0.033839267 0.028040173 0.035576228 -0.08192042 -0.07277609
-0.06972684 -0.008603957 -0.09710636 0.013476688 -0.13654403 0.12473235 0.054973118 -0.08243011
0.07774586 0.094995156 0.10584978 -0.063934974 0.104907274 0.1169132 -0.020905204 -0.024292957
0.084836975 0.04823975 -0.11539499 0.0058157593 -0.028166184 0.006634428 -0.03061982 -0.111635365
-0.08923523 -0.030977085 -0.049161162 0.0015866453 -0.006604638 0.055871546 0.04342936 0.0066678305

fc3.weight f4 [24, 96]
00000000: c5a8 a73c 71b6 863c c6bb d7bc d3be c1bd
00000010: f1ac b8bb 0593 313d 405b 36bd f25d 593d
00000020: b223 9dbc ecd3 9c3b ab89 5e3d d3fb 9abd
00000030: 9db7 a9bc 7bbb fdbc bb30 f7bc 5e71 b63d
00000040: ad7d 0ebd 172e ca3c d0e3 553d f3ad 95bd
00000050: 1cd0 983d c09f 433d c547 853d 4b33 983d
00000060: f9d6 debb bc03 fabc 98fa cbbd 35f6 2dbd
00000070: da52 a03d 4754 c2bd b5a3 603d 85bc 3cbd
00000080: 4917 8abd 9574 5b3d 1fc5 cbbc 6ee6 e036
00000090: a67f 00bd 5079 c03d fb77 8bbd c2b4 a5bc
000000a0: d745 19bd 103e 4cbd d0de 66bd 8f45 5cbd
000000b0: b050 bdbd f7f7 993d ef9a e6bc 48d8 bd3d
000000c0: bcab 6e3d 1a6f 753d 737c 2f3c 9624 37bd
000000d0: dde5 8e3d 9bf8 8b3c 8fa4 a63c 0dca 4fbd
000000e0: de71 1fbd bb55 0fbd f3e1 0c3d 58f9 8c3d
000000f0: 8f76 59bd ed1c 5e3c 50c9 c93c d14f 04bd
00000100: 2f61 8abd de74 9f3d b985 6dbc b214 bf3d
00000110: 36c6 a3bd 0dc2 883d ba21 bd3d 6f10 be3d
00000120: 929d 053d ec36 b9bd c761 44bd 2442 c03d
00000130: 2a5e 7abc 91d9 323d 7011 613c 9a3b 873d
00000140: dd8b bcbd 2121 a5bd b2b5 edba c22c 9ebc
00000150: e930 043b d95e 93bd 551d f03c a145 49bd
00000160: 193b 253d c603 b0bd f76f a9bd ede1 ef3c
00000170: 13b8 13bd 51fb 2f3d 0a0c 2cbb 687f bebc
00000180: 03b6 193d 1724 ccbc a177 6c3d 5f96 a3bd
00000190: 530e c83d de1f ca3d b63a 873c 576a ca3c
000001a0: 3dda 16bd b3a5 91bd 5a80 b83c 18e0 aa3d
000001b0: 3ff0 af3d 384e 953c e20c b2bd cb62 533c
000001c0: 830d 963d ef80 ca3d 602b bc3d f446 bd3c
000001d0: e193 8ebd ab93 713d 10de 633d 0010 413d
000001e0: bfce 1c3d efd6 44bd c83f 5dbd 9e06 20bd
000001f0: f8b3 c13d 7780 71bd 3e81 3bbd 63fc c7bc
00000200: bcc8 9c3d 0e40 a23d 7c20 653d c365 ce3d
00000210: 0ea1 7a3d c474 af3d e54e 493b d137 8f3d
00000220: 8fe7 b7bd 1c2d c8bb ac3c 3e3d efc9 94bd
00000230: 6be3 45bd 39d4 a23d 9f2c 5c3d 996f 933d
00000240: a343 8bbb 6375 3a3d 70c9 7abd 70ab 9b3d
00000250: 2583 9d3d f21d 593d 079c 5c3d 0e05 913d
00000260: ead7 0fbb e2d4 85bd c98a cfbd c458 a9bd
00000270: df90 acbd ed75 a4bd ef20 b1bd dffd 5b3d
00000280: dcac fa3c e569 72bd f0ab 5c3d e7b4 603d
00000290: 0fe0 a73d 9150 35bd 6faf 38bd ae28 bfbc
000002a0: 3964 e9bc 513e 84bc 0c58 b73a a587 973d
000002b0: f098 273c 70ca 38bb 0ed8 3fbc dbac 24bc
000002c0: 7d5d a2bd 05e0 b9bd 5cca 5c3d 4bfc 343d
000002d0: 960b a3bd 4639 82bd be61 b8bd 2abe a9b9
000002e0: ab3b adbc 6a37 51bd 5caf 823d 65a6 c73d
000002f0: 0261 2a3d fc6e 1cbd 0a51 3ebc 7eda a3bd
00000300: 4a55 0fbd 64c6 6cbd 842c 5fbd a73d 5bbd
00000310: d7a5 353d b17e 6e3d f458 aabc 6c73 bc3d
00000320: 0f68 563d e448 cabd 2379 aabd f272 7cbb
00000330: 5bbf b13b 3ed2 1bbd b06d bbbd a3de 92bc
00000340: 0538 a33d 3f89 6abd b715 d5bc 394a 41bd
00000350: 354b a03d a995 adbd 7fca bd3d 8370 7c3d
00000360: c43a 383d fede 1cbd 42ac be3d 7528 2cbd
00000370: e2fb 36bd cd79 213d 27f2 c9bd 457c 0ebd
00000380: f00c c0bd 9894 383d 7608 87bd 77b0 db3c
00000390: 3949 babd 1530 ac3d 5b5d 3dbd ffe1 073d
000003a0: 3534 6f3c 8ac1 9b3d 1caa eb3c 8ddc 883c
000003b0: 1333 09bd b4ae 963d cafe dcbc fe04 273d
000003c0: 9117 0abd 7676 acbd 0c80 97bd e357 abbd
000003d0: 0d0a cd3c 160b c7bd c1ee c6bd e83a 3c3d
000003e0: 0c9c 5e3c 890c 9e3d 9612 5dbc f509 613d
000003f0: 68f1 d7bc d10e b03d ee74 053d 96ca 8dbd
0.020466218 0.016444417 -0.026334655 -0.09460225 -0.0056358506 0.0433531 -0.044520617 0.05306811
-0.01918206 0.0047860052 0.05433051 -0.07567563 -0.020717436 -0.030973187 -0.030174604 0.08908342
-0.034787823 0.02468018 0.052219212 -0.07308569 0.07461569 0.04775977 0.065078296 0.07431658
-0.006800529 -0.030519359 -0.09959906 -0.04247113 0.07828303 -0.09488731 0.054843623 -0.046078224
-0.067427225 0.05357798 -0.024874268 6.7025458e-06 -0.031371735 0.093981385 -0.06809994 -0.020227794
-0.03742012 -0.049863875 -0.056364834 -0.053777274 -0.092439055 0.07517999 -0.02815005 0.09269768
0.058269247 0.059920408 0.010710823 -0.044712625 0.06977437 0.017086318 0.02034214 -0.0507298
-0.03892695 -0.03499387 0.03439517 0.06883496 -0.053091582 0.013556701 0.024632126 -0.03230268
-0.067568175 0.077859625 -0.014497214 0.09330119 -0.0799679 0.06677637 0.092349485 0.09280478
0.032620974 -0.09043679 -0.04794481 0.09387615 -0.0152812395 0.04366452 0.013737068 0.06603165
-0.09206364 -0.080629595 -0.0018135814 -0.019308452 0.0020170754 -0.07195825 0.029310862 -0.04913867
0.040339563 -0.0859447 -0.08273309 0.029282534 -0.03606422 0.042964283 -0.0026252293 -0.023254111
0.037527096 -0.024919553 0.057731275 -0.079876654 0.09768357 0.098693594 0.016507488 0.02470891
-0.036829222 -0.07111683 0.02252214 0.08343524 0.08590745 0.018225774 -0.086938635 0.012901972
0.07326796 0.098878734 0.091879606 0.023105122 -0.069617994 0.058978718 0.055631697 0.0471344
0.038283106 -0.04805654 -0.054015905 -0.03906881 0.094581544 -0.058960404 -0.04577755 -0.02441234
0.076554745 0.07922374 0.055939183 0.10078003 0.06118875 0.08567193 0.003071719 0.06993068
-0.08979713 -0.006108893 0.04644458 -0.07265078 -0.048312586 0.079506345 0.05375349 0.0719902
-0.0042500063 0.045522105 -0.061227262 0.076010585 0.076910295 0.053007074 0.053859737 0.07081042
-0.0021948763 -0.06534745 -0.10133893 -0.08268884 -0.084260695 -0.08030305 -0.0864886 0.053708907
0.030600004 -0.05918302 0.05387491 0.054860022 0.08197033 -0.044266287 -0.04508918 -0.023334827
-0.028490173 -0.016142996 0.0013988032 0.07398919 0.010229334 -0.0028196834 -0.011709226 -0.010050978
-0.07927988 -0.090759315 0.053903922 0.044185918 -0.07961194 -0.0635858 -0.09003018 -0.00032375875
-0.021146616 -0.051078238 0.063811034 0.09748534 0.04159642 -0.03819178 -0.011616001 -0.080006585
-0.034993447 -0.057806388 -0.054485813 -0.053525593 0.04434761 0.05822629 -0.02079437 0.092017025
0.05234533 -0.09877184 -0.08323886 -0.0038520661 0.0054244227 -0.0380423 -0.091517806 -0.017928427
0.07969669 -0.057259794 -0.026011331 -0.047189925 0.078268446 -0.08475811 0.09267139 0.061630737
0.04497792 -0.0382986 0.09310199 -0.04203077 -0.044673808 0.0394228 -0.0986064 -0.03478648
-0.09377468 0.045063585 -0.06593411 0.026817543 -0.09095997 0.084076084 -0.04623161 0.03317451
0.0145998495 0.07605274 0.028767638 0.01670673 -0.033495974 0.07357541 -0.026976962 0.040776245
-0.03371388 -0.08421032 -0.0739747 -0.083663724 0.025029207 -0.09718911 -0.097135074 0.045954615
0.013587009 0.07717235 -0.013493201 0.054941136 -0.026360229 0.08596576 0.032582216 -0.06923406

fc3.bias f4 [24]
00000000: a4e2 45bc 2532 cb3d 3e38 d03c f38a 8b3d
00000010: a26e 66bd eae4 173d dc89 1a3d 4e67 9cbd
00000020: 43c0 5f3c c708 9dbd 263f 6dbd 1a9f 78bd
00000030: 96c6 8b3d 3a39 89bd eb75 3fbd 1b3f 1e3d
00000040: 4686 a33c d5b6 163d 2ce2 6e3c 6dc3 623d
00000050: 7378 4dbc da86 22bd 9cd2 31bd 67a4 c1bd
-0.012077961 0.09921674 0.025417443 0.06813612 -0.05625785 0.037083544 0.03772913 -0.07636891
0.013656679 -0.0766769 -0.05792155 -0.060698606 0.06824987 -0.06700368 -0.046743315 0.0386344
0.019961488 0.036795456 0.014580291 0.055362154 -0.012540924 -0.039679386 -0.043413743 -0.094551854

fc4.weight f4 [2, 24]
00000000: 1a82 13bd 914e 0dbe 4623 ff3d 0f01 45be
00000010: 64a6 3ebe 2a14 09be 755b 063e e96a afbd
00000020: f767 1bbe 7ea8 e43d 3f89 4f3d 5194 06be
00000030: 966b 123e 834e 303d 1286 3bbe 3c45 a2bd
00000040: 967a b53c c697 29be 2d19 3dbd 6316 fdbd
00000050: 56b5 34be 6726 96bc 674a f33c 194c 173e
00000060: de43 f43d e04a b9bd 1584 183e 712d ddbb
00000070: 626a 203e faf6 95bd b787 333e 0225 09bb
00000080: 9072 023e 3a4b 25be 1c1f 3a3e 8fda 8c3d
00000090: c107 323e 496c 41be d213 143e eadb e4bd
000000a0: 3904 5e3d 2fd2 6fbd 795d 1b3e 77da 80bd
000000b0: 0214 133e 4a29 5f3d 6e70 3c3e 28c9 893b
-0.036012746 -0.13799502 0.124579 -0.19238685 -0.1861816 -0.13386598 0.13120826 -0.08565313
-0.15176378 0.1116495 0.050667997 -0.13142516 0.14298853 0.043043625 -0.18312863 -0.07923362
0.02215318 -0.16561803 -0.046166588 -0.123577856 -0.17647299 -0.018328859 0.029698564 0.14775123
0.11927007 -0.090474844 0.14894135 -0.006749802 0.15665582 -0.07322498 0.1753224 -0.00209266
0.12739015 -0.16141978 0.1817593 0.06877624 0.1738577 -0.18888964 0.14460686 -0.11174758
0.054203246 -0.058550056 0.15172376 -0.06291669 0.14363101 0.054482736 0.18402264 0.004204888

fc4.bias f4 [2]
00000000: 21df 05bd 79b5 c6bd
-0.032683495 -0.09702582

fc5.weight f4 [1, 2]
00000000: 59ad 923e 8d4f e63d
0.2864788 0.11245642
