T3-2024/Federated_Learning/Improved_FL/SRC/meta_parameters/server.pth (torch, 34090 bytes, 9 tensors)

fc1.weight f4 [48, 12]
000000 41 65 26 3e 43 1e 86 3b fc 29 54 be 14 d5 08 be
       0.16249563 0.004092963 -0.20719141 -0.13362533
000010 27 47 02 3e ee f6 73 3e 03 54 10 3d 75 5e 0f 3e
       0.12722455 0.23824665 0.03523637 0.14000876
000020 2f 69 8d be 36 11 23 3e 6e 1c 8c 3e cc da db bd
       -0.2761931 0.15924534 0.2736544 -0.107350916
000030 f0 17 54 3e b3 c4 93 be 24 a4 10 3e a0 22 cb bb
       0.20712256 -0.28861007 0.14125115 -0.006199196
000040 38 87 4b 3e 8c ca 60 be 8b 7c e8 bd 41 67 fd bd
       0.198758 -0.21952266 -0.1135188 -0.1237321
000050 33 8c 8f 3e 05 d3 be 3d 1a 11 7d bd 03 86 8d be
       0.2803665 0.093175925 -0.061783887 -0.27641305
000060 6e c4 30 be 72 0f d0 bd a8 80 fc bd cd ef bc bd
       -0.17262432 -0.10159196 -0.12329227 -0.09225426
000070 8d 05 3b 3e ef 8c fd bc 36 55 25 3e c1 a7 89 3e
       0.18263836 -0.030950991 0.16145787 0.268858
000080 a4 67 fd 3d e3 61 cf 3d 27 45 26 3d 02 d9 1c be
       0.123732835 0.10126092 0.040593293 -0.15317157
000090 b3 7b 62 be 83 0b 72 be bc 68 f1 bd 4f a1 81 3e
       -0.221175 -0.23637204 -0.117875546 0.2531838
0000a0 75 44 91 be 3d e9 17 3e 87 4e d8 3d 2c 18 85 be
       -0.2837254 0.14835067 0.10561853 -0.25995004
0000b0 82 70 e8 bd ba 53 3f be 2a 3b 91 be bd 2b 27 be
       -0.11349584 -0.18684283 -0.2836545 -0.16325279
0000c0 f5 2d 04 be c6 56 65 3d e1 56 bd bd 95 2f c8 3d
       -0.12908156 0.055990957 -0.092450865 0.097747006
0000d0 16 f1 3b 3e 22 83 34 3e c3 e7 13 3e c8 a9 19 be
       0.18353686 0.17628148 0.14443879 -0.15006173
0000e0 16 31 6f bd 0c b1 05 3e 30 32 aa 3d c0 29 2e be
       -0.05839642 0.1305582 0.08310354 -0.17008114
0000f0 e3 4d 32 3e 7c c8 0f 3e a5 f6 4f be c7 9c b4 bc
       0.17412524 0.14041322 -0.20308931 -0.022047414
000100 70 14 c5 bd 7b 3c 55 3e 31 7d 3c be c2 35 18 3e
       -0.09623039 0.20823853 -0.18407132 0.14864257
000110 38 1b 3a 3e 89 a1 28 3e 16 92 85 bc 31 fa b0 3d
       0.18174446 0.16467871 -0.01630501 0.0864147
000120 4f 79 eb 3d be a3 24 3e 7f e8 3f be 02 9f db bd
       0.11497747 0.16078088 -0.18741034 -0.10723688
000130 78 0e 35 bd 14 ab 93 3c 02 91 b1 bd 36 b9 b5 bd
       -0.04420325 0.018025912 -0.08670236 -0.08873217
000140 ec de 7c bd c0 ad 04 be 10 e3 a4 3c 0d 32 35 be
       -0.061736032 -0.12956905 0.020127803 -0.17694874
000150 32 6e 8e 3e a4 09 be 3d 60 6a e8 3d 3f f9 94 bd
       0.27818447 0.092791826 0.113484144 -0.072741024
000160 e1 92 80 3c e7 4e 75 be 5f 0a a1 bd 45 e2 a9 bd
       0.015695037 -0.2395588 -0.07863306 -0.082951106
000170 25 58 98 3d 0b fc 85 be da f7 75 3e 68 fe 17 be
       0.07438687 -0.26168856 0.24020329 -0.14843142
000180 14 b1 2c 3e 6a 6a 1b 3d ee df 5c be 70 a9 84 3e
       0.16864425 0.03794328 -0.21569797 0.2591052
000190 26 44 e7 3d a4 91 9e 3d 99 c9 1f bd be 07 16 3d
       0.11292295 0.077426225 -0.039010618 0.036628477
0001a0 63 95 ab 3d 3d 55 8d 3e 70 77 40 be 32 11 da 3d
       0.08378103 0.27604094 -0.18795562 0.10647811
0001b0 dd 7d 4b 3e f0 c2 28 3d ca c8 92 3e 89 a1 92 3e
       0.19872232 0.041201532 0.28668815 0.28638867
0001c0 5f 1d 43 3d d9 0f 06 bd ac 2c 90 3e 36 7f 25 3e
       0.047635432 -0.032729957 0.28159082 0.16161808
0001d0 06 2c 8e bc 7e e3 b1 bd 45 31 eb 3d a4 c2 81 3e
       -0.017354976 -0.08685969 0.11484007 0.25343812
0001e0 43 03 92 3e 41 49 4d be 79 ac 84 3d 41 58 00 3e
       0.28518113 -0.20047475 0.06478209 0.12533666
0001f0 a2 36 33 bd d1 89 74 be d2 4b 40 3e ec ea 56 bd
       -0.043753274 -0.23880698 0.18778923 -0.052470133
000200 4d 0d 8f be aa d2 5a be ba 0f 9a 3d 4f eb b7 3d
       -0.27939835 -0.21369424 0.07522531 0.089804284
000210 18 70 53 be 30 61 63 be 43 69 54 3e 4f b7 79 3d
       -0.20648229 -0.22205043 0.20743279 0.060965832
000220 ad 60 4b be f8 9d 5b 3c 27 2e 82 be a8 c5 01 be
       -0.19861098 0.013404362 -0.25425836 -0.12673056
000230 aa 4f 35 bd 0f 2d 88 3a 30 04 65 be 6d ef 28 3e
       -0.044265427 0.0010389405 -0.22364879 0.16497584
000240 1b 56 88 3e 1c 15 1f 3e cd fb 00 3e 54 f3 c4 3d
       0.26628193 0.15535396 0.12596054 0.09616724
000250 af 4a 7f bd 39 dd 48 be b6 bb 40 3c 76 ef 81 3e
       -0.062327083 -0.1961564 0.011763504 0.25378007
000260 2f 2f 0a 3d 92 25 5d 3d 34 be 2a be 03 e5 8b 3d
       0.033736404 0.053990908 -0.16674119 0.0683079
000270 ed 64 90 3d a8 52 84 3e 2a fc a4 b8 38 42 0b 3e
       0.070505 0.25844312 -7.8670986e-05 0.13599479
000280 ce 5e 8a 3e a5 fe 76 be 6d f7 5a 3e b6 20 25 be
       0.27025455 -0.24120577 0.21383448 -0.1612576
000290 5e 8b 5a 3d 4f 5b c8 3d b2 4c a5 3d 89 1d 8e be
       0.053355567 0.09783041 0.08071269 -0.2775691
0002a0 68 31 84 be f7 36 4b 3c 24 56 5f be ab e2 68 3c
       -0.25818944 0.012403241 -0.21810204 0.014214198
0002b0 91 0e 20 bc bc 65 34 3e 73 e8 cb 3d ce 02 93 3e
       -0.009769098 0.17616934 0.099564455 0.28713077
0002c0 a7 89 a1 bd 4d d4 6b be 85 a1 05 be 46 d3 cb 3d
       -0.07887583 -0.23030205 -0.13049896 0.099524066
0002d0 1b a3 65 3e 7a d0 8e 3e 58 a6 22 3e 00 69 a6 3d
       0.22425501 0.2789343 0.15883768 0.08125496
0002e0 65 11 86 3e 33 26 0f 3e e6 d2 6b 3c 08 ed 3a 3e
       0.26185146 0.13979416 0.014393544 0.18254483
0002f0 42 c9 32 be 17 ca 5c 3e cc 07 bf bd eb 70 f3 3d
       -0.17459586 0.21561466 -0.09327659 0.11886772
000300 86 77 b7 bb 6a 42 4a be 4d 90 ac 3d 21 67 60 3b
       -0.005598965 -0.19751897 0.08425961 0.0034241157
000310 7f 92 69 3e fa b4 90 3e be b4 21 3e f7 a3 25 3e
       0.2280979 0.28263074 0.15791604 0.16175829
000320 b6 50 c0 bd 69 33 90 be 0c 63 61 be e3 d5 b0 bd
       -0.093903944 -0.28164223 -0.2201044 -0.08634546
000330 30 97 2b be 2d 72 db 3d bd 68 4c be 9b 2a 0a 3e
       -0.16756892 0.10715137 -0.1996183 0.13492815
000340 63 cd 64 be dd 3b 41 be 04 9a a3 bd 7f 57 30 be
       -0.22343974 -0.18870492 -0.079883605 -0.17220877
000350 db ca 30 bd c7 29 d1 3d c7 40 aa bd 2f d4 63 be
       -0.043162208 0.102130465 -0.083131365 -0.2224891
000360 d7 d9 d9 3c 66 ca 76 be f6 3e 2a 3e 95 0a 12 3d
       0.026593132 -0.24100646 0.1662558 0.035654623
000370 71 7f 1e bc 54 b3 3c 3d 41 a6 93 3e bd 96 62 be
       -0.009673939 0.046069458 0.2883778 -0.22127815
000380 bd f4 d3 bd 08 a7 89 3e 41 4d 15 bd d8 46 35 bd
       -0.103494145 0.26885247 -0.03645063 -0.044257015
000390 61 04 87 3d 20 a6 28 be 78 4e 4c be 2e da 87 be
       0.06592632 -0.16469622 -0.19951808 -0.26533645
0003a0 a1 62 8f 3d a0 10 28 be c2 00 7d 3e f4 46 54 be
       0.07001234 -0.16412592 0.2470732 -0.20730191
0003b0 f3 1d 8c 3d de b7 e1 3d dc 5b 54 3e 98 d3 90 3d
       0.0684165 0.11021398 0.20738167 0.07071608
0003c0 ec 3c 22 be 02 95 bd bd ee 7e 89 3e b5 8f 22 bd
       -0.15843552 -0.092569366 0.26854652 -0.03968783
0003d0 2a c2 7b be 1d 35 26 bd b9 c2 71 be de 07 c4 bd
       -0.24585786 -0.040577997 -0.23609437 -0.09571813
0003e0 73 c5 e3 3c 3a 65 5b 3d 98 34 8d be cd 7c 58 be
       0.027804112 0.053563334 -0.27579188 -0.21141358
0003f0 1a 41 7a 3d 0b f9 e8 bd c0 13 47 be 64 b0 43 3e
       0.061097242 -0.11375626 -0.19441128 0.19110256

fc1.bias f4 [48]
000000 4f bb 4c be a2 cd cf bd 9a cb 80 be 5f ee 8e 3e
       -0.19993328 -0.10146643 -0.25155336 0.27916238
000010 9e 88 07 3e 6b 77 53 be cc 72 40 be ae c3 8f be
       0.13235709 -0.20651023 -0.18793792 -0.2807898
000020 e9 6d a5 3c 83 a7 27 bd f7 46 09 3e 4e 09 31 3e
       0.02019401 -0.040931236 0.13405977 0.17288706
000030 ab ee 1d 3e be 1e 5c be 1c 84 92 be 82 64 28 be
       0.15423076 -0.21496102 -0.28616416 -0.1644459
000040 0b 94 92 be 66 d6 7d 3e 54 17 1a 3e 0c 09 e9 3d
       -0.28628573 0.24788818 0.15047961 0.11378679
000050 d2 fc 41 3e 51 fc bb bd 20 72 b7 3d b5 06 b7 3d
       0.189441 -0.09178985 0.089573145 0.08936826
000060 9d 8a 1b 3e b9 e7 2a 3e 7a 44 77 3e bf f5 8e bd
       0.15189596 0.16689958 0.24147215 -0.06980466
000070 59 17 80 be 16 1b 79 3e 1a e6 a0 3d b5 26 41 be
       -0.25017813 0.24326739 0.078563884 -0.18862422
000080 0b fe 5b be 3a 9c f2 3d 94 eb 17 be 4a 7c ec bd
       -0.21483628 0.11846204 -0.1483596 -0.11547144
000090 8c 62 24 3e 38 81 21 3e 9b 99 87 be 01 b2 e8 bd
       0.16053218 0.1577195 -0.2648438 -0.113620766
0000a0 f6 5e 29 3e 6b ef 04 be 2e 1f eb 3d c6 3e 42 be
       0.16540131 -0.12981956 0.114805564 -0.18969259
0000b0 9a b2 4d be 7c 21 c8 3d 46 d8 b7 bc 9c ff e2 bd
       -0.20087662 0.09772012 -0.022441994 -0.1108391

fc2.weight f4 [96, 48]
000000 4c bf d3 bd 7c f0 d0 3d 71 77 d1 3c b4 74 ee 3d
       -0.10339221 0.10202119 0.02556965 0.11643353
000010 b1 f5 cc 3d a4 53 54 bb a9 63 8f 3d d8 3d da 3d
       0.100077994 -0.0032398487 0.070014305 0.10656327
000020 1e 20 03 3d 84 45 3b bd d6 28 05 3e fd ae ed 3d
       0.03201305 -0.045720592 0.13003859 0.11605642
000030 b6 ff 8f 38 d5 42 f0 3c da 2a 96 3c b2 60 73 bd
       6.866401e-05 0.029328743 0.01833098 -0.059418388
000040 9c 15 20 bd b9 8e c8 bd 34 10 71 bd d3 5c 25 3d
       -0.03908311 -0.09792847 -0.058853343 0.040371727
000050 9f f1 bc bd 5e 0b 45 3d a7 0e 06 be 4e df c8 bd
       -0.09225773 0.048106544 -0.13091527 -0.09808217
000060 8a b1 0f be 51 ad e3 bd d4 cb 8e bd 18 32 ef bc
       -0.1403257 -0.11117042 -0.06972471 -0.029198691
000070 2c d3 ea 3d da 6a 0d 3e c0 a6 b3 3d 07 9b b4 bd
       0.11466059 0.13810292 0.087720394 -0.088186316
000080 8e 8f 83 3d 2f 6f ee 3d a3 26 52 bc 5e 5c 5c 3d
       0.06423865 0.116423 -0.0128265945 0.053799026
000090 ee 2c ba bc df 10 b3 3d 06 03 a0 bd 7e c4 9e bd
       -0.022726502 0.08743452 -0.07813077 -0.07752322
0000a0 e4 cc 8a 3d 66 f2 16 bc 75 82 d0 bd ab cc bd bd
       0.06777361 -0.009213066 -0.10181133 -0.09267553
0000b0 38 e8 06 3e 4b 50 1f 3d 3c a6 ae 3d fd 14 04 3e
       0.13174522 0.038894933 0.085278004 0.12898631
0000c0 d6 48 0d be 84 d5 c8 ba 70 a9 33 3d a9 e4 11 be
       -0.13797316 -0.0015322422 0.04386276 -0.14247383
0000d0 d8 4f 45 3d 0a cd e0 bd dc 0d 59 3d 4c 52 ae bb
       0.048171848 -0.10976608 0.052991733 -0.005319869
0000e0 bb 96 dc 3d 3b 7c 9b 3d 19 35 c6 3d bd ba 9a 3d
       0.10770937 0.075920545 0.09678096 0.07555149
0000f0 d1 03 a8 3b ef 02 b5 bc fd 9b d4 3d 79 d3 11 3c
       0.005127408 -0.022096125 0.10381315 0.008900517
000100 54 de ef 3d 3a 1a b0 bd 96 d6 3f bd 80 fe 07 be
       0.117123276 -0.08598752 -0.046835504 -0.13280678
000110 c5 9d 3e 3d 38 19 12 be 07 e7 da 3d 7f b8 1f bd
       0.04653718 -0.14267433 0.10688596 -0.03899431
000120 a8 41 73 bd f8 42 da 3d ac f6 f0 bd f9 13 4e bd
       -0.059388787 0.106573045 -0.11765799 -0.050312016
000130 40 f1 0a 3e 31 2d 38 bd 8a 14 e0 bd ad c8 e5 3d
       0.13568592 -0.044964973 -0.109414175 0.112199165
000140 34 42 13 be 48 f1 80 bd 59 d2 9d 3b 22 35 31 3d
       -0.14380723 -0.06296021 0.004816335 0.043263562
000150 c3 65 9b bd 7d 3b 88 3d 01 d6 b0 3b e8 84 c9 bd
       -0.07587769 0.066519715 0.005396605 -0.09839803
000160 3c ce 9f bd 1b 2b a4 3d 33 64 24 3d a6 35 00 be
       -0.07803008 0.08016034 0.04013462 -0.12520465
000170 3c 4f f6 bd 47 9f e0 bc 54 6b cc bd 83 b8 d4 3d
       -0.120268315 -0.0274197 -0.09981409 0.10386755
000180 d5 c0 f4 bd 65 f7 05 be d6 5f 26 bd d5 79 96 bd
       -0.11950842 -0.13082655 -0.04061874 -0.07347456
000190 08 0c ab 3c f6 6e 3a bd fa 25 65 ba 50 ca 06 be
       0.02087976 -0.045515977 -0.00087413157 -0.13163114
0001a0 84 08 7e 3d 2b 7a d9 3c f9 79 36 bd 18 4e a5 3d
       0.06201984 0.026547512 -0.044549916 0.08071536
0001b0 24 ad 9f bd 9b 63 d0 3d 21 f6 3e 3d 9f 33 a2 bd
       -0.07796696 0.10175248 0.046621446 -0.07920002
0001c0 4d ba aa 3c 92 90 3e 3d dc 2f 2f bd 2b 5b 07 3e
       0.020840788 0.04652459 -0.04277025 0.13218372
0001d0 4f 9d 0d be ac 16 ff 3d 4c b6 0e 3e f6 47 e5 3a
       -0.1382954 0.12455496 0.13936728 0.001749276
0001e0 9e 69 83 bd 00 21 fd bd af 8b d4 bc bc 7d b1 3d
       -0.06416629 -0.1235981 -0.025945513 0.0866656
0001f0 70 e9 53 bd f6 1e 75 3c 21 35 57 3d 37 08 e8 3d
       -0.051736295 0.014960995 0.052540902 0.11329692
000200 94 a1 d8 3d 5e e1 c3 3d 17 21 d7 bb c6 97 22 3c
       0.105776936 0.0956447 -0.006565224 0.009923881
000210 35 c4 08 be 95 83 a0 3d 66 59 80 bb 3a aa c0 bd
       -0.13356097 0.07837597 -0.003916907 -0.09407468
000220 09 3f 43 3c 40 69 5b bd 44 46 8e 3d d4 96 92 bd
       0.011916884 -0.05356717 0.06946996 -0.071576744
000230 80 1a da 3d 06 72 b1 3d 67 43 07 3d a7 0c c4 3d
       0.10649586 0.08664326 0.033023264 0.09572726
000240 0b 44 51 bd 6b 41 03 be 87 ff e9 3c 44 b9 fa bd
       -0.05109028 -0.12817924 0.028564228 -0.12242368
000250 e2 03 14 bd 5c c5 d7 3d e0 cb 20 3d 28 1e ec bc
       -0.036136515 0.1053569 0.03925693 -0.028822973
000260 4d 36 10 be ba 94 31 3c f3 a2 89 3d 04 57 0d bd
       -0.14083214 0.010838682 0.06720533 -0.034506813
000270 51 52 b1 bd 3e 92 4d bc 55 37 b3 bc 42 3c 48 3c
       -0.08658279 -0.012547074 -0.02187697 0.012221398
000280 24 27 d0 3c b3 8c 75 bd 2d b6 e6 3c 62 d5 22 3d
       0.025409289 -0.059948634 0.02816304 0.03975428
000290 b7 95 22 3d ae 39 0e be d5 43 02 be be 42 08 3e
       0.03969356 -0.1388919 -0.12721188 0.1330671
0002a0 ee 71 e3 bd 86 3d a5 bd b5 24 7e 3c 21 aa 69 bd
       -0.11105715 -0.08068375 0.015511681 -0.057047013
0002b0 6e 22 11 3e ed 1d ff bd e0 d4 92 bd cb a5 f6 3d
       0.1417329 -0.1245688 -0.07169509 0.12043341
0002c0 84 1c 07 3e cb bf c9 bc 52 b9 f2 bd 5a e9 82 3d
       0.13194472 -0.024627587 -0.11851753 0.063921645
0002d0 0a 83 91 bb db e1 ae bb 4c be 5d 3d 26 d3 3f bd
       -0.00444067 -0.0053369827 0.05413656 -0.046832226
0002e0 9d 1c 11 3e ec f3 f7 3d fb 32 c8 bc d5 91 26 3d
       0.14171071 0.12107071 -0.024438372 0.04066642
0002f0 d8 f9 eb 3c e4 96 09 3e d9 42 70 bd e9 45 f4 bd
       0.028805658 0.13436466 -0.0586575 -0.11927397
000300 fe e9 45 bd f0 80 e8 bd 72 6b 49 bd 66 71 64 bd
       -0.048318855 -0.11352718 -0.049174733 -0.055772208
000310 c5 d9 18 3d 7a a4 f2 3d 94 33 66 3d 6c a5 9d 3d
       0.037317056 0.11847778 0.056201532 0.07697567
000320 33 37 c9 bd 5a 88 84 bd 3e 7b ea bd aa 12 f0 3d
       -0.098249815 -0.064713195 -0.11449288 0.1172231
000330 62 7a 63 bd 65 72 c6 bd b4 7c d0 3c cf a8 13 3e
       -0.055536635 -0.09689788 0.025450088 0.14419864
000340 2f b3 6f 3d 6d 6e 09 3e 4c 43 c1 bd cb 98 33 3b
       0.058520492 0.1342103 -0.09436664 0.0027404304
000350 b4 74 90 bd b8 e2 dd 3d eb 17 d5 bd 5b a2 0a 3b
       -0.07053509 0.10834259 -0.104049526 0.00211539
000360 07 a3 b1 bc a2 78 0f be da c0 0a be e2 55 86 bd
       -0.021684183 -0.14010862 -0.1355013 -0.065593496
000370 45 51 0d be da 00 21 3d 55 a7 91 bd 9d 86 84 3c
       -0.13800533 0.039307453 -0.07111994 0.01617747
000380 d4 a0 4d 3d 0a b0 cb bc 90 ff 9d 3d 93 86 bb 3d
       0.050202206 -0.024864215 0.0771476 0.09156527
000390 f2 d3 fc bc 44 a9 d6 3c 1f df cd 3c 5f cb bf 3d
       -0.030862782 0.026203759 0.025130806 0.09364962
0003a0 ae fc 90 3c 96 82 66 3d 51 ef af 3c 0e ff c0 3d
       0.017698612 0.05627688 0.02147642 0.09423648
0003b0 fa f4 0d 3e dd 92 08 be 11 1c 5a 3d b1 4f e6 3d
       0.13862982 -0.13337274 0.053249422 0.11245669
0003c0 68 2a 05 bd 05 70 be bd c7 fc 82 bd 48 ed 0e be
       -0.032511145 -0.0929871 -0.0639587 -0.13957703
0003d0 52 0f bb 3d fe d3 09 be e8 01 a9 bd f6 71 5d bd
       0.091337815 -0.13459775 -0.08252317 -0.05406376
0003e0 ff 16 ee 3d 72 de bd 3d e8 06 dc bd d1 95 05 3e
       0.1162548 0.09270944 -0.10743505 0.13045432
0003f0 d3 e2 00 3e 86 3f fd bd 84 b2 c9 3d 1e 88 4e 3d
       0.12586527 -0.12365632 0.09848502 0.05042278

fc2.bias f4 [96]
000000 a7 40 0c 3e 2c ca 7b bd fc 4e d6 bd 28 61 d0 3c
       0.13696538 -0.061472103 -0.10464284 0.025436953
000010 9c 47 c3 bd 39 31 a2 bd 67 a6 0c be 39 f0 f4 bd
       -0.09535143 -0.07919545 -0.13735352 -0.11959881
000020 77 63 19 bd 9d 1b d7 3c c3 9b 45 3c 3c 8c 83 bd
       -0.037448373 0.026258284 0.012061062 -0.06423232
000030 18 3c af 3d 19 62 c6 bd a2 a6 a8 bd 1f f0 72 3c
       0.08556384 -0.096866794 -0.08234908 0.014827757
000040 a5 d3 ba bd f3 e2 4d 3d 4b 15 a1 3d 26 2d a3 bd
       -0.09122399 0.050265264 0.078653894 -0.07967596
000050 20 cd af 3d 71 a8 af bd d5 b8 fb bd 59 e2 eb 3c
       0.08584046 -0.085770495 -0.12291113 0.028794454
000060 76 39 fe bd 63 dd 05 3e a6 78 bc 3d 0f d3 ec 3d
       -0.124133036 0.13072734 0.09202699 0.11563694
000070 f9 20 13 be 20 77 fa 3d af d9 05 ba 5f b6 61 bd
       -0.14368047 0.122297525 -0.0005105985 -0.055105563
000080 19 ab 0b 3e 36 e1 bd 3b 26 1d 64 bd b9 aa 72 bc
       0.13639487 0.0057946695 -0.05569186 -0.014811211
000090 ee 6c 09 3e ce b7 ea 3d ed d3 e2 3b 97 14 f3 3c
       0.1342046 0.11460839 0.006922236 0.029672904
0000a0 3b 7e 04 3e 8e 2e 2b bc 36 2b d4 bd e0 70 d5 3d
       0.12938778 -0.010448111 -0.10359804 0.1042192
0000b0 4b e5 9a bb 2c 69 6e bd dd 88 7b 3d 39 a4 02 3e
       -0.004727041 -0.05820577 0.06140982 0.12757958
0000c0 99 38 ad bd ff d0 75 bd a4 6b 52 3d 5d 3b 07 bd
       -0.08458061 -0.060013767 0.051372185 -0.033015598
0000d0 2c 77 de bd 8b f8 5a 3d 67 95 12 3e 75 ad 8b 3d
       -0.10862574 0.053459685 0.14314805 0.06820194
0000e0 f4 ba 50 bd 78 2f a7 bd ab 2d 28 bd 0c 9b 0a bd
       -0.050959542 -0.08163351 -0.041059177 -0.03383927
0000f0 b0 b4 e5 3c 3d b9 11 3d d8 c5 a7 bd ab 0b 95 bd
       0.02804026 0.035577048 -0.081920326 -0.07277616
000100 d9 cc 8e bd 7a f7 0c bc bf df c6 bd bf ca 5c 3c
       -0.06972665 -0.008603925 -0.09710645 0.013476073
000110 30 d2 0b be ac 73 ff 3d a9 2b 61 3d 2c d1 a8 bd
       -0.13654399 0.124732345 0.05497328 -0.08243021
000120 18 39 9f 3d 93 8c c2 3d ba c7 d8 3d 4f f0 82 bd
       0.07774562 0.09499469 0.1058497 -0.063934915
000130 7e d9 d6 3d f6 6f ef 3d 5c 41 ab bc 5a 02 c7 bc
       0.10490702 0.11691277 -0.02090519 -0.024293113
000140 e0 be ad 3d 2e 97 45 3d 13 54 ec bd 12 93 be 3b
       0.08483672 0.04823988 -0.115394734 0.005815872
000150 9c bc e6 bc f4 6a d9 3b d4 d5 fa bc 1f a1 e4 bd
       -0.028166108 0.0066350643 -0.03061954 -0.11163544
000160 06 c1 b6 bd 6e c4 fd bc 1d 5d 49 bd 90 e8 cf 3a
       -0.08923535 -0.030977454 -0.049161065 0.0015862156
000170 54 6c d8 bb 56 d9 64 3d a0 e2 31 3d 01 7b da 3b
       -0.0066047106 0.05587133 0.043429017 0.0066674952

fc3.weight f4 [24, 96]
000000 df a8 a7 3c 75 b6 86 3c ca bb d7 bc d4 be c1 bd
       0.020466266 0.016444424 -0.026334662 -0.09460226
000010 eb ac b8 bb 0c 93 31 3d 41 5b 36 bd f3 5d 59 3d
       -0.005635848 0.043353125 -0.04452062 0.053068113
000020 ba 23 9d bc 10 d4 9c 3b aa 89 5e 3d d4 fb 9a bd
       -0.019182075 0.004786022 0.054330505 -0.07567564
000030 9f b7 a9 bc 7c bb fd bc ba 30 f7 bc 5e 71 b6 3d
       -0.02071744 -0.030973189 -0.030174602 0.08908342
000040 ad 7d 0e bd 15 2e ca 3c c8 e3 55 3d f3 ad 95 bd
       -0.034787823 0.024680177 0.052219182 -0.07308569
000050 1c d0 98 3d ba 9f 43 3d c5 47 85 3d 4c 33 98 3d
       0.07461569 0.04775975 0.065078296 0.07431659
000060 f9 d6 de bb bc 03 fa bc 99 fa cb bd 32 f6 2d bd
       -0.006800529 -0.030519359 -0.09959907 -0.04247112
000070 da 52 a0 3d 43 54 c2 bd b8 a3 60 3d 8a bc 3c bd
       0.07828303 -0.09488728 0.054843634 -0.046078242
000080 47 17 8a bd 9a 74 5b 3d 1b c5 cb bc 50 44 e0 36
       -0.06742721 0.053577997 -0.02487426 6.683673e-06
000090 a4 7f 00 bd 52 79 c0 3d fd 77 8b bd c1 b4 a5 bc
       -0.031371728 0.0939814 -0.06809995 -0.020227792
0000a0 d5 45 19 bd 08 3e 4c bd d0 de 66 bd 97 45 5c bd
       -0.037420113 -0.049863845 -0.056364834 -0.053777304
0000b0 b2 50 bd bd f9 f7 99 3d e8 9a e6 bc 44 d8 bd 3d
       -0.09243907 0.07518 -0.028150037 0.09269765
0000c0 ba ab 6e 3d 15 6f 75 3d 62 7c 2f 3c 93 24 37 bd
       0.05826924 0.05992039 0.0107108075 -0.044712614
0000d0 db e5 8e 3d b9 f8 8b 3c 94 a4 a6 3c 16 ca 4f bd
       0.06977435 0.017086374 0.020342149 -0.050729834
0000e0 dc 71 1f bd bb 55 0f bd f4 e1 0c 3d 58 f9 8c 3d
       -0.038926944 -0.03499387 0.034395173 0.06883496
0000f0 91 76 59 bd cb 1c 5e 3c 4e c9 c9 3c d1 4f 04 bd
       -0.05309159 0.0135566695 0.024632122 -0.03230268
000100 2b 61 8a bd de 74 9f 3d ba 85 6d bc b2 14 bf 3d
       -0.067568146 0.077859625 -0.014497215 0.09330119
000110 33 c6 a3 bd 06 c2 88 3d bc 21 bd 3d 70 10 be 3d
       -0.07996788 0.06677632 0.0923495 0.09280479
000120 89 9d 05 3d ea 36 b9 bd d5 61 44 bd 25 42 c0 3d
       0.03262094 -0.09043677 -0.047944862 0.09387616
000130 eb 5d 7a bc 90 d9 32 3d 46 11 61 3c 9b 3b 87 3d
       -0.015281181 0.043664515 0.013737028 0.06603166
000140 e0 8b bc bd 23 21 a5 bd b6 b5 ed ba bf 2c 9e bc
       -0.092063665 -0.08062961 -0.0018135819 -0.019308446
000150 e9 30 04 3b d5 5e 93 bd 65 1d f0 3c a3 45 49 bd
       0.0020170754 -0.07195822 0.029310891 -0.049138676
000160 17 3b 25 3d c8 03 b0 bd fa 6f a9 bd ea e1 ef 3c
       0.040339556 -0.08594471 -0.08273311 0.029282529
000170 13 b8 13 bd 45 fb 2f 3d 20 0c 2c bb 60 7f be bc
       -0.03606422 0.04296424 -0.0026252344 -0.023254097
000180 4e b4 19 3d 33 24 cc bc 92 77 6c 3d 67 96 a3 bd
       0.037525468 -0.024919605 0.05773122 -0.07987671
000190 49 0e c8 3d b3 1f ca 3d 96 3a 87 3c ee 69 ca 3c
       0.0976835 0.098693274 0.016507428 0.024708714
0001a0 04 da 16 bd e5 a5 91 bd 32 7f b8 3c fe df aa 3d
       -0.03682901 -0.0711172 0.022521589 0.08343504
0001b0 46 f0 af 3d 20 4e 95 3c f3 0c b2 bd f6 62 53 3c
       0.085907504 0.01822573 -0.08693876 0.012902012
0001c0 84 0d 96 3d f4 80 ca 3d 51 2b bc 3d cc 46 bd 3c
       0.07326797 0.09887877 0.091879494 0.023105048
0001d0 ea 93 8e bd 52 93 71 3d f1 dd 63 3d b5 0f 41 3d
       -0.06961806 0.058978386 0.05563158 0.04713412
0001e0 bf ce 1c 3d ff d6 44 bd b7 3f 5d bd 30 07 20 bd
       0.038283106 -0.0480566 -0.05401584 -0.039069355
0001f0 07 b4 c1 3d 87 80 71 bd ac 81 3b bd 4c fb c7 bc
       0.094581656 -0.058960464 -0.04577796 -0.02441182
000200 99 c8 9c 3d fc 3f a2 3d 7e 20 65 3d cb 65 ce 3d
       0.076554485 0.0792236 0.05593919 0.10078009
000210 de a0 7a 3d c9 74 af 3d a0 4f 49 3b c2 37 8f 3d
       0.06118857 0.08567197 0.0030717626 0.06993057
000220 c6 e7 b7 bd 9d 2e c8 bb 9f 3c 3e 3d e6 c9 94 bd
       -0.08979754 -0.0061090724 0.04644453 -0.072650716
000230 08 e4 45 bd 2a d4 a2 3d 6b 2c 5c 3d 8e 6f 93 3d
       -0.04831317 0.07950623 0.053753298 0.07199012
000240 83 43 8b bb 3a 75 3a 3d 14 c9 7a bd 63 ab 9b 3d
       -0.0042499914 0.045521952 -0.06122692 0.07601049
000250 1e 83 9d 3d 4e 1c 59 3d a0 9b 5c 3d f2 04 91 3d
       0.07691024 0.05300551 0.053859353 0.07081021
000260 ad df 0f bb e8 d4 85 bd d5 8a cf bd d1 58 a9 bd
       -0.002195339 -0.06534749 -0.10133902 -0.082688935
000270 ff 90 ac bd f8 75 a4 bd f1 20 b1 bd f8 fd 5b 3d
       -0.08426093 -0.08030313 -0.08648861 0.053709
000280 30 ac fa 3c f0 69 72 bd 9a ab 5c 3d cc b4 60 3d
       0.030599684 -0.05918306 0.05387459 0.05485992
000290 fd df a7 3d f6 4f 35 bd 9c af 38 bd e3 28 bf bc
       0.08197019 -0.04426571 -0.04508935 -0.023334926
0002a0 28 63 e9 bc 91 3f 84 bc 0e 68 b7 3a 9b 87 97 3d
       -0.028489664 -0.016143592 0.0013992803 0.073989116
0002b0 cb 95 27 3c da d6 38 bb 34 da 3f bc 62 ad 24 bc
       0.0102285845 -0.0028204233 -0.0117097385 -0.010051103
0002c0 d5 5d a2 bd 32 e0 b9 bd 5e ca 5c 3d 2e fc 34 3d
       -0.07928053 -0.09075965 0.05390393 0.04418581
0002d0 9a 0b a3 bd 41 39 82 bd ce 61 b8 bd d4 d0 a9 b9
       -0.07961197 -0.063585766 -0.0900303 -0.0003238978
0002e0 72 3b ad bc 52 37 51 bd 27 af 82 3d 07 a6 c7 3d
       -0.02114651 -0.05107815 0.06381064 0.09748464
0002f0 9f 60 2a 3d 99 6e 1c bd 2c 51 3e bc ce da a3 bd
       0.04159605 -0.03819141 -0.011616033 -0.08000718
000300 04 54 0f bd 64 c6 6c bd 67 2c 5f bd 7c 3d 5b bd
       -0.034992233 -0.057806388 -0.054485705 -0.053525433
000310 ee a5 35 3d 24 7f 6e 3d 8c 58 aa bc 9d 73 bc 3d
       0.044347696 0.05822672 -0.020794176 0.09201739
000320 16 68 56 3d b9 48 ca bd 17 79 aa bd e1 73 7c bb
       0.052345358 -0.09877152 -0.08323877 -0.0038521218
000330 ef be b1 3b 06 d2 1b bd b2 6d bb bd 39 de 92 bc
       0.0054243724 -0.03804209 -0.09151782 -0.01792823
000340 05 38 a3 3d 25 89 6a bd cf 14 d5 bc 16 4a 41 bd
       0.07969669 -0.057259697 -0.026010899 -0.047189794
000350 46 4b a0 3d 47 95 ad bd 96 ca bd 3d cf 70 7c 3d
       0.07826857 -0.08475738 0.09267156 0.06163102
000360 c5 3a 38 3d f6 de 1c bd a7 ac be 3d c5 27 2c bd
       0.044977922 -0.03829857 0.093102746 -0.042030115
000370 ee fb 36 bd b3 79 21 3d ae f1 c9 bd 29 7c 0e bd
       -0.044673853 0.039422702 -0.0986055 -0.034786377
000380 16 0d c0 bd 86 94 38 3d 6c 08 87 bd 84 b1 db 3c
       -0.09377496 0.045063518 -0.06593403 0.026818044
000390 0c 49 ba bd 08 30 ac 3d 47 5d 3d bd 40 e2 07 3d
       -0.09095964 0.08407599 -0.046231534 0.033174753
0003a0 08 36 6f 3c cb c1 9b 3d 40 aa eb 3c 6b dd 88 3c
       0.014600284 0.076053225 0.028767705 0.016707143
0003b0 d1 32 09 bd c0 ae 96 3d a1 fe dc bc e7 04 27 3d
       -0.033495728 0.0735755 -0.026976885 0.04077616
0003c0 7c 17 0a bd 7e 76 ac bd f7 7f 97 bd e4 57 ab bd
       -0.033713803 -0.08421038 -0.07397454 -0.08366373
0003d0 e8 09 cd 3c 4d 0a c7 bd 74 ee c6 bd 7d 3b 3c 3d
       0.025029138 -0.097187616 -0.0971345 0.04595517
0003e0 35 9f 5e 3c 93 0c 9e 3d 95 12 5d bc 2b 0a 61 3d
       0.013587763 0.07717242 -0.0134932 0.054941338
0003f0 90 f0 d7 bc f6 0e b0 3d e7 74 05 3d 7e ca 8d bd
       -0.026359826 0.085966036 0.03258219 -0.06923388

fc3.bias f4 [24]
000000 c4 e2 45 bc 0b 31 cb 3d ec 3c d0 3c 7d 8c 8b 3d
       -0.012077991 0.099214636 0.025419675 0.068139054
000010 d7 6d 66 bd b5 e5 17 3d 87 88 1a 3d 6a 67 9c bd
       -0.056257095 0.0370843 0.03772786 -0.07636912
000020 4f c4 5f 3c 8d 08 9d bd bd 3e 6d bd 9b 9e 78 bd
       0.013657643 -0.076676466 -0.05792116 -0.060698133
000030 7d c7 8b 3d 1c 39 89 bd 2e 76 3f bd 38 3f 1e 3d
       0.06825159 -0.06700346 -0.046743564 0.03863451
000040 55 86 a3 3c 8f b9 16 3d 3e e2 6e 3c b6 c3 62 3d
       0.019961515 0.036798056 0.0145803075 0.055362426
000050 ca 77 4d bc e6 86 22 bd a6 d3 31 bd 94 a3 c1 bd
       -0.012540767 -0.03967943 -0.043414734 -0.09455028

fc4.weight f4 [2, 24]
000000 3f 82 13 bd 43 47 0d be 44 2f ff 3d ee 08 45 be
       -0.036012884 -0.13796715 0.12460187 -0.19241688
000010 3d aa 3e be a4 16 09 be 74 57 06 3e 5e 68 af bd
       -0.18619628 -0.13387543 0.13119298 -0.08564828
000020 13 6d 1b be f6 ae e4 3d f6 93 4f 3d 5e 97 06 be
       -0.15178327 0.11166184 0.050678216 -0.1314368
000030 56 70 12 3e 07 47 30 3d f4 84 3b be 04 46 a2 bd
       0.14300665 0.043036487 -0.18312436 -0.07923511
000040 0a 80 b5 3c c0 9e 29 be 50 1e 3d bd 05 18 fd bd
       0.02215578 -0.16564465 -0.046171486 -0.12358097
000050 7a b6 34 be e6 68 96 bc 86 26 f3 3c c6 51 17 3e
       -0.17647734 -0.018360566 0.029681455 0.14777288
000060 90 43 f4 3d 76 45 b9 bd 78 86 18 3e 08 93 dd bb
       0.11926949 -0.09046452 0.14895046 -0.0067619123
000070 65 68 20 3e 8e f9 95 bd f1 85 33 3e d7 0e 09 bb
       0.15664823 -0.073229894 0.17531563 -0.0020913386
000080 80 70 02 3e 55 4a 25 be c5 1f 3a 3e d6 d7 8c 3d
       0.12738228 -0.16141637 0.18176182 0.06877105
000090 72 09 32 3e 48 6d 41 be 13 14 14 3e 3e dc e4 bd
       0.17386416 -0.18889344 0.14460783 -0.1117482
0000a0 a1 04 5e 3d 3d de 6f bd 19 5d 1b 3e 6a db 80 bd
       0.054203633 -0.058561552 0.15172233 -0.0629185
0000b0 3a 13 13 3e 81 1c 5f 3d 77 6e 3c 3e 23 09 8a 3b
       0.14362803 0.054470543 0.18401514 0.004212515

fc4.bias f4 [2]
000000 3a da 05 bd 42 b5 c6 bd
       -0.03267882 -0.09702541

fc5.weight f4 [1, 2]
000000 a6 b8 92 3e ee 3b e6 3d
       0.286565 0.112418994
